backend/models/rl_agents/chain_8453/dqn_checkpoint_ep1300.pkl (torch, 402791 bytes, 60 tensors)

shared.0.weight f4 [128, 48]
00000000: aab1 7f3d dac8 8e3d a4cb 4fbe 4e32 193d
00000010: 149f 0ebd 9142 033d 06eb 1c3a a270 873d
00000020: 40a3 693e 7024 cfbd b3a8 003e 6c00 b13d
00000030: 65b3 ffbc 3e33 333c f2de 0cbe ba5f 193d
00000040: 20bb b63d 27f7 84bd d9bf 48be c0e3 6f3d
00000050: 74fb 1cbe 06e3 f8bd 21ef e8bc 5ade 1d3b
00000060: f858 5b3a 87ec 68bd f507 873e ab70 183e
00000070: 1f7c 9f3d 90b6 2fbe 3ba2 17be a269 973d
00000080: abd5 233d 0d35 693d 40c3 9bbe 91f7 4cbe
00000090: 81a2 7abe dd38 b13d 4aea 12be b0da 47bd
000000a0: 10e6 323d 6175 03be aa73 b13d 26d2 653e
000000b0: e161 9e3c d1f0 0ebd 6a8a 163e 4511 d7bd
000000c0: 7b93 27be 108a da3c 56b9 ee3d c245 483d
000000d0: fa21 4fbd 99ff 2dbe 5339 ac3e 8d9f 4bbe
000000e0: fa85 403d 5c4e d83d 0708 88be f9bb e43d
000000f0: 266a 973e dbb4 63bd 034a 263e 18f5 a33d
00000100: aba6 803b d5a9 fbbc 6b4b a4bc 654f c23d
00000110: f3b5 88bd 06a7 903d 743e 18be feaf 393e
00000120: e6a0 d33b f212 3dbc adb3 07be 27f7 13bd
00000130: 0049 0cbe f4bf efbc f2a9 23be 8518 4dbe
00000140: c5b0 5ebe 9b85 62be c24c 63bc 16b6 54bd
00000150: e29b 7ebd 6159 673c 242d bdbc cd6e 023d
00000160: 6792 463e 2e09 c5bb ee6a f9bc 1038 163e
00000170: c498 253e 4cb1 f53b fe54 ed3d c735 7dbe
00000180: 514f 8fbd 19fc 1a3e ad31 a43d f1a3 ea3d
00000190: a43a c13c 5a5e 573e 13a0 babd 29e0 433e
000001a0: 0556 87bd ab7a 28be 0a46 13be ef99 373e
000001b0: d0dc 4d3e a025 33be 21f5 e73d 4417 003e
000001c0: 5724 17bc e6f6 1cbe b3ea ee3d a5b4 bc3d
000001d0: b430 153e 1a53 0abd e934 09be a45e c73d
000001e0: 2507 e1bc 55eb 543e d398 f83d e818 14bd
000001f0: 02cb 3dbc d061 fcbd ca84 633d c2a1 89bd
00000200: 700a ebbc f267 303e 2912 a63c 11c8 adbe
00000210: be3d 13be 3ccc 1abe b064 cdbd de1a d1bc
00000220: 8d22 8ebd 8d74 8abd ec1b ce3d c0e2 f03b
00000230: 8a1e 053c 5c2c 51be af3d c13c 0266 013e
00000240: cf78 143e 7b46 e3bc 1a91 48bd 72f8 95bd
00000250: f168 a7bc ec74 b6bd b3ad ecbc a6e4 633d
00000260: 038a 2e3e 90a8 aabd 8fc9 803d e30b 40bb
00000270: a192 1e3e 66cb 23bd 12eb 893d b9a2 203e
00000280: 6db5 533e 7fed b9bd 5881 e33d a445 e63d
00000290: 8a91 dfbd 3aa6 b6bd 4376 ab3d 0b51 6dba
000002a0: e70e 89bc 2422 eabd b2e2 1f3e 485c a03d
000002b0: 0648 b33d 21e6 673d cb78 823e f9ac adbd
000002c0: 9518 4f3e 06e4 11be 9ebe 573c f3a1 e23d
000002d0: d0be 20be c447 52be 5f13 6d3d b00d a8bc
000002e0: 79b9 683d 830a 303e c364 4cbe 7118 cd3c
000002f0: 0df8 86bd e495 873d 3a51 a93d 0dc8 06bd
00000300: ce8f 8b3d 604a 88bb 5a71 5bbd 818c 773e
00000310: 5820 c5bd 6a79 e03d 0231 65bd a41a 58bd
00000320: a6ee 993d f815 1bbc aa3a a73d 8e4d 2ebd
00000330: 65e5 aebc 04b6 01be 8dd6 74bd ae73 11bd
00000340: b171 e73c 0524 893b 5981 e73d 69f4 88be
00000350: 2f6b 79be bc4a 84bc c555 92bd 1b9e 533e
00000360: 4734 1cbd 9185 cb3d c767 c4bc 9936 9f3d
00000370: 14ef 9fbc 8777 5d3e 01b3 313e fe70 263e
00000380: cbe2 d93d 603a dabd dea6 953e 749b c8bd
00000390: d4f7 fbbd b82a 40bc abe1 74be 9be9 153e
000003a0: 1a34 573e 1510 6b3e f8c0 cbbc dcc3 41be
000003b0: abed 193e 34b6 3cbc 4d60 463a 06c3 473e
000003c0: cc31 933e 70e3 753e a537 c6bd 883a 153e
000003d0: a7e7 c33d ca3f 67be bb77 78bd 6791 fa3d
000003e0: 0ee0 aebd e537 6dbd 94df 8f3d 4d66 b03d
000003f0: b1a7 b93d c1f2 913b 948e 243e f414 bc3d
0.062425293 0.06971903 -0.20292526 0.03740149 -0.034819677 0.032045905 0.0005985949 0.0661328
0.22816181 -0.10114372 0.12564354 0.086426586 -0.031213472 0.01093751 -0.13756922 0.037444808
0.0892241 -0.06492453 -0.19604434 0.05856681 -0.15330297 -0.12152676 -0.028434338 0.002408883
0.00083674444 -0.056866195 0.26373258 0.1488673 0.07787346 -0.17159486 -0.1480798 0.07393195
0.03999869 0.05693536 -0.304224 -0.20016314 -0.24476053 0.08653424 -0.14347187 -0.04879254
0.043676436 -0.12837745 0.08664639 0.22443447 0.019333782 -0.03489763 0.14701238 -0.10501341
-0.16364853 0.026677161 0.11656444 0.04889465 -0.050569512 -0.16992034 0.33637485 -0.19885083
0.04700277 0.10561821 -0.26568624 0.111686654 0.29573172 -0.0555924 0.1623917 0.08005732
0.0039261184 -0.03072063 -0.020055493 0.094877996 -0.06675329 0.07063107 -0.14867574 0.18133542
0.0064583896 -0.011540161 -0.13252135 -0.036124375 -0.13699722 -0.029266335 -0.15982798 -0.20028885
-0.2174712 -0.22121279 -0.013873281 -0.051931463 -0.06216038 0.014120431 -0.023092814 0.03184395
0.19391786 -0.006013057 -0.030446496 0.14669824 0.16171557 0.007497942 0.115884766 -0.24727546
-0.0699755 0.1513523 0.080172874 0.114570506 0.023587532 0.21032086 -0.09112563 0.19128479
-0.06608204 -0.16453044 -0.14382187 0.17929815 0.20103765 -0.17494822 0.113260515 0.12508875
-0.009224973 -0.1532856 0.11665859 0.09214143 0.1456936 -0.033770658 -0.1339909 0.09734848
-0.027469227 0.20792897 0.12138524 -0.036156565 -0.011584045 -0.12323344 0.05554656 -0.06720306
-0.0286915 0.17227152 0.020272331 -0.339417 -0.14379022 -0.15116972 -0.1002897 -0.025525507
-0.06940184 -0.067605115 0.100639194 0.0073512495 0.008124957 -0.20427078 0.023588983 0.12636569
0.1449921 -0.027743569 -0.048966505 -0.07322778 -0.020435782 -0.0890902 -0.02889142 0.055637978
0.17044835 -0.08332932 0.06288444 -0.002930396 0.15485622 -0.039988898 0.06734289 0.15687074
0.20674677 -0.09078502 0.11108655 0.11243752 -0.10916431 -0.08918424 0.08372166 -0.0009052909
-0.016730739 -0.11432293 0.15613821 0.07830101 0.08753972 0.056615952 0.25482783 -0.084802575
0.20224221 -0.1424714 0.013168005 0.110660456 -0.15697789 -0.20535189 0.0578798 -0.02051434
0.056817506 0.1719151 -0.19960313 0.025036069 -0.06590281 0.06620386 0.08267446 -0.032905627
0.06814538 -0.004159257 -0.053574897 0.24174692 -0.0962531 0.10960658 -0.05595494 -0.05275978
0.07516222 -0.009465687 0.08165486 -0.04255443 -0.021349618 -0.1266709 -0.059774924 -0.03551071
0.028252454 0.004185202 0.11303968 -0.2674897 -0.24357294 -0.016148917 -0.071452655 0.20665781
-0.038135793 0.09937585 -0.023975266 0.077740856 -0.019523181 0.21627627 0.17353441 0.1625404
0.106389605 -0.106556654 0.29228872 -0.09795275 -0.12303129 -0.011728935 -0.2391421 0.14639895
0.21015969 0.22955354 -0.024872288 -0.1892237 0.1503207 -0.01151805 0.00075674505 0.1950799
0.2874893 0.24012542 -0.09678582 0.14573109 0.095656686 -0.22582927 -0.06066106 0.122347645
-0.08538829 -0.057914633 0.07025066 0.08613262 0.09065188 0.0044539873 0.16070014 0.09183684

shared.0.bias f4 [128]
00000000: 397e f6bb 26eb 99bc 1cfa fbba 9538 fabb
00000010: d078 873c be12 26bc 6040 b2bc f652 f53b
00000020: c83d 883a 6fad a3bc 4934 013a fab4 65bc
00000030: 0360 b6bc d984 39bc 820d d93c 1aa1 fdbb
00000040: 6136 22bd caee f33b bb7a 8d3c 4e16 8f3c
00000050: ce6b 5a3b 83e1 bd3b 0838 cebc e48d 30bc
00000060: 6b5e af3c 44d5 c438 bb37 2e3c a05b 4d3c
00000070: 2fd4 5f3c 9961 833b 389b f3bb 66c2 1dbc
00000080: 44c2 723b c918 193c d2d7 d3bb 64d7 913c
00000090: 2198 8a3c 7ceb d03b 06f9 693c 9902 34bc
000000a0: 0b54 a7bc 1a66 263c a5b7 1a3b 1860 ecbc
000000b0: 1bde a73c 2591 9cba e698 35bc ba22 39bb
000000c0: 2d27 f43b 8ee3 9e3b 717d 21bc c1f7 b23b
000000d0: 0a57 503c 004a 373c dd83 d4bc 666b 64b9
000000e0: 5bc8 28bc c700 b33c e271 3ebc 56ea 413c
000000f0: d9ec 143c 7120 d23b 38d3 84bc 51ed 693c
00000100: c49d ef3a 6a9b bd3a 37b3 963b a121 b83c
00000110: 7be8 863c 7054 673c a773 8d3a 2dfd 5f3b
00000120: 618e 863b d055 c53c d99f b0bc 24eb cb3b
00000130: d45b bbbb 7616 a6ba 6ad8 683b e5d9 85bc
00000140: b0d8 84bb 4798 14bc 7fd2 9cbc a7d8 6e3b
00000150: 8f2d 0bbc 788a 43bc 04bc 0a3d a7b1 16bb
00000160: b6de af3b 7adb 113d a286 d8bc 261c 6739
00000170: 0292 abbc d67e cc3c b008 8d3c 3e20 273b
00000180: 7ded 973a b1c6 ddbc e69d 2d3b 3d5e 32bc
00000190: af90 183d 734c f13b 783e a9bb dade 2d3c
000001a0: 1316 32bc b393 59bc e5f7 6ebd 787f 393c
000001b0: cfe8 8dbc 444a 1abb d7ab 793c 0bdb a23b
000001c0: a9d0 113c 917a dabc 75c9 d63b 3a4d cc3b
000001d0: 41df bd3c fe20 4c3b a6e5 093d 21c5 6a3c
000001e0: be13 9ebc 9af7 a1bb 93a0 6fbb 8eb8 a93c
000001f0: 3559 0e3c be54 cb3b fa0b 733c 2366 7c3c
-0.007522371 -0.018788885 -0.0019224319 -0.0076361396 0.0165371 -0.010136304 -0.021759212 0.0074866964
0.0010394389 -0.01998016 0.00049287506 -0.014020199 -0.022262579 -0.011323177 0.026495699 -0.007740152
-0.03960264 0.0074442374 0.017270437 0.01746669 0.0033328417 0.0057947054 -0.025173202 -0.010776017
0.021407327 9.385732e-05 0.010633404 0.012534052 0.013661428 0.0040094373 -0.007434275 -0.009628868
0.003704206 0.009344288 -0.006464937 0.017802902 0.016918244 0.006375728 0.014280563 -0.010986947
-0.020425817 0.010156179 0.0023607996 -0.028854415 0.02049165 -0.0011945112 -0.011083817 -0.0028249458
0.007450959 0.004848904 -0.009856568 0.0054616635 0.012716064 0.011187077 -0.025941784 -0.00021783783
-0.010301675 0.021850957 -0.0116238315 0.011835655 0.009089672 0.0064125587 -0.016213998 0.014277772
0.0018281271 0.0014465873 0.004599001 0.022476973 0.016468277 0.014119253 0.0010791913 0.0034178004
0.0041063284 0.02408877 -0.021560596 0.0062230993 -0.005717734 -0.0012671489 0.0035529383 -0.016339252
-0.0040541515 -0.009069509 -0.019143341 0.0036445053 -0.008494749 -0.011934869 0.033870712 -0.0022994073
0.0053671254 0.0356097 -0.026431385 0.00022040363 -0.020943645 0.024962824 0.017216057 0.0025501396
0.0011591163 -0.027072283 0.002649182 -0.010886726 0.037247356 0.00736385 -0.0051649176 0.010612214
-0.010869521 -0.013279843 -0.05834188 0.011321895 -0.017322926 -0.00235428 0.015238724 0.0049699596
0.008899846 -0.026669772 0.0065547773 0.006234792 0.023177745 0.0031147595 0.033666275 0.014329226
-0.019296523 -0.0049428465 -0.0036564216 0.020717885 0.008688261 0.0062051704 0.014834398 0.015405211

shared.1.weight f4 [128]
00000000: 23d9 863f 4169 7b3f 4847 7d3f 38b7 7f3f
00000010: f791 853f 5b7b 7c3f 4010 793f 42f2 823f
00000020: bbf7 803f f085 7e3f 6c44 7a3f a32b 7b3f
00000030: 197b 773f d858 813f 6ba1 833f da54 813f
00000040: d613 7e3f 2612 803f c77c 803f 4e26 7f3f
00000050: d62e 843f e1b8 803f 1264 7f3f c2ff 823f
00000060: 2481 813f aa21 793f e7b2 803f e1f3 863f
00000070: 9cbf 7b3f 13d7 803f dbdc 823f 5211 7e3f
00000080: b894 813f 608f 803f 1b20 803f 4cd1 7e3f
00000090: 1e6a 823f cd88 7d3f d0e4 803f e92c 7e3f
000000a0: a936 813f b928 813f c573 813f 73b6 7d3f
000000b0: 199a 803f 038a 833f d290 7c3f 723c 7d3f
000000c0: 4a28 813f a8f0 7e3f 261f 803f 0b54 833f
000000d0: a75c 823f 8139 803f 0786 783f 2582 7f3f
000000e0: 80d8 843f 22ec 813f 44dd 7d3f bbcd 7e3f
000000f0: 31c6 813f f5ff 823f ebb0 803f 3b1b 803f
00000100: f0bb 843f ddeb 7f3f f864 7f3f 50b5 813f
00000110: 8b80 7f3f abb9 823f a572 813f 662c 7d3f
00000120: 2920 7e3f 67d5 813f 37ea 803f 5e19 853f
00000130: 605d 813f 49f6 7a3f dd65 7f3f ef68 813f
00000140: 222b 813f f3b3 813f 6785 7e3f 95c7 743f
00000150: 8336 7c3f 14de 7d3f 562d 803f 09c2 833f
00000160: e5cc 813f abf0 823f 8e73 7e3f 1228 7d3f
00000170: cba3 7a3f be7a 813f 982a 773f 8308 803f
00000180: 9f79 7f3f 1170 793f 2a9b 803f 0753 823f
00000190: caa2 813f 290f 823f 7e26 873f e515 7a3f
000001a0: 2710 813f f265 7d3f bbda 7e3f 817e 7c3f
000001b0: 64ab 823f 244e 883f 12fe 813f c1ab 773f
000001c0: db1d 853f 646d 843f 18fb 7e3f c5cc 7d3f
000001d0: 79a9 813f a10c 833f 5f23 803f fffd 7e3f
000001e0: b78a 7f3f 5d70 7f3f 0a60 803f 6aac 7c3f
000001f0: 8a91 813f e5f7 803f b0fd 823f 0de8 7a3f
1.0535015 0.9820748 0.9893689 0.99888945 1.043517 0.98625726 0.9729042 1.0230181
1.0075601 0.9942312 0.97760653 0.9811346 0.9667221 1.0105238 1.0283636 1.010402
0.9924902 1.0005538 1.0038079 0.99667823 1.0326793 1.005642 0.9976207 1.0234301
1.0117536 0.9731699 1.0054597 1.0543176 0.9833925 1.0065635 1.022365 0.9924518
1.012351 1.0043755 1.0009798 0.9953811 1.0188634 0.99036866 1.0069828 0.9928728
1.0094806 1.0090553 1.0113455 0.9910652 1.0047027 1.0276493 0.9865848 0.9892036
1.009042 0.9958596 1.0009506 1.0260023 1.0184525 1.0017549 0.9707951 0.9980796
1.037857 1.0150187 0.9916575 0.9953267 1.0138608 1.0234362 1.0053991 1.000831
1.0369854 0.99969274 0.9976344 1.0133457 0.99805516 1.0212911 1.0113112 0.9889587
0.9926782 1.014325 1.0071477 1.0398366 1.0106621 0.9803205 0.99764806 1.0110148
1.0091288 1.0133041 0.99422306 0.9561704 0.9852068 0.9916699 1.0013835 1.029359
1.0140654 1.0229696 0.9939507 0.9888927 0.9790618 1.0115583 0.9654937 1.0002598
0.99794954 0.97436625 1.0047352 1.0181588 1.0127804 1.0160877 1.0558622 0.9768966
1.0083054 0.9898368 0.99552506 0.9863053 1.0208554 1.0648847 1.0155661 0.9674645
1.0399736 1.0345883 0.9960189 0.9914058 1.0129844 1.0238229 1.0010794 0.9960632
0.9982104 0.9978083 1.0029309 0.98700583 1.012254 1.0075651 1.0233669 0.9801033

shared.1.bias f4 [128]
00000000: 8ef3 87bc 4bdd 1ebd 99d9 a9bc 1c93 b4bc
00000010: 7a25 1ebc bc2c b8bc 84dd 0ebd c88a 64bb
00000020: c1af e8ba e2d7 ffbc fcb8 08bd 05b5 b1bc
00000030: c9b3 36bd 1ad4 4bbc d607 853c 0c40 4dbc
00000040: 7b6a 1fbd 0aef 1ebc 7e62 49bb e6d8 773b
00000050: 0678 0bbc a3e1 3b3c e31f 24bd 58d3 62bc
00000060: 4980 b23c 51d1 c7bc 8b2f b139 a551 1f3b
00000070: 48f4 f23b 4d2e 7bba d630 76bc 508a b0bc
00000080: c039 0abd ac57 12bb c10a debc af07 a5bb
00000090: fe65 073b 49f8 c83b 4418 523c 7747 5fbc
000000a0: a6d4 d3bc 37b2 a73c f709 96bc 7cdb 13bd
000000b0: 4617 ac3c b7d2 a7b9 167d a8bc 6eba 75bc
000000c0: 0cbe d0bb b571 ef3b d992 aabc ac27 b6bb
000000d0: 96e2 6fbb e090 25bc da05 3bbd d607 9dbb
000000e0: 92e3 abbc 95a1 55b9 258e debc d243 5dbc
000000f0: 0df3 6abc 893f b1bc cfb6 89bc 7ba6 b13b
00000100: b536 a3bb b9fd 5e3b a789 8abb 5201 d53c
00000110: 11a8 08bc a211 adbb 9a02 a1b9 d305 f7bb
00000120: 78f9 90bc 9927 bc3c 912a e8bc 6b47 0cbc
00000130: cd04 dcbb 89ae abbc ef46 80bc 90ec e2bc
00000140: 5f41 59bc cf93 e1bc 6b32 c9bc a80e 75bc
00000150: a160 e5bc 5c11 2fbc f888 3e3c 0bc5 83bc
00000160: dbc9 2a3c 7dfc 053d db76 30bd 1f88 aabc
00000170: f80f f5bc f0ca 3d3c a6fa edbb ef7f 89bc
00000180: 503e 993b a5a0 1abd 496c 343b 527b dfbc
00000190: 653d 193d 59f5 babc 082f cb3c 709c cf39
000001a0: 5479 0bbd bd35 c2bb 91d5 19bd 4a91 823c
000001b0: b152 08bd 4cfa 7bbc a00a d63b 2d06 18bb
000001c0: 09d8 3a3b ddab a6bc 1c2e 24ba d70a fb3a
000001d0: 93aa 653c 3900 823c 5c5d 193d 5919 6bbc
000001e0: 780b 00bd 0456 87bc 08f9 31bc a3a4 70bb
000001f0: 4460 bf3c 8884 8ebb 99c9 b23c 09db 0bbd
-0.016595628 -0.03878526 -0.020733641 -0.022042803 -0.00965249 -0.022482269 -0.034879223 -0.003487276
-0.0017752574 -0.03123087 -0.03337954 -0.021692762 -0.04460505 -0.012440706 0.016239088 -0.012527477
-0.038919907 -0.009700546 -0.0030728872 0.003781849 -0.008512503 0.01146737 -0.040069472 -0.013844334
0.021789687 -0.024391802 0.00033795493 0.0024310139 0.0074143745 -0.00095817895 -0.015026292 -0.021550328
-0.03374648 -0.0022330089 -0.027104737 -0.0050363163 0.0020660157 0.0061331135 0.012823168 -0.013627878
-0.025858235 0.020470722 -0.018315298 -0.03609799 0.021007191 -0.00032009717 -0.020567458 -0.014998062
-0.0063703116 0.007307256 -0.020821976 -0.0055589285 -0.0036603562 -0.010105342 -0.045659877 -0.004792194
-0.020982537 -0.00020373457 -0.02716739 -0.013504939 -0.014340174 -0.021636741 -0.016810803 0.0054214573
-0.004980887 0.0034025742 -0.004227835 0.026001606 -0.008340851 -0.005281643 -0.0003071025 -0.007538536
-0.017697081 0.0229681 -0.02834061 -0.008561949 -0.0067144395 -0.020957248 -0.015658824 -0.027700692
-0.013260215 -0.027536301 -0.024560174 -0.014957108 -0.028000178 -0.010685291 0.011629336 -0.016085168
0.010424103 0.032711495 -0.0430821 -0.02081686 -0.029914841 0.011584029 -0.0072625456 -0.016784636
0.0046766177 -0.03775086 0.0027530363 -0.027280483 0.037412066 -0.022822069 0.0248027 0.00039598672
-0.034051254 -0.0059268163 -0.03755719 0.01593842 -0.033281986 -0.0153795 0.0065320283 -0.002319704
0.0028510115 -0.020345623 -0.00062629743 0.0019153011 0.014017719 0.015869247 0.03744255 -0.014349305
-0.031260937 -0.016520508 -0.010862596 -0.0036719225 0.023361333 -0.004349295 0.021824645 -0.034144435

value_stream.0.weight f4 [64, 128]
00000000: b25a 71bd 63ad 6abd fe72 523d 58a4 d43c
00000010: 0585 8bbb 6cf2 a2bd 17ef 92bd fb47 9e3e
00000020: c776 3bbe 4d56 213d ba3c 203e f28a a43e
00000030: ca5b 863e f2a6 27be 3bdc 34be 8440 113e
00000040: b4b3 92bd b223 833d 5d91 e0bc aa48 ee3d
00000050: 3da1 083e 07cd 85be e524 f23d b54a 403e
00000060: be0d 493d c9ce 023e c666 3bbd b96d d1bd
00000070: c77f 813d 9e69 a9bd 1dfb 8dbd ac0e 103e
00000080: de61 d33d c9d2 85bd e71e 573e 1bcc 50bd
00000090: 6e10 16be 48a6 883d 082f e13c bf59 b13c
000000a0: a59f 4cbe 829e afbc e42a 203c 19bd 273e
000000b0: 2873 033e 7123 d83a 4bf1 893c a455 223e
000000c0: fd15 503d 2a76 cb3d 388d 0abd 189f 6dbe
000000d0: a21a 41be d3db 9abd a0ea 8aba cf8d a83d
000000e0: bd6a 91be ad1c 923d 137b 6d3d d72d 91bd
000000f0: fd79 543d a1c0 9fbd 604d d9bd 04f3 993e
00000100: f070 49be 9296 7fbd 6e3e 5c3e 5119 d5bd
00000110: d065 febc efa0 503e d68e 37bc 9ada 8d3d
00000120: bdd9 da3d 404e 22bd 8a35 353d b382 90bd
00000130: 2edb 973b 4519 f83a 1775 403e d75c babc
00000140: 1799 f2bd a9cc 9abd 259a 443d 60e5 343e
00000150: c2b3 9bbd be25 bd3c 718b 533e 4d12 6d3e
00000160: 2bed 223e 462c a9bc 65ba 293d b2dc 833d
00000170: 6592 1c3d 91d3 2c3d 9bbb 15be ea9b c83b
00000180: 34fc 6ebb 9c99 a4bd 1282 f03d 8f64 27be
00000190: 44be 063e 5802 573d 96b4 7ebe 2ff0 793d
000001a0: 4014 ebbd 30ad 7fbc 4163 183e 6942 20be
000001b0: e074 bc3d 1cca 043d 030a e2bc 1a17 323d
000001c0: 892f a03d 6b01 4a3e a901 7d3d 5fa6 10be
000001d0: 76eb 4b3d 11ff 83bc 46ce 84be 4508 05be
000001e0: cad8 a83c 8a54 d23d 9d5f 84be 2f33 a0bd
000001f0: 689b a8bd c954 c6bc f17a aebc 08d1 4b3c
00000200: ce2c 373d 8966 7a3e 0cb2 ac3d aca5 823d
00000210: 2d63 253e e13e 903d f95d 023d e33e d8bd
00000220: c7d3 153e 8481 1cbe 1982 0ebe 231c 963d
00000230: 9c4e c9bc ba7d a03d 8206 82be ac21 e9bc
00000240: 0636 043a 683f ca3d 6e74 11be 5238 debb
00000250: 4d5a 133e 3ba9 703b 0901 47be 1ae6 543d
00000260: 4093 5e3e b0e0 1cbd ae19 51bd abbf e13d
00000270: 479e da3d 3ca0 f7bb 7dbf 0dbc 7449 69bd
00000280: 15c5 053e 0405 823e a15c 803e 3db4 fa3c
00000290: 798d 2f3e 73b1 a73d 528c 8b3d 20b8 7bbd
000002a0: c49c cfbd 1788 05be 1146 f5bd e9d1 283d
000002b0: b942 d2bb 5d33 b3be 2dc9 2d3e 085a d73c
000002c0: d20f c63c 9263 10bd 28c0 4f3e 44c3 e4bb
000002d0: 360b e93c 694f 7e3d 4716 a7bb e853 bebc
000002e0: ae97 423d 496f 103d 38cf 86bd e8aa e8bd
000002f0: 198a bb3c 236b f5bc 1182 873c 0e1c 053a
00000300: 731c aa3c 95ca 0cbe 09b0 2fbd 94ee 6ebe
00000310: c557 3ebe 028f a7bc 1a85 203e 5fca 36be
00000320: 0acf c13d 6ade 383e 2fc4 b2bd d11f 63bd
00000330: 3245 c23d 3f94 2abe 521c 213e 4fc2 033d
00000340: 7c1a a43d f618 60be bfd0 8ebd b784 213b
00000350: 3f10 023d cf97 1dbc d61e 083e cac7 b1bd
00000360: f2da ac3d 74a8 023d 7d20 223d f8f8 993c
00000370: dba8 c83d 2597 593e 1b0b 37be 1e74 72bd
00000380: 01da a1bd e806 a43d f5f5 f9bd 24a9 8abe
00000390: d387 7dbe 0dd0 ed3d cc2f 17be 20e0 543c
000003a0: 93f1 203e 76f7 ef3d cfab cebd 6876 9dbd
000003b0: 1282 983d 323b 3abe d2e1 773d 8a91 86bb
000003c0: af8a e7bd 52ab 7cbd 6b8a 16be d02c 23be
000003d0: ce19 5cbe fc42 073e f49e 3e3e 0b80 ddbc
000003e0: ef0a 69bd d172 2cbd 5ad1 903d 75d6 20bc
000003f0: 637f 9b3e 1034 60be 2abe ee3d f9eb a83d
-0.058924384 -0.05729426 0.051379196 0.025957271 -0.0042578005 -0.079563946 -0.07174509 0.30914292
-0.18307029 0.039388943 0.15648165 0.32137257 0.26241904 -0.16372278 -0.17662136 0.14184767
-0.07163182 0.06403293 -0.027413065 0.11634953 0.13342758 -0.26132986 0.11823443 0.18778498
0.04908537 0.12774195 -0.04575231 -0.10226006 0.063232 -0.08272098 -0.06932662 0.14068097
0.10321401 -0.06534345 0.21007882 -0.0509759 -0.14654705 0.06672341 0.027488247 0.02164924
-0.19982775 -0.021437887 0.009775851 0.16380729 0.12836897 0.0016490055 0.01683869 0.15852982
0.05080222 0.099346474 -0.033826083 -0.2320522 -0.18857816 -0.075614594 -0.0010598488 0.08230173
-0.28401747 0.07134376 0.0579787 -0.070888214 0.05187415 -0.07800413 -0.10610461 0.3006822
-0.19671988 -0.062399454 0.2150819 -0.10405219 -0.031054407 0.20373891 -0.011203488 0.069264606
0.106860615 -0.039625406 0.044240512 -0.07056179 0.0046342826 0.0018928429 0.18794666 -0.022749348
-0.11845606 -0.07558567 0.047998566 0.17665625 -0.076026455 0.023089286 0.20658661 0.23151512
0.15910785 -0.020650994 0.041437525 0.06438579 0.03822555 0.042193953 -0.14622347 0.006122102
-0.0036466243 -0.08037111 0.11743559 -0.16346954 0.13158518 0.05249247 -0.24873576 0.061020073
-0.11478472 -0.015605256 0.14881612 -0.15650333 0.0920198 0.03241931 -0.027592665 0.043479063
0.078215666 0.19727103 0.06176916 -0.14125966 0.0497851 -0.016112836 -0.25938624 -0.12991436
0.020611186 0.10270031 -0.25854197 -0.078222625 -0.082327664 -0.02421035 -0.021298857 0.012439974
0.044720463 0.24453177 0.08432397 0.06379256 0.16151114 0.07043243 0.0318279 -0.1055887
0.14631568 -0.15283781 -0.13916816 0.073295854 -0.024573617 0.078364804 -0.2539559 -0.028458439
0.00050434505 0.09875375 -0.1420457 -0.0067816162 0.14389916 0.0036721963 -0.19433989 0.051977254
0.21735859 -0.038300216 -0.05104988 0.11022886 0.1067472 -0.007556943 -0.008651611 -0.056954816
0.13063462 0.25394452 0.2507067 0.030603522 0.17143811 0.08188143 0.06813873 -0.061454892
-0.101373225 -0.13040195 -0.11976255 0.04121581 -0.0064166454 -0.35000125 0.16971274 0.026288047
0.024177466 -0.035251208 0.20288146 -0.0069812853 0.028447729 0.06208745 -0.005099091 -0.023233369
0.047507934 0.03526238 -0.065824926 -0.11360723 0.022892999 -0.029958313 0.016541513 0.0005077728
0.020765519 -0.13749154 -0.04289249 -0.23333198 -0.18588169 -0.020453934 0.15675774 -0.17850636
0.09463318 0.18053594 -0.08728825 -0.055450264 0.09485854 -0.16658114 0.1573346 0.03216773
0.08012864 -0.21884522 -0.06973409 0.0024645755 0.031753775 -0.0096187135 0.13293013 -0.08680685
0.08440198 0.03189893 0.039581764 0.018795475 0.097978316 0.21249063 -0.1787533 -0.05919277
-0.07902909 0.0800913 -0.12205116 -0.2708217 -0.24758844 0.11611948 -0.14764327 0.012992889
0.15717153 0.11717121 -0.10091364 -0.076886 0.07446684 -0.18186644 0.060518093 -0.004106705
-0.11305749 -0.06168682 -0.1470124 -0.15935063 -0.21494219 0.13209146 0.18615323 -0.027038595
-0.056895193 -0.042101685 0.07071181 -0.009816756 0.30370626 -0.2189486 0.11657365 0.08248133

value_stream.0.bias f4 [64]
00000000: ce92 b4bb 4490 ed3b 8028 233c 838a 3d3a
00000010: cdb5 de3b a2b4 97ba 183e 53ba 4617 813c
00000020: b86a 01bc 0bb8 02bc 08cd 50bb a33d 983a
00000030: 4fba 803c 6b16 563c 1fd8 893c db22 52bc
00000040: e213 ef3b 032d d4bb 20ee 263c 2e04 b8ba
00000050: 088e e1bb 5893 dabb 0d8c a03b 13ba 10bc
00000060: 197e 133c 7a5d 25bb 1e1b 7cba 40f7 50bc
00000070: c655 7d3b 616f 2abc b2a5 823b 9dd1 09ba
00000080: d7f9 9c39 6d72 e6b7 549e b9bc a8b1 d53b
00000090: aed8 bb3c 9885 dd38 2c73 d5ba bb6f 0b3b
000000a0: d7ed 98bb b11e a5bb b691 ecba 1b33 0eba
000000b0: b6c6 eebb c992 173b 059d 6dba a86c 8f3b
000000c0: 88ba ec3a 8df4 66bb fe22 813c e105 07bc
000000d0: e9ae 04bb 0ed0 6d3c d6f5 1f3c fb32 b33b
000000e0: dcc7 4b3c 6815 58ba d413 e1bc 8676 f53b
000000f0: 3519 fe3b 5878 20bc 3876 3b3b eef2 9abc
-0.0055106645 0.007249864 0.009958386 0.00072304177 0.0067965747 -0.0011574219 -0.0008058264 0.015758168
-0.007898979 -0.00797845 -0.003186049 0.0011615049 0.015713839 0.013066868 0.016826687 -0.012825693
0.0072960714 -0.0064750924 0.010188609 -0.0014039332 -0.0068833865 -0.006670397 0.004899508 -0.008833426
0.009002232 -0.0025232718 -0.0009617078 -0.0127542615 0.0038655861 -0.010402531 0.0039870376 -0.000525737
0.00029940784 -2.747142e-05 -0.022658505 0.0065214224 0.02293047 0.00010562985 -0.0016284934 0.0021276313
-0.0046670246 -0.005039059 -0.0018048796 -0.00054244854 -0.007286872 0.0023128262 -0.000906423 0.0043769665
0.0018060962 -0.0035240978 0.015763756 -0.008241148 -0.0020245856 0.014514936 0.009763202 0.005468724
0.012437787 -0.0008242936 -0.027475275 0.0074909357 0.0077544698 -0.009794317 0.00286044 -0.018914666

value_stream.1.weight f4 [64]
00000000: d4f0 803f 0604 853f a1d0 853f 4c59 833f
00000010: 3717 843f d3f9 823f 6948 8b3f ec64 833f
00000020: d747 823f b696 843f e210 833f f3d5 803f
00000030: 84a9 923f 3915 813f d373 803f 8f1b 813f
00000040: b19a 803f 73c4 823f 6ad0 803f 6f90 7d3f
00000050: e179 803f 834f 823f ae5d 853f 1e52 7e3f
00000060: 0d7a 843f 70ce 893f 3114 803f e0a0 803f
00000070: 5735 833f c584 803f dd6f 823f 357e 7f3f
00000080: 189f 803f 6914 7c3f 6eba 803f 8165 833f
00000090: 8b44 8d3f b7c5 813f dfb4 8a3f 60af 863f
000000a0: ca95 803f 5d77 803f f7df 7c3f e7a3 833f
000000b0: 64cf 803f ac0c 823f ff02 813f 1b29 803f
000000c0: e90f 773f 8495 833f 2812 853f 0838 813f
000000d0: 04f1 813f 09b7 843f e36f 813f 1b85 803f
000000e0: 13f4 823f a610 803f 7dca 7a3f 5fe8 803f
000000f0: 8877 863f 712d 803f 93dc 7e3f f407 7f3f
1.0073495 1.0391853 1.0454293 1.0261626 1.0319585 1.023249 1.0881473 1.0265174
1.0178174 1.0358493 1.0239527 1.0065292 1.1457982 1.0084602 1.0035347 1.0086535
1.0047208 1.0216202 1.0063603 0.99048513 1.0037194 1.0180515 1.0419214 0.9934405
1.0349747 1.0766125 1.0006162 1.0049095 1.0250653 1.0040518 1.0190388 0.9980195
1.0048552 0.98468643 1.0056894 1.0265352 1.1036543 1.0138463 1.0836447 1.052227
1.0045712 1.0036427 0.98779243 1.0284394 1.006329 1.0160117 1.0079039 1.0012544
0.9650865 1.0280004 1.0396166 1.0095224 1.0151677 1.0368358 1.011227 1.004062
1.0230736 1.0005081 0.9796522 1.0070914 1.0505228 1.0013868 0.9955532 0.9962151

value_stream.1.bias f4 [64]
00000000: 4d31 043c 6310 a9bc 1dbf 803b 9a62 82bb
00000010: 6be0 d63b e829 cabb 574c 883c 7884 b1ba
00000020: 4716 943b f151 54bc 2825 e1bb cd35 713a
00000030: 80e3 afb9 42aa 993c 4926 403b b303 74bc
00000040: d568 e93a db96 04bb 3cb0 c73b 1de2 aabb
00000050: bb45 1dbc 149d 41bb 4d82 6bbc 61e5 223c
00000060: 5d85 82bb 2529 c7bb c361 5ebb 7de7 10bc
00000070: f239 3cbc 9ec9 dcba 191d 59bc edfc c4ba
00000080: 0370 0f3a 9115 383c edda 95bc 2a50 c039
00000090: a141 323c 2a25 1bbb a938 bfbc a8c6 b1bb
000000a0: 1dca 993b b176 803c e280 803b d6d8 963b
000000b0: 2f79 d0bb 5266 4cb9 d635 d9bb 785d 603a
000000c0: bb03 10bd 5f13 343c bc0d 2fbd 2b72 6dbc
000000d0: d0fd ecbb 667a 4a3c 004c 1e3c ea09 ba3a
000000e0: a1ac 7f3c 2546 82bc 5c28 303c a9d2 4cbc
000000f0: f149 6cbc d2cc 933b b658 293b 5be2 ee3b
0.008068395 -0.020637697 0.0039290325 -0.0039790394 0.0065575144 -0.0061695464 0.016637964 -0.0013543507
0.004519257 -0.0129589895 -0.0068708844 0.00092014374 -0.00033548102 0.018757943 0.0029319695 -0.01489346
0.0017807732 -0.0020231518 0.006094007 -0.005214943 -0.009599145 -0.0029543089 -0.014374328 0.0099423835
-0.0039831833 -0.006077903 -0.0033932782 -0.008844254 -0.011488425 -0.0016844755 -0.013251566 -0.0015028991
0.0005471708 0.011235611 -0.018292869 0.0003668082 0.010879905 -0.0023673275 -0.023342447 -0.005425293
0.0046932832 0.015681596 0.003921614 0.0046034856 -0.0063621025 -0.00019493073 -0.006628732 0.000855885
-0.035159808 0.010990947 -0.042737707 -0.014492552 -0.0072324052 0.012358284 0.0096616745 0.0014193628
0.015605123 -0.015902588 0.01075181 -0.012501397 -0.014421926 0.0045105005 0.002584023 0.0072901673

value_stream.3.weight f4 [1, 64]
00000000: 3b5b 863e d51a c9bd 2fb7 a03e 49f5 113e
00000010: f471 6abe c704 b53e a111 1e3e 8f8f 82bd
00000020: 74cc d53d 74a4 23be 73ef 323d 5506 4abe
00000030: 3c10 27be c096 1f3e 1096 b7bd d484 8e3d
00000040: a737 56be 7d23 aa3e 5f7c 98be c748 d5b9
00000050: 7706 a23e dc49 1fbe ead9 4c3e 3075 d23c
00000060: 5c6f e7bd bf98 d6bd ac6b 90be 2f7c de3d
00000070: 5b70 2fbe fbb4 073e 293c 58be 310f b73e
00000080: b904 083e c8ad 16bd d2bd 923e 1e49 253e
00000090: 7617 31be 45f8 6cbe 3192 9f3e 89e8 753e
000000a0: ba08 15bd 844a 0f3e 4ed8 b03e b4d9 9e3e
000000b0: b57c 1cbc e9fe 8ebe ff4f 513d d6a7 19bd
000000c0: 8ef1 dabc b728 f6bd 959d 5fbd 3333 52be
000000d0: 42d9 88be 05b3 41be 0a6c a73e 08d5 f1bc
000000e0: acb8 7c3e 7f3d 49be 98a6 f6bc 8a43 0abe
000000f0: 4748 43bd 08c4 ba3c b1f6 22be d536 583c
0.26241478 -0.09819571 0.31389758 0.14253725 -0.22895032 0.35355207 0.15436412 -0.06375038
0.10439387 -0.15980703 0.043685388 -0.19728978 -0.16314787 0.1558485 -0.08964169 0.06958929
-0.20919667 0.332302 -0.29782388 -0.0004068075 0.31645557 -0.15555519 0.20005003 0.025690645
-0.11300537 -0.10478353 -0.28207147 0.1086353 -0.17132704 0.13252632 -0.211167 0.35753778
0.13283052 -0.036786824 0.28660446 0.16141173 -0.17294106 -0.23141582 0.31166223 0.24014486
-0.036385275 0.13993269 0.34540027 0.3102547 -0.009551217 -0.27928856 0.05110168 -0.037513576
-0.02672651 -0.120194845 -0.05459364 -0.20527343 -0.26728255 -0.18915947 0.32699615 -0.029520527
0.24679822 -0.19652365 -0.030108735 -0.13502327 -0.04767635 0.022798553 -0.15914418 0.013196667

advantage_stream.0.weight f4 [64, 128]
00000000: 94ee 57bd 90ec d13c 3992 9dbd 239e f53c
00000010: f37c e43d 9581 123e 1707 d7bd 93b2 123e
00000020: 1623 d63d 76b2 8c3d 50fa d5bd bf4e 863e
00000030: 4d7b 843d d3d8 e33c 085e a83d bd07 753c
00000040: 7c59 e9bd 3ce8 1a3d 8f8b 6b3d 457d 833e
00000050: dacd 90be d4b4 153d 0b2e 8bbd 34f2 773d
00000060: 1c77 443e f434 39be 6932 c3bc b5ae e1bd
00000070: eb43 ddbd 7e1d 073c d1ec a4bc fdb3 043e
00000080: 4bee 653d d740 e9bd 3d2e f7bd 8b9a 883c
00000090: 1917 8bbe db1d 6b3d ecfd 49bd ceb2 9cbd
000000a0: de35 fd3b 9cf4 d23b 5d1e c5bc c9dc 883d
000000b0: b4ad 29be cf31 a53c 40b7 9f3e c672 103d
000000c0: 61a4 473e fe71 8ebe dfeb edbd 8e61 8bbc
000000d0: aacc 293d bac3 043e 90e7 2ebe 20c3 dfbd
000000e0: 826c 493e da2a 963c 2d0e a4bc 16c6 abbd
000000f0: f624 1c3d 1eb6 18be 05d1 773d b20e 07bd
00000100: 6da6 1e3e 4741 6b3e 24b8 c53d dfa7 1d3d
00000110: b58d e53d 7a11 5a3c 3e94 043d 251c 663d
00000120: 5ab9 9bbc e876 df3d 4a98 243d 2362 06bb
00000130: 70d7 5a3e 03f9 89bc 5f94 be3c a010 24be
00000140: d989 a53d 3859 90bd b513 693e e450 743d
00000150: eeb9 16be ed91 4a3e 4f98 d7bd 5be6 f23c
00000160: a66b 133c 9b0b b73c ef29 c9bc 275c a9be
00000170: c304 ad3d db1f 49bc 103b e33d 56a5 f43d
00000180: 3008 463d f758 17bc a480 563d 7756 d3bd
00000190: 288a 1fbe 68fc 1ebd d0a0 5a3d 681f a7be
000001a0: f920 12be b24a 3abd 12bd e0bd 8b09 093e
000001b0: a730 1d3d 265c de3d cb32 80be b863 4b3e
000001c0: 13b0 98be b837 433d 1743 8b3b b777 bf3d
000001d0: a79f 063c fd3a 8a3c 0e24 8e3d 0e65 683e
000001e0: bf4a 41be 39c1 e1bc 1b90 e13d cfbc 643d
000001f0: 40e7 8c3e 35d5 4f3d 8221 b13d f59b 10be
00000200: 419b 153e fe22 af3b df64 e5bc 6212 31bb
00000210: 0194 0b3b d030 ce3c de60 533c 0a4b bebc
00000220: 22b2 d3bd d2f5 9bbe e77a 913e 70b9 ff3d
00000230: 4db9 c3bc 6617 0f3d afed a2bc 2b88 c7bd
00000240: f9cc 273e a661 a63b 0b3f cfbd af3a 213d
00000250: 4f36 cebd 6798 f93d a5dd 8dbc be93 a2bd
00000260: ba83 5abe 322d 12bd 9a10 6a3e 61db 38be
00000270: 6ee7 633e 5e26 cabc ea6e 18bd 726b 413e
00000280: 181d 01bd 1e15 143d 308e 57bd 594c a43d
00000290: b67a 063e 069b 13be a65d cfbd 7864 3bbe
000002a0: 0a2d 2e3d c16f 31be 891e c43d a872 113e
000002b0: 1b29 b0bd 6df1 643c 42ae 24bc c04d dd3c
000002c0: 36fa b53d 242d 61bd ad33 ffba cfd0 ccbb
000002d0: abd2 04bd 6bf3 0b3e acad 483e 75b7 943e
000002e0: 5cb9 acbd f97d a3bd 2d80 c13d 237d d9bd
000002f0: 02ef fb3d 16f2 16be 5b9b 093d 513c 62bd
00000300: 6384 03be 627e a8bd 5323 693e 788f 0a3e
00000310: 4aca c5bd f6fa 2b3d 06ad 13bd a223 abbd
00000320: 718e 173d d1e6 483e 0e6c 513e 614d 53be
00000330: ea87 78bd c4b0 a13d 4cf3 fb3c ec19 e8bc
00000340: 4e42 9e3d ee28 9abd 19b7 73be 3523 e3bd
00000350: c930 1dbe 2245 9f3b 8796 5cbe aa5a 443e
00000360: 3a03 06bc 97ad 933d d1fc babe dc0b 323d
00000370: 716f cf3c 975f 933c 9b62 993d 537b 8d3d
00000380: 47fc 863b b7c2 b63e b5c7 923a 9136 1b3e
00000390: af78 3cbd f09d 063e 344f 383d 28e3 7cbd
000003a0: 644a 0f3e f2d4 babd 9971 913d a1d8 3abd
000003b0: ac3d 12bd 0b8b 103e 451e 0e3e 653b 83bd
000003c0: 1752 84be 42a3 b7bd a992 f43c fbdb 1e3e
000003d0: 52ec 2ebe ccf3 87bd 0d44 21bd e87b d6bd
000003e0: fb71 05bd be09 28be 3d1a 06bd 45f3 db3d
000003f0: 473c 983d d094 ebbd 8247 123d 53aa 343e
-0.05271776 0.025625497 -0.076939054 0.029982632 0.11156645 0.14307244 -0.10499399 0.14325933
0.10455911 0.06869976 -0.10448134 0.26231954 0.0646883 0.02781335 0.0822106 0.014955458
-0.11394021 0.037819132 0.05750614 0.2568151 -0.28282052 0.036549404 -0.067958914 0.060533717
0.19186062 -0.18086606 -0.023827748 -0.11019651 -0.1080397 0.008246778 -0.020132454 0.12959285
0.056135457 -0.1138932 -0.12069366 0.016675254 -0.2716606 0.05740152 -0.049314424 -0.07651292
0.0077273687 0.006437851 -0.02406233 0.066827364 -0.16570169 0.020165352 0.31194496 0.035265706
0.194963 -0.27821344 -0.116172545 -0.017014291 0.04145495 0.12965289 -0.17080522 -0.10925889
0.19670299 0.01833098 -0.02002629 -0.08387391 0.038121186 -0.14913222 0.06050207 -0.032973
0.15493174 0.2297412 0.09654263 0.038490172 0.11208669 0.013309831 0.032367937 0.056179184
-0.019009281 0.109113514 0.040184297 -0.0020505271 0.21371245 -0.01684237 0.023264108 -0.16021967
0.08082933 -0.07048267 0.22761424 0.059647456 -0.14719364 0.19782229 -0.105270974 0.029650858
0.008997833 0.022344401 -0.024556128 -0.3307812 0.08448174 -0.012275661 0.1109525 0.11945598
0.048347652 -0.009237519 0.052368775 -0.10319226 -0.15580046 -0.038814932 0.05337602 -0.3264115
-0.1427039 -0.04548139 -0.10973562 0.13382547 0.038376477 0.1085742 -0.25038752 0.19862258
-0.29821834 0.04766056 0.004249941 0.09349006 0.008216775 0.01687383 0.06940471 0.226948
-0.1887617 -0.027557956 0.11013814 0.055844124 0.2752018 0.05074044 0.08648969 -0.14121993
0.14610006 0.0053447476 -0.0280022 -0.0027019014 0.0021297934 0.02516976 0.012901513 -0.02322914
-0.103367105 -0.30460984 0.2841408 0.12486541 -0.02389207 0.034934424 -0.019888727 -0.09742769
0.16386785 0.0050775586 -0.10119446 0.039362606 -0.10068952 0.121872716 -0.017317602 -0.07938336
-0.21339312 -0.035687633 0.22857895 -0.18052436 0.22256252 -0.024676498 -0.03721515 0.18888643
-0.031521887 0.03615295 -0.052625835 0.08022375 0.13132748 -0.14414605 -0.10125284 -0.18300045
0.04252342 -0.17327787 0.095761366 0.14203894 -0.0860159 0.013973576 -0.010051312 0.027014613
0.088856146 -0.05497469 -0.0019470357 -0.006250478 -0.03242747 0.13667075 0.195975 0.29046217
-0.08433792 -0.07983012 0.09448276 -0.10619571 0.123014465 -0.14740786 0.033595424 -0.055233303
-0.1284347 -0.082272306 0.22767381 0.13531291 -0.09657724 0.041987382 -0.03605368 -0.08356406
0.037001077 0.196193 0.20451376 -0.20634986 -0.060676493 0.078950435 0.030755661 -0.028332673
0.0772749 -0.07527338 -0.23800315 -0.110906996 -0.15350641 0.004860536 -0.21541797 0.1917521
-0.00817948 0.07210844 -0.3652101 0.04346834 0.025321694 0.017989917 0.074895106 0.06908288
0.0041194293 0.3569543 0.0011198433 0.15157534 -0.04601353 0.13146186 0.04499741 -0.06174007
0.13993222 -0.09122647 0.07101745 -0.04561675 -0.035703346 0.1411554 0.13878734 -0.06407813
-0.2584388 -0.08966686 0.02985509 0.15513603 -0.17082337 -0.066382974 -0.03937154 -0.10472852
-0.032579403 -0.16409966 -0.032739867 0.10739759 0.07433372 -0.11502993 0.035712726 0.17643099

advantage_stream.0.bias f4 [64]
00000000: acde 753b fd13 c63b d910 2d3b d574 e7bb
00000010: 59f7 e1ba f6c9 0e3c 0685 09bd 3dfe c63a
00000020: 0a20 a139 68ea a93c c1d5 633c 04f0 d93b
00000030: 0ebd 933c f166 45bc 1b5a cc3c eb6e 623c
00000040: 44d3 263a 0c6a 8f3c fbbb d4bb 3adc 13ba
00000050: 43ae 87bc f377 b63b d927 bf3b 2cc4 4ebb
00000060: d65c 4abc ece6 a4bc 7d51 2c3c ba69 9e3b
00000070: f93b 8f3c f824 b23b 03aa e13c 95db 8a3c
00000080: 9213 f93b 0d05 8abb be4a c73a 9bac e9bb
00000090: 607b 4d3c 7a12 ad39 55f2 be3a e531 1bbc
000000a0: a6b2 03bb d988 373b 3080 2cbc 5376 473a
000000b0: 1d3b 0c3b dd95 393b 7c57 a1bc 2d45 0a3c
000000c0: f587 353b 48c4 353c adcd 3a3b b423 e3b9
000000d0: 1a19 45bb 9972 053c b257 b93b 0e40 08bc
000000e0: 365a 6f3c 2ea5 7cbc 232b d4ba 3b56 29bc
000000f0: ae13 a7bb 8bb9 0f3a f196 353c a8ee 063b
0.0037516756 0.0060448633 0.0026407747 -0.007063488 -0.0017239853 0.008715143 -0.033574127 0.001518197
0.00030732184 0.020741656 0.013905943 0.0066509265 0.018034484 -0.012048469 0.02494531 0.01382039
0.00063638785 0.017506622 -0.0064921356 -0.00056404213 -0.016562587 0.0055684983 0.0058336076 -0.0031550033
-0.012351235 -0.020129643 0.010517475 0.004834381 0.017484652 0.005436536 0.027546888 0.016950408
0.00760121 -0.004212028 0.001520477 -0.007131172 0.012541622 0.00033010897 0.001456807 -0.009472345
-0.0020095496 0.0028005152 -0.010528609 0.0007608879 0.002139754 0.0028318085 -0.019695036 0.008439344
0.0027699445 0.01109416 0.002850394 -0.00043323415 -0.0030074776 0.008144998 0.005656206 -0.008316053
0.01460891 -0.015420241 -0.0016187172 -0.0103355 -0.0050987815 0.0005482665 0.0110833505 0.0020589028

advantage_stream.1.weight f4 [64]
00000000: c607 843f ddcc 823f e88c 843f 8ff9 813f
00000010: 0433 833f 3439 803f 08df 813f 5512 823f
00000020: d8ad 833f c37d 853f c962 7c3f ec83 813f
00000030: 92c7 8e3f 9901 833f a30d 8a3f 70df 853f
00000040: aedf 863f e6f4 863f 54a1 7e3f 3173 823f
00000050: f2dc 823f 2c93 863f 97f7 833f 0a23 823f
00000060: c390 803f 00e3 803f 21b8 8f3f 4f36 853f
00000070: 4401 853f 63af 863f 5cd4 903f ff12 863f
00000080: 9786 823f 7f45 7f3f 4e74 823f a4cf 7e3f
00000090: 5fbb 9a3f cd59 883f eadc 7f3f 6d8f 823f
000000a0: db89 843f a0ca 813f f98a 843f 4c81 823f
000000b0: 4d6a 823f 14ac 813f 4d4b 7d3f 5e58 813f
000000c0: bc3f 803f 07e4 803f 6ac5 7f3f 2701 813f
000000d0: a247 8a3f 5103 7f3f d79a 873f 680c 7e3f
000000e0: 0ede 853f 2db9 813f c6c5 7e3f 846d 7e3f
000000f0: 5c9a 813f 4897 823f 57e8 843f 2726 803f
1.0314872 1.0218769 1.0355501 1.0154284 1.0249944 1.0017457 1.0146189 1.0161844
1.0287428 1.0429004 0.98588234 1.0118384 1.1154654 1.0234863 1.0785412 1.0458813
1.0537012 1.0543487 0.9946492 1.0191404 1.0223677 1.0513663 1.0309933 1.0166943
1.0044178 1.0069275 1.1228067 1.0407199 1.0391011 1.0522274 1.1314807 1.0474547
1.0197324 0.9971542 1.0191743 0.99535584 1.2088431 1.0652405 0.99946463 1.020002
1.035457 1.0139961 1.0354911 1.0195708 1.018869 1.0130639 0.98943025 1.0105093
1.001945 1.0069588 0.99910605 1.0078477 1.0803111 0.99614435 1.0594128 0.9923768
1.0458391 1.0134636 0.9952053 0.9938586 1.0125232 1.0202417 1.0383404 1.0011643

advantage_stream.1.bias f4 [64]
00000000: c8a8 eb3b 6702 54ba 40e5 583b 0a0e 7cbb
00000010: 2db6 f5bb bd96 f03b 386c 013d 0c74 173b
00000020: 9cea 8abb 143f e3bc 9af9 e4bc ec2a 293c
00000030: 8ea0 8cbb 83d7 67bc a166 173d 9884 773c
00000040: 5d23 af3b b1e0 8b3a 402f 1fbc ba1c 6c3b
00000050: b29e 123c c8f9 753c 8d1b 973b b719 183c
00000060: 0d08 7a3c 6419 d3bc 3a43 083d 34f3 5dba
00000070: 801c cfbc 3efe fb3a 14a4 bf3b 4a3a 09ba
00000080: c7f5 173b 14ea 89b9 c8fb 383b c250 54bc
00000090: 4e12 de3b 0cbf e0bb c330 84b9 49b4 dcbc
000000a0: d949 193d 55c2 29bb 0afd 3b3c 3a28 88b8
000000b0: 40f3 31bb da3d 5c3a cd80 0bbc 2fbf ddbc
000000c0: 99ec 0fbc 3def fa3b a988 783c 4339 d5bb
000000d0: 92e4 31bc 11bb 87bb 6a8e 5b3c d7cd 2dbc
000000e0: 7a40 ccbc 8636 103d e32b b7bc f42c 4fbc
000000f0: 596b 97bc 95a1 3c3c 401a 7b3c 8835 07bb
0.007191751 -0.0008087516 0.0033095628 -0.0038460516 -0.0074985237 0.007342188 0.031597346 0.002310994
-0.0042393934 -0.027740039 -0.02795105 0.010325175 -0.0042916005 -0.014150503 0.03696311 0.015107296
0.005344792 0.0010671822 -0.009715855 0.0036027865 0.008948969 0.015013166 0.0046114386 0.009283475
0.0152607085 -0.025768943 0.033267237 -0.0008466721 -0.025282145 0.001922555 0.005848417 -0.0005234821
0.0023187266 -0.00026305078 0.0028226245 -0.012958707 0.0067770844 -0.006858712 -0.00025213332 -0.026941435
0.037423942 -0.0025903184 0.011473903 -6.492478e-05 -0.0027153045 0.00084015506 -0.008514595 -0.027068703
-0.008784437 0.007657914 0.015169301 -0.0065070703 -0.010857718 -0.004142173 0.013400653 -0.010608158
-0.024933089 0.035208248 -0.022359794 -0.012644995 -0.018483805 0.0115131335 0.015326083 -0.0020631272

advantage_stream.3.weight f4 [2, 64]
00000000: 427e bd3e 1059 8b3d fbf9 87be 7172 c9be
00000010: 2e0d 6f3e 30c2 c0bd 2bef 65be 7eea e4bc
00000020: 51c9 813e 01c1 d6bb aa09 b73d 7f5e d93e
00000030: 94eb b6bc 70bd e7bd 0730 5dbd eae0 6b3e
00000040: a177 b13e 34ec cc3e 9878 05be 2b58 3cbd
00000050: 463d 82bd ae4d 8c3c 2678 a5be 79d1 383a
00000060: 0af6 98bb c20a 39bd 6fc6 493d 1233 123e
00000070: 9657 1c3d d82a 563e 360a 38be 1ee4 3e3e
00000080: 6a21 c93e 75ff 90be 7234 bebd ca9a 9fbe
00000090: b92c 7b3e a5e3 84bd bafd 473d e3d8 0bbe
000000a0: 9d7f aabd 4f6e 2dbe bda6 2c3e 2213 7b3d
000000b0: 8d67 f7bd a920 2d3d 4c04 df3d 0f95 8abe
000000c0: 4ae3 23bd fae4 3a3e 4936 52be 5611 0d3e
000000d0: aa77 95bd 3914 83bd 7e85 063e 8f33 b7be
000000e0: 5622 71bd 7200 ccbc d11d b1bd b1e5 a2be
000000f0: ea1b 55bc 026c 563e 54b7 4b3e daf4 2fbd
00000100: b66f dfbc 00a7 bcbd fd6c 0dbd 04f2 be3c
00000110: 3a7c 58be d17d 673e 5cb3 82be b020 36be
00000120: 0da5 21be 5f67 e7bd 643b d23d 6ef4 44be
00000130: aaf8 b13e 66bd 9b3e e3dc 9d3d 0455 243d
00000140: 7ce8 a4bd 4d69 65be 6429 7f3e 5d08 dcbd
00000150: 3594 3cbe 33bc 06be 2bdf 91bd 0f6b adbd
00000160: 38db 323e e88f d73a 1ebf 2abe 7a28 4ebe
00000170: 847d f3bc e107 b4be 86b9 5f3e 50c0 d8bd
00000180: 649a e33b 6387 79be 9616 d5be 0a1f b4bd
00000190: 6eee 63be d81f 593e fd24 9fbd 1476 e33e
000001a0: faed 48be 20db 353e 88d0 8e3d 53b0 a7be
000001b0: f360 8c3e b01d a2bd 6588 3d3e f08b 68be
000001c0: 181b 773e 1101 f53b a56a d3be 34c2 8cbe
000001d0: 86b8 783e 674d febd 0e33 2cbe 2c9f 8f3d
000001e0: d67d 133e 6f59 d9bd 20bd 033d 325a 30be
000001f0: a8f3 683e 5fd5 4cbe b575 1a3c aa6e 4cbe
0.3701039 0.06804097 -0.26557907 -0.39345124 0.23344871 -0.09412038 -0.22454517 -0.027943846
0.25348905 -0.0065537696 0.0893739 0.42454907 -0.02232913 -0.11315429 -0.05400088 0.23035017
0.34661582 0.4002396 -0.13034284 -0.04598252 -0.06359343 0.017126884 -0.32318228 0.0007050257
-0.004668002 -0.045176275 0.049261507 0.14277294 0.038169466 0.20914781 -0.17972645 0.18641707
0.39283305 -0.28319898 -0.09287347 -0.31172782 0.24528779 -0.06488732 0.048825957 -0.13656954
-0.083251216 -0.1693661 0.1686048 0.061297543 -0.120802976 0.042267475 0.108894914 -0.27066848
-0.04001168 0.1825141 -0.2052852 0.13776144 -0.07298215 -0.064003415 0.1313686 -0.35781524
-0.058870636 -0.024902556 -0.08648265 -0.31815866 -0.0130071435 0.20939639 0.19894153 -0.042958118
-0.027274948 -0.0921154 -0.034527767 0.023308761 -0.21141139 0.22606589 -0.25527465 -0.17785907
-0.15785618 -0.11299013 0.10265234 -0.19233868 0.34760028 0.30417937 0.077081464 0.04012014
-0.080521554 -0.2240345 0.24918133 -0.10743783 -0.18415911 -0.1315773 -0.07122644 -0.084676854
0.17466438 0.0016446086 -0.16674468 -0.20132628 -0.029722936 -0.3516226 0.21848115 -0.10583556
0.006945895 -0.24368052 -0.41618794 -0.08794983 -0.22258922 0.21203554 -0.07770727 0.44426024
-0.19622031 0.17759371 0.06973368 -0.32751712 0.27417716 -0.07915819 0.18509062 -0.22709632
0.24131429 0.0074769338 -0.412923 -0.27491915 0.2428914 -0.12417107 -0.16816351 0.070127815
0.14403471 -0.10612761 0.032162786 -0.17221907 0.22749197 -0.2000327 0.009427478 -0.1996409

advantage_stream.3.bias f4 [2]
00000000: b759 0a3c b759 0abc
0.008444241 -0.008444241

shared.0.weight f4 [128, 48]
00000000: 58de 763d 555f 8a3d 6d01 52be 915e 103d
00000010: b073 17bd a3dd f43c 0910 ccba fe06 833d
00000020: f96e 673e 318f d3bd 33e8 fc3d dc96 ac3d
00000030: 4aae 08bd 2ae3 0f3c 8214 0fbe 128c 103d
00000040: ac51 b23d b861 89bd 8af5 4abe 4610 673d
00000050: 03ff 1cbe a844 f9bd 45b2 f2bc 43b8 f639
00000060: 4ea3 eebb 55b0 6bbd 0140 833e bd1f 163e
00000070: ef37 a43d 20b4 2fbe 33fa 15be 394d 893d
00000080: 2195 343d b6dc 5d3d 99e1 99be 91f7 4cbe
00000090: f0a2 7abe 652f c23d c951 11be 773d 56bd
000000a0: 5809 513c 21d5 11be cb79 c33d ceb7 5f3e
000000b0: 0e65 913c ddad 2abd 092c 0a3e 7165 d1bd
000000c0: 5e93 29be 9e8f ca3c 57bb ea3d e148 403d
000000d0: 2d20 57bd 8eff 2fbe 453a ab3e 8f9f 4dbe
000000e0: 1389 383d 4d50 d43d 0308 89be f0bd e03d
000000f0: 0c6b 963e 1db3 6bbd 264b 243e dcf6 9f3d
00000100: a275 013b d9d2 05bd 0847 b4bc 3e51 be3d
00000110: 9951 82bd 707f 913d f27c 18be def9 2f3e
00000120: e264 3fbb 8441 6abc 7f6c 02be e5ff 35bd
00000130: f1ad 03be 5c8b 23bd c3fe 29be 3c76 4cbe
00000140: 0dcb 54be cd55 65be ec73 4dbb 16b6 54bd
00000150: e29b 7ebd f554 c93c d5cd c3bc 63d5 983c
00000160: 3fca 2f3e 4f47 b6bb e6e7 a2bc f195 1c3e
00000170: 57a2 213e 56ba 493c 0098 f03d 2b67 7abe
00000180: 8ca4 90bd 3152 1a3e 5ddd a23d e64f e93d
00000190: 2ae8 bb3c a6b4 563e 74f5 bbbd 5536 433e
000001a0: 4eab 88bd b025 29be d8f0 13be 15f0 363e
000001b0: 1033 4d3e a2d0 33be 10a1 e63d 99da fe3d
000001c0: 12cb 21bc c2a1 1dbe b196 ed3d 8e60 bb3d
000001d0: 29d4 173e 1cf2 16bd 8e0c 06be 6d51 de3d
000001e0: d7b2 39bd ee6e 503e 5902 003e dee4 11bd
000001f0: cfe3 3cbc 8261 e3bd 5700 483d f112 83bd
00000200: 15d2 07bd dc3b 333e 9541 b13c 11c8 adbe
00000210: d93d 13be 039c 16be 26e8 cabd 0a14 d7b9
00000220: 8708 0dbd 1770 99bd 5c86 d73d 3cae 123c
00000230: aea2 013c c0b8 50be 65e2 ed3c 4226 fd3d
00000240: d9f0 143e dd8a dfbc 92b3 46bd d909 95bd
00000250: 28ad a3bc 6f86 b5bd 2cf2 e8bc 90c3 653d
00000260: 0b02 2f3e ffb9 a9bd 17b9 813d b529 22bb
00000270: b20a 1f3e b9ed 21bd a4da 8a3d c51a 213e
00000280: 912d 543e f7fe b8bd 3171 e43d 7c35 e73d
00000290: c518 d6bd f483 b4bd 2a2e b03d 185d afbb
000002a0: a5d2 aabc 36cd ebbd 367a 223e d29a a23d
000002b0: d219 b13d 27f8 7b3d 041b 833e 81da afbd
000002c0: 153a 4f3e 7654 0fbe d79b 813c 54a2 e23d
000002d0: ecbe 20be b7b4 56be 602c 5f3d 77e6 85bc
000002e0: 66a2 2d3d c781 2d3e 5b28 52be 395a dc3c
000002f0: 7d76 85bd cad3 7c3d 36ad ad3d 6708 11bd
00000300: e776 8f3d fdbf 13bb b0a4 53bd 9c80 793e
00000310: 593a c1bd c660 e43d 6a64 5dbd ff4d 50bd
00000320: c4d5 9d3d 2dc2 f7bb f621 ab3d d780 26bd
00000330: 484b 9fbc 2486 ffbd 050a 6dbd cba6 09bd
00000340: fe0c f73c 4a8f c73b bd68 eb3d 1efb 87be
00000350: 822b 87be cbe7 a8bb 6163 9fbd 353d 533e
00000360: b33c 1abd bbeb cd3d 82fe 91bc eac3 aa3d
00000370: 76c2 cdbc cd3f 563e e330 2a3e 02c2 253e
00000380: 9143 d33d 1246 d6bd 8f5f 9d3e 749b c8bd
00000390: d4f7 fbbd 922e b5bc 09b9 67be 24fd 123e
000003a0: 82aa 6d3e b266 6e3e 2f3e 0fbd b373 45be
000003b0: a37d 193e 3593 11bc 0fcc 0fbc 05c9 453e
000003c0: 6310 933e a0a0 753e 9fbf c6bd 54f7 143e
000003d0: f160 c33d 3784 67be 4b87 79bd d80a fa3d
000003e0: 0c68 afbd 5647 6ebd ae58 8f3d 85df af3d
000003f0: e620 b93d cd7d 893b 744b 243e 328e bb3d
0.060270637 0.067564644 -0.20508356 0.035246436 -0.036975563 0.02989084 -0.0015568744 0.06397818
0.22600926 -0.10330046 0.12348976 0.08427212 -0.03336934 0.0087821875 -0.13972667 0.03528983
0.08706984 -0.067080915 -0.19820228 0.056412004 -0.15331654 -0.12171298 -0.029626021 0.00047058062
-0.007282651 -0.05754121 0.2563477 0.14660545 0.08018481 -0.17158556 -0.14646225 0.06704182
0.044087533 0.054165564 -0.3005493 -0.20016314 -0.24476218 0.09481696 -0.14191355 -0.05230471
0.012758575 -0.14241458 0.095447145 0.2184746 0.017748382 -0.041669715 0.1349336 -0.102244265
-0.16560122 0.024726685 0.114615135 0.046944503 -0.05252092 -0.1718733 0.33442894 -0.20080398
0.0450526 0.10366879 -0.26763925 0.10973728 0.29378545 -0.057543863 0.16044292 0.078107566
0.0019753953 -0.032671783 -0.022006527 0.092928395 -0.0636322 0.07104385 -0.14891413 0.1718516
-0.0029204418 -0.014297847 -0.127367 -0.044433493 -0.12859322 -0.039927825 -0.1660109 -0.19966978
-0.20780583 -0.22396012 -0.0031349612 -0.051931463 -0.06216038 0.024576643 -0.02390186 0.018656438
0.17166995 -0.0055627 -0.019885968 0.15291573 0.15784584 0.012312492 0.11747742 -0.24453418
-0.07062635 0.15070416 0.07952378 0.113921925 0.022937853 0.2096735 -0.09177676 0.19063695
-0.06673299 -0.16518283 -0.14447343 0.17865022 0.2003901 -0.17560056 0.11261189 0.12444038
-0.009875076 -0.15393737 0.11601008 0.09149276 0.14827026 -0.036851987 -0.13090727 0.108553745
-0.04533657 0.20354816 0.12500896 -0.035618655 -0.011528923 -0.111025825 0.04882845 -0.06400097
-0.033159334 0.17503303 0.021637717 -0.339417 -0.14379062 -0.14707951 -0.0990756 -0.00041022926
-0.03443196 -0.074920826 0.10523674 0.0089526735 0.007912321 -0.20382977 0.029038617 0.12360813
0.14545001 -0.027287895 -0.048511095 -0.07277269 -0.019980028 -0.08863532 -0.028435789 0.056094706
0.17090623 -0.08287429 0.06334131 -0.0024744098 0.15531424 -0.03953335 0.06779984 0.15732868
0.20720507 -0.09033006 0.11154402 0.11289498 -0.10453943 -0.088142306 0.08602555 -0.005351674
-0.020852396 -0.1151375 0.15866932 0.07939686 0.08647503 0.061515953 0.2560655 -0.08586598
0.20237 -0.13997063 0.01582138 0.11066118 -0.15697831 -0.20967375 0.05448568 -0.016345246
0.042391203 0.16944037 -0.20523207 0.02689849 -0.065167405 0.061725415 0.08480303 -0.035408404
0.07005101 -0.0022544854 -0.05167073 0.24365467 -0.09434957 0.111512706 -0.05405084 -0.050855633
0.07706788 -0.0075609894 0.08356087 -0.040650215 -0.019445077 -0.12476757 -0.057870883 -0.03360633
0.030157562 0.0060900794 0.114945866 -0.26558775 -0.2640038 -0.005154585 -0.07782627 0.20628817
-0.037655544 0.10054728 -0.017821554 0.08338149 -0.02511714 0.20922776 0.16620211 0.1618729
0.10315622 -0.104625836 0.30736968 -0.09795275 -0.12303129 -0.022116933 -0.22629179 0.14354378
0.23209575 0.23281363 -0.034971412 -0.19282417 0.14989333 -0.008885195 -0.008776679 0.19314964
0.2872344 0.23987055 -0.097045176 0.14547473 0.095399745 -0.2260903 -0.06092004 0.122090995
-0.08564767 -0.0581735 0.06999336 0.08587555 0.09039478 0.004195905 0.16044408 0.09157981
