backend/models/rl_agents/chain_8453/dqn_checkpoint_ep200.pkl (torch, 402705 bytes, 60 tensors)

shared.0.weight f4 [128, 48]
0	0x3d6211f5	0.055192906
1	0x3d7ff1ff	0.062486645
2	0xbe5733ae	-0.21015808
3	0x3cf72532	0.030169103
4	0xbd2c3eca	-0.042052068
5	0x3ccb45c2	0.024813537
6	0xbbd96073	-0.006633812
7	0x3d714199	0.05890045
8	0x3e623b35	0.22092898
9	0xbdddf449	-0.10837609
10	0x3df28174	0.118410975
11	0x3da23093	0.07919421
12	0xbd1d796c	-0.038445875
13	0x3b72d19f	0.0037051213
14	0xbe1446fc	-0.14480203
15	0x3cf7800e	0.030212428
16	0x3da7eb48	0.08199173
17	0xbd93c700	-0.072156906
18	0xbe5027e4	-0.20327717
19	0x3d5243b4	0.051334098
20	0xbe22c17c	-0.15894121
21	0xbe0680c3	-0.13135056
22	0xbd062590	-0.032750666
23	0xbca9de65	-0.020735929
24	0xbd00a493	-0.03140695
25	0xbd44a8f2	-0.04801268
26	0x3e70f70a	0.23531738
27	0x3e1ca4cb	0.15297239
28	0x3d963825	0.073349275
29	0xbe3fe4a7	-0.18739568
30	0xbde0ba05	-0.109729804
31	0x3d5af98a	0.053460635
32	0x3d1eb620	0.038747907
33	0x3d069467	0.03285637
34	0xbe8cc8d0	-0.27496958
35	0xbe4cf791	-0.20016314
36	0xbe7aa281	-0.24476053
37	0x3dc57b36	0.09642641
38	0xbe014691	-0.12624575
39	0xbd7d7693	-0.06188066
40	0x3bf44642	0.0074546644
41	0xbe19bff1	-0.15014626
42	0x3dc71733	0.09721222
43	0x3e55772e	0.20846245
44	0xbb42fdef	-0.0029753407
45	0xbd39a617	-0.04532441
46	0x3ddc9efa	0.1077251
47	0xbda5c0f9	-0.08093447
48	0xbe2d81f0	-0.16944098
49	0x3cab15d0	0.020884424
50	0x3de2dc38	0.1107716
51	0x3d308bcc	0.04310207
52	0xbd66dbef	-0.05636209
53	0xbe33ee0d	-0.17571278
54	0x3ea9422c	0.33058298
55	0xbe518e02	-0.20464328
56	0x3d28cc05	0.041210193
57	0x3dcc713e	0.09982537
58	0xbe8aff2e	-0.27147812
59	0x3dd8deda	0.105893806
60	0x3e9472ff	0.28993985
61	0xbd7b6ed1	-0.06138498
62	0x3e205b8e	0.15659925
63	0x3d9817fa	0.07426448
64	0xbaf4a673	-0.0018665328
65	0xbd158edc	-0.036513194
66	0xbcd3bfae	-0.025848236
67	0x3db67248	0.08908516
68	0xbd829d3b	-0.063776456
69	0x3d984fcf	0.07437097
70	0xbe197763	-0.14986949
71	0x3e2d6c0c	0.16935748
72	0xbc4c30cd	-0.012462807
73	0xbc944a63	-0.018101877
74	0xbe027811	-0.12741114
75	0xbd963ba7	-0.073355965
76	0xbdd7e6e2	-0.10542084
77	0xbd6dd96c	-0.058068678
78	0xbe4e3037	-0.2013558
79	0xbe58b3f8	-0.21162403
80	0xbe3e60f4	-0.18591672
81	0xbe7b1975	-0.2452143
82	0x3b62c18a	0.0034600222
83	0xbd54b616	-0.051931463
84	0xbd7e9be2	-0.06216038
85	0x3d0586a6	0.032599114
86	0x3c27720e	0.010220064
87	0x3ca6a175	0.02034066
88	0x3e25151f	0.16121338
89	0x3bf8fc22	0.007598416
90	0xbc430d8f	-0.011905088
91	0x3e18fd2b	0.14940326
92	0x3e166638	0.14687431
93	0x3c084007	0.008316047
94	0x3dcf4053	0.10119691
95	0xbe64a1df	-0.22327374
96	0xbd95dc33	-0.0731739
97	0x3e17b59f	0.14815377
98	0x3d9da4cb	0.076974474
99	0x3de4170f	0.111372106
100	0x3ca7074a	0.020389218
101	0x3e5417e0	0.20712233
102	0xbdc12cf5	-0.09432403
103	0x3e4099af	0.18808626
104	0xbd8de2e7	-0.06928044
105	0xbe2bc125	-0.16772898
106	0xbe168c83	-0.14702038
107	0x3e345375	0.17609961
108	0x3e4a9657	0.19783913
109	0xbe366c1a	-0.17814675
110	0x3de1683f	0.110062115
111	0x3df9a1a5	0.121890344
112	0xbc4b8b21	-0.012423308
113	0xbe203d60	-0.15648413
114	0x3de85dd1	0.11346019
115	0x3db627f3	0.088943385
116	0x3e25935f	0.16169499
117	0xbce6d547	-0.02817787
118	0xbdf5c3ff	-0.12000274
119	0x3e0932f8	0.1339835
120	0xbdb51761	-0.0884235
121	0x3e5d5b9e	0.2161698
122	0x3e0cff27	0.13769208
123	0xbd23923a	-0.039934374
124	0x3a339fac	0.0006852101
125	0xbd9bab43	-0.07601025
126	0x3cf62099	0.03004484
127	0xbd4d08ad	-0.050057102
128	0xbd588cd4	-0.05286868
129	0x3e3a7d36	0.18211827
130	0x3ca867e4	0.020557351
131	0xbeadc811	-0.339417
132	0xbe133dbe	-0.14379022
133	0xbe16c510	-0.14723611
134	0xbd944aa2	-0.072407976
135	0xbbc2190a	-0.005923395
136	0xbcb38a77	-0.021916611
137	0xbda9287f	-0.08259677
138	0x3dd79130	0.10525739
139	0x3c9c25cc	0.019060992
140	0x3c35e9e9	0.011103132
141	0xbe4c7376	-0.1996592
142	0x3cf6b9a1	0.030117812
143	0x3deea1bd	0.11651943
144	0x3e0c4b34	0.13700563
145	0xbd12593d	-0.035729636
146	0xbd694707	-0.056952503
147	0xbda65361	-0.08121372
148	0xbce8d507	-0.028421892
149	0xbdc6cfdb	-0.09707614
150	0xbd170cd7	-0.03687748
151	0x3d432eb9	0.04765198
152	0x3e265c68	0.16246188
153	0xbdbb037f	-0.09131526
154	0x3d60dd3d	0.05489849
155	0xbc32db03	-0.010916474
156	0x3e166506	0.14686975
157	0xbd448153	-0.047974896
158	0x3d732059	0.05935702
159	0x3e18751e	0.14888427
160	0x3e4b87d2	0.1987603
161	0xbdca486f	-0.09877097
162	0x3dd32669	0.103100605
163	0x3dd5eab7	0.10445159
164	0xbdce73b8	-0.10080665
165	0xbdb2a0bd	-0.08722065
166	0x3dcf90ec	0.101350635
167	0xbbda412a	-0.0066606
168	0xbcc9e301	-0.024644377
169	0xbdd41814	-0.10356155
170	0x3e20f11f	0.1571698
171	0x3da2f74f	0.079573266
172	0x3db02ae7	0.08601933
173	0x3dc1258d	0.0943099
174	0x3e7e391f	0.24826477
175	0xbda70ee5	-0.08157138
176	0x3e53385b	0.20626967
177	0xbe05c78d	-0.13064404
178	0x3c8b0cb2	0.016973827
179	0x3de2a1f3	0.110660456
180	0xbe20bed0	-0.15697789
181	0xbe56ad9c	-0.20964664
182	0x3d1a61de	0.03769099
183	0x39dca6bb	0.00042085894
184	0x3d114ef8	0.0354757
185	0x3e370e3d	0.17876525
186	0xbe528455	-0.20558293
187	0x3d1c0806	0.03809359
188	0xbd63d421	-0.055622224
189	0x3d21d431	0.039509002
190	0x3d83c328	0.064337075
191	0xbd373a1d	-0.044733156
192	0x3da40ce0	0.08010268
193	0x3bff87f8	0.007798191
194	0xbd2a7718	-0.041617483
195	0x3e81e58e	0.2537045
196	0xbdaca346	-0.084295794
197	0x3df8f67c	0.12156388
198	0xbd3436c0	-0.043997526
199	0xbd272062	-0.040802367
200	0x3db26bb9	0.08711953
201	0x3b234c66	0.0024917363
202	0x3dbfb7bd	0.09361217
203	0xbcfaa69f	-0.03059703
204	0xbc19e1ae	-0.009392185
205	0xbdeaef06	-0.11471371
206	0xbd43dc4b	-0.04781751
207	0xbcc0f2f5	-0.023553351
208	0x3d24b31b	0.04020987
209	0x3c843d8b	0.016142627
210	0x3dfffe63	0.12499692
211	0xbe82d51c	-0.25553215
212	0xbe961eda	-0.29320413
213	0xbbba5472	-0.005686336
214	0xbdbaa320	-0.09113145
215	0x3e55d006	0.20880136
216	0xbc6c5553	-0.01442464
217	0x3dd9fdcb	0.1064411
218	0xbd1cd2f5	-0.03828712
219	0x3dc1d289	0.094639845
220	0xbd185170	-0.03718704
221	0x3e31a99b	0.17349856
222	0x3e1064d8	0.14100969
223	0x3e218f13	0.15777235
224	0x3dab1c0c	0.08354959
225	0xbdc97d44	-0.09838346
226	0x3ea1c552	0.31595856
227	0xbdc89b74	-0.09795275
228	0xbdfbf7d4	-0.12303129
229	0xbca0d93e	-0.01963484
230	0xbe4dc65d	-0.20095201
231	0x3e1c91ba	0.15289965
232	0x3e78c0e6	0.24292335
233	0x3e49379a	0.19650117
234	0xbd049185	-0.03236534
235	0xbe51e04b	-0.20495717
236	0x3e229026	0.15875301
237	0xbb428e09	-0.002968671
238	0xbcf5ccd7	-0.030004902
239	0x3e3f6455	0.18690617
240	0x3e908fac	0.28234613
241	0x3e709f6b	0.23498313
242	0xbdd0bffb	-0.10192867
243	0x3e0ff682	0.14058879
244	0x3db95f51	0.09051383
245	0xbe6c83cf	-0.23097156
246	0xbd86c437	-0.06580394
247	0x3df00911	0.11720479
248	0xbdb96864	-0.09053114
249	0xbd812424	-0.063057214
250	0x3d85573e	0.06510781
251	0x3da5ddf7	0.08098977
252	0x3daf1f5b	0.085509025
253	0xba3482d3	-0.00068859494
254	0x3e1f4a8e	0.15555784
255	0x3db18c9e	0.08669399

shared.0.bias f4 [128]
0	0xbba7f9b1	-0.005126201
1	0x3b510139	0.0031891598
2	0x3bd0467c	0.0063560586
3	0xbb91bc4c	-0.0044474956
4	0xba7be623	-0.0009609183
5	0xbaecd3b0	-0.0018068459
6	0x3aabf8b1	0.001312038
7	0xbb4288a1	-0.0029683488
8	0xbb037bfa	-0.002006291
9	0xbb83b384	-0.0040192027
10	0xba61dd8d	-0.00086160825
11	0xbb59ddf5	-0.003324387
12	0xba4d7a14	-0.00078383205
13	0xbc5a661a	-0.013330007
14	0x3a878095	0.0010338003
15	0xbb13b83f	-0.002254024
16	0xbce72e13	-0.028220212
17	0x3c06f404	0.008236889
18	0x3b7f033c	0.003891184
19	0x3c4fcae0	0.0126826465
20	0x3bd83126	0.006597656
21	0xbbb7f184	-0.0056135077
22	0xbab77a20	-0.0013998188
23	0x3b92cc14	0.0044798944
24	0x3c19de15	0.009391327
25	0xbc3745ed	-0.011186105
26	0xba93381c	-0.0011231932
27	0x3c08732f	0.008328243
28	0x3991409a	0.00027704687
29	0xba0aca50	-0.0005294429
30	0x3c5ee169	0.013603547
31	0xbb103423	-0.0022003732
32	0x3a253de6	0.0006303474
33	0x3c3c6702	0.011499168
34	0xbc9be5c5	-0.019030461
35	0x3bc90c79	0.00613552
36	0x3b4fa660	0.003168486
37	0x3a94549b	0.0011316718
38	0x3a7e9766	0.0009711891
39	0xb9be7b81	-0.00036331642
40	0xbc6ce296	-0.014458319
41	0x3bf66a8f	0.007520027
42	0x3c2f2ebf	0.0106922975
43	0xbb58fd24	-0.0033109868
44	0x3bc7d358	0.006098192
45	0x3bf0dd20	0.007350579
46	0xba1834d7	-0.00058062136
47	0xbaa3f321	-0.0012508371
48	0x3ba987b9	0.00517365
49	0xbc12773d	-0.008939561
50	0xbc19d257	-0.009388528
51	0x3c6d3335	0.014477541
52	0x3c5f2c47	0.013621396
53	0xbbc74851	-0.006081619
54	0xbc5d7ada	-0.01351806
55	0xbc2daff6	-0.010601034
56	0x3c1c50ae	0.00954072
57	0x3ca86475	0.020555714
58	0x3ad5185d	0.0016257871
59	0x3c41f406	0.011837965
60	0x3c0427b5	0.0080661075
61	0x3b3ddacf	0.0028969531
62	0x3a0618de	0.00051154
63	0x3c6e8453	0.014557916
64	0x3c25c1cc	0.010117006
65	0x3c0f1090	0.008731976
66	0xbb200acc	-0.0024420498
67	0x3bc1eb5a	0.0059179487
68	0x3bd52c22	0.006505505
69	0xbc1512b8	-0.009098701
70	0xbbc216af	-0.0059231143
71	0x3c5d52c3	0.013508501
72	0x3bc533a6	0.00601812
73	0x3b8d5cc5	0.0043140375
74	0xbc92e2bb	-0.01793038
75	0x3bc700cd	0.0060730935
76	0xbb969367	-0.0045952084
77	0xbc68909b	-0.014194633
78	0x3ad78ed4	0.0016445764
79	0x3bc3f3ea	0.0059800046
80	0xbb3fdbc1	-0.002927527
81	0x3a524cae	0.00080222904
82	0x3c2e2140	0.010628045
83	0xbbf51164	-0.0074788798
84	0xbbfde2a1	-0.0077479635
85	0xbb6e641d	-0.003637559
86	0x3d2b0381	0.04175139
87	0x3c28dea9	0.010306993
88	0x3b0d3762	0.0021547903
89	0x3c2e648d	0.01064409
90	0xbb3941b5	-0.0028267924
91	0x3cab4e5b	0.020911386
92	0xbc2486ae	-0.010041876
93	0x3c3d5aaf	0.011557265
94	0xbbeb2885	-0.007176461
95	0xb938b4cf	-0.00017614964
96	0xbbffa8e9	-0.007802118
97	0xbc761fd5	-0.015022238
98	0xbc29e710	-0.010370031
99	0xbc077d43	-0.008269611
100	0x3af5ad10	0.0018743593
101	0x3c290084	0.010315064
102	0xbc10736c	-0.008816581
103	0xbc6770a6	-0.014125979
104	0xbbf99ffb	-0.007617948
105	0x3bfd3d21	0.0077282344
106	0xb98bda26	-0.0002667468
107	0x3adaab95	0.0016683216
108	0xbbef68fa	-0.0073062154
109	0xbc77e809	-0.015131005
110	0x3c0b0ad6	0.00848647
111	0xbc218273	-0.009857762
112	0xbc8db1e6	-0.017296743
113	0xbbe3b562	-0.0069491128
114	0x3aed39b5	0.0018098863
115	0xbb7852cd	-0.003789115
116	0xbb9c79e1	-0.0047752713
117	0x3b614b87	0.0034377293
118	0x3c3cd9dd	0.011526552
119	0x3b0589e6	0.0020376383
120	0xbc0549f9	-0.008135312
121	0xb9f618c0	-0.00046939217
122	0xbc15489a	-0.009111548
123	0x3c95e756	0.018298786
124	0x3b5817f3	0.003297326
125	0xbb3921d5	-0.0028248925
126	0x3b809296	0.0039237244
127	0x3bd1465c	0.0063865613

shared.1.weight f4 [128]
0	0x3f827c27	1.0194138
1	0x3f7bec82	0.9840776
2	0x3f7f7988	0.99794817
3	0x3f7f5c59	0.99750286
4	0x3f7f46be	0.9971732
5	0x3f7ea741	0.9947396
6	0x3f7e48a2	0.9932958
7	0x3f7d7639	0.9900852
8	0x3f812691	1.0089895
9	0x3f7ef204	0.99588037
10	0x3f7b6ed3	0.9821598
11	0x3f7eb90c	0.9950111
12	0x3f7f5222	0.997347
13	0x3f82e0c5	1.0224844
14	0x3f85192c	1.0398307
15	0x3f7e4f31	0.99339586
16	0x3f7fddce	0.9994782
17	0x3f7f61d9	0.9975868
18	0x3f7fc523	0.9991018
19	0x3f7dfa62	0.9921018
20	0x3f8490be	1.0356672
21	0x3f802446	1.001107
22	0x3f7f30e6	0.9968399
23	0x3f7f68da	0.99769366
24	0x3f819de4	1.0126309
25	0x3f7e1688	0.9925313
26	0x3f81ed3a	1.0150521
27	0x3f8299fc	1.0203242
28	0x3f7e0913	0.99232596
29	0x3f7ef5a1	0.9959355
30	0x3f80c57c	1.0060267
31	0x3f800957	1.000285
32	0x3f808d1f	1.0043067
33	0x3f7e2754	0.9927876
34	0x3f804e5d	1.0023915
35	0x3f7e0d50	0.99239063
36	0x3f8007f0	1.0002422
37	0x3f7ff382	0.9998094
38	0x3f80750c	1.003572
39	0x3f7fc142	0.99904263
40	0x3f7e0cbc	0.9923818
41	0x3f807ac4	1.0037465
42	0x3f8124ed	1.0089394
43	0x3f80298a	1.0012677
44	0x3f802af6	1.0013111
45	0x3f810aad	1.0081383
46	0x3f7f0445	0.9961589
47	0x3f80a646	1.0050743
48	0x3f81bef5	1.01364
49	0x3f7e0744	0.99229836
50	0x3f80a8a7	1.0051469
51	0x3f820152	1.0156653
52	0x3f7fafed	0.99877816
53	0x3f803ab1	1.0017911
54	0x3f7c131f	0.98466676
55	0x3f7dca74	0.99137044
56	0x3f818d0c	1.0121169
57	0x3f815dce	1.0106752
58	0x3f81a6df	1.012905
59	0x3f80def2	1.0068038
60	0x3f8030f6	1.0014942
61	0x3f807c2c	1.0037894
62	0x3f809b45	1.0047385
63	0x3f809598	1.0045652
64	0x3f813d51	1.0096837
65	0x3f800f95	1.0004755
66	0x3f7d38dd	0.9891489
67	0x3f8019de	1.0007894
68	0x3f814de5	1.0101897
69	0x3f80c076	1.0058734
70	0x3f7e14ab	0.99250287
71	0x3f82c9e8	1.0217867
72	0x3f7d5971	0.989646
73	0x3f7fe4c4	0.99958444
74	0x3f8163e1	1.0108606
75	0x3f80c5c1	1.006035
76	0x3f7f6985	0.99770385
77	0x3f801856	1.0007427
78	0x3f808e70	1.0043468
79	0x3f7e7b37	0.9940676
80	0x3f800412	1.0001242
81	0x3f805fab	1.0029196
82	0x3f808004	1.0039067
83	0x3f7bf1e6	0.9841598
84	0x3f7e031e	0.99223506
85	0x3f7ffcd9	0.9999519
86	0x3f827dea	1.0194676
87	0x3f826b6f	1.0189036
88	0x3f80ccdf	1.0062522
89	0x3f817561	1.0113946
90	0x3f80fbd9	1.0076858
91	0x3f7eaf65	0.9948638
92	0x3f7f3fb3	0.9970657
93	0x3f80aecd	1.0053345
94	0x3f7e30c8	0.99293184
95	0x3f7d8dbd	0.990444
96	0x3f7d22db	0.9888131
97	0x3f7e583d	0.9935339
98	0x3f8036f8	1.0016775
99	0x3f7f932f	0.9983396
100	0x3f7e6695	0.9937528
101	0x3f801f76	1.0009601
102	0x3f820752	1.0158484
103	0x3f7adc6f	0.97992605
104	0x3f7eff5f	0.99608415
105	0x3f80717f	1.0034636
106	0x3f7d8206	0.99026525
107	0x3f7f5875	0.9974435
108	0x3f7c59e5	0.9857467
109	0x3f83d5fd	1.0299679
110	0x3f7f4795	0.997186
111	0x3f7c1fd2	0.98486054
112	0x3f7fe073	0.9995186
113	0x3f818fa1	1.0121957
114	0x3f7e93a6	0.99444044
115	0x3f7caf04	0.9870455
116	0x3f7d4933	0.9893982
117	0x3f80cd90	1.0062733
118	0x3f8026a7	1.0011796
119	0x3f7eedd8	0.9958167
120	0x3f7eb33d	0.99492246
121	0x3f800597	1.0001706
122	0x3f7e9854	0.99451184
123	0x3f80efc4	1.0073171
124	0x3f805987	1.0027322
125	0x3f7e750d	0.99397355
126	0x3f81045a	1.0079453
127	0x3f7db91f	0.991106

shared.1.bias f4 [128]
0	0xbc4e339a	-0.012585545
1	0x3a01fa90	0.0004958296
2	0x3b854695	0.004067252
3	0xbc15ac23	-0.009135279
4	0xbbf5102e	-0.0074787354
5	0xbba4d992	-0.005030819
6	0xb9e9944e	-0.0004455172
7	0xbbc0c8e4	-0.005883323
8	0xbb80261d	-0.0039107935
9	0xbc160089	-0.009155401
10	0xbc2a08a4	-0.010378037
11	0xba94d810	-0.0011355896
12	0xbc717df5	-0.014739503
13	0xbb2bbd4d	-0.0026205361
14	0x3a8fc219	0.001096788
15	0xbbd4bdcb	-0.0064923516
16	0xbcfc5ad0	-0.030805022
17	0x3a949cd3	0.0011338241
18	0xbb5e15c4	-0.0033887485
19	0x3b555c30	0.0032556169
20	0x3bcb4e4a	0.006204401
21	0xbb0f01d9	-0.002182117
22	0xbb719646	-0.0036863252
23	0xbc17e3f9	-0.0092706615
24	0x3c068844	0.008211199
25	0xbc3f0a23	-0.011660132
26	0x3b830ddb	0.0039994544
27	0x3c35ee29	0.011104145
28	0xbb86109e	-0.0040913364
29	0xbbc8f300	-0.0061324835
30	0x3c216140	0.009849846
31	0xbc20384e	-0.009779049
32	0xbc0c0374	-0.008545745
33	0x3bad43b9	0.005287614
34	0xbc069560	-0.008214325
35	0x3a104bbc	0.00055044494
36	0x3b02bfa2	0.0019950648
37	0x3a926295	0.0011168296
38	0x3b31959e	0.0027097235
39	0xba686878	-0.0008865665
40	0xbc6442bc	-0.013931926
41	0x3bc10ab8	0.0058911704
42	0x3bf218de	0.0073882183
43	0xbbd32551	-0.0064436574
44	0x3c069c4d	0.008215976
45	0x3bad01b4	0.005279744
46	0xbb679812	-0.0035338444
47	0xbb1c4df3	-0.0023850172
48	0x3b99df7f	0.0046958323
49	0xbb95ce2b	-0.0045716963
50	0xbb08b082	-0.002085716
51	0x3c68e2f5	0.014214267
52	0x3c49b5de	0.012311427
53	0xbc471c13	-0.0121526895
54	0xbc7fb5ce	-0.01560731
55	0xbbcc673c	-0.0062378924
56	0x3ac312e8	0.0014882954
57	0x3c68651a	0.014184261
58	0xbbabc994	-0.005242536
59	0x3b344565	0.0027507183
60	0x3bc8de04	0.006129982
61	0x3b207bfd	0.0024487965
62	0xbb93e397	-0.004513215
63	0x3c108a77	0.008822075
64	0x3c1c2b37	0.009531788
65	0x3c27e13a	0.010246569
66	0xbc133d24	-0.008986745
67	0x3c23ce00	0.009997845
68	0xbb7d7276	-0.003867296
69	0xbc8709f3	-0.016484236
70	0xbbba4cf2	-0.005685442
71	0x3c923ebe	0.017852183
72	0xbbc9a577	-0.006153758
73	0xba6d041d	-0.00090414454
74	0xbc479009	-0.012180337
75	0x3b511944	0.0031905929
76	0xbbee5480	-0.007273257
77	0xbc066494	-0.008202691
78	0x3a6b48b5	0.0008975373
79	0x3af93e41	0.0019015745
80	0xbbea6e71	-0.007154279
81	0xbb7bfd69	-0.0038450605
82	0x3c1c87d9	0.009553873
83	0xbc0e3671	-0.008679972
84	0xbc659cb7	-0.0140144145
85	0xba9c2130	-0.0011911746
86	0x3d15c2b4	0.036562636
87	0x3c308f65	0.010776375
88	0xbad35d14	-0.0016125762
89	0x3bb9de2b	0.0056722364
90	0xbc07df04	-0.008292917
91	0x3c3befe1	0.011470766
92	0xbc6396ee	-0.013890965
93	0x3bfa8b68	0.007646013
94	0xbc905014	-0.01761631
95	0xbbf032ce	-0.007330275
96	0xbbd34cde	-0.0064483723
97	0xbb9d2351	-0.00479547
98	0xbc824b41	-0.015905024
99	0xbc73f669	-0.014890292
100	0x3aa1e64b	0.0012351958
101	0x3a03c179	0.0005026083
102	0x3b3ecd76	0.0029114163
103	0xbcaaa0b6	-0.020828586
104	0xbc561b99	-0.013068103
105	0x3c4364ff	0.011925935
106	0x3bbf5671	0.005839162
107	0xb9ab813e	-0.00032711955
108	0xbc7832d3	-0.015148836
109	0xbbcde242	-0.0062830755
110	0x3b368748	0.002785163
111	0xbc65c373	-0.0140236495
112	0xbc9a5b3a	-0.018842328
113	0xbbb176ee	-0.005415789
114	0xbb0d9c3b	-0.0021608013
115	0xbba35769	-0.0049847853
116	0xbc45a7cc	-0.012063932
117	0x3b88feb0	0.0041807517
118	0x3c8cd1f6	0.01718996
119	0xbb3ca7ab	-0.0028786461
120	0xbc4d98a7	-0.012548602
121	0xbb17818e	-0.0023117992
122	0xbc65864e	-0.0140090715
123	0x3c3f9935	0.011694242
124	0x3ab8bc30	0.001409417
125	0xbc1045d3	-0.00880571
126	0x3b7decf5	0.0038745974
127	0xbbcf5f39	-0.00632849

value_stream.0.weight f4 [64, 128]
0	0xbc9f44a9	-0.01944192
1	0xbd671fe3	-0.056426894
2	0x3d56ad67	0.052411463
3	0x3c0f670a	0.008752594
4	0x3d324206	0.043519996
5	0xbda95d3a	-0.08269735
6	0xbda2fa70	-0.079579234
7	0x3ea2edfd	0.31822196
8	0xbe352e7f	-0.17693518
9	0x3c48209f	0.012214809
10	0x3e08f85e	0.13375995
11	0x3eb0d82d	0.3453993
12	0x3e8af6f8	0.27141547
13	0xbe3214e8	-0.17390788
14	0xbe50a662	-0.2037597
15	0x3df82b33	0.121176146
16	0xbd7d7a3c	-0.06188415
17	0x3d65681f	0.0560075
18	0xbcacf83d	-0.021114463
19	0x3de9f8b2	0.11424388
20	0x3df789f0	0.12086856
21	0xbe739065	-0.23785551
22	0x3e016532	0.12636259
23	0x3e3b8ec8	0.18316185
24	0x3d6547a0	0.05597651
25	0x3e047427	0.12934934
26	0xbd46865b	-0.048467975
27	0xbdb3aeac	-0.087735504
28	0x3d9b89dd	0.07594655
29	0xbd95dbac	-0.0731729
30	0xbd8d2c35	-0.068931974
31	0x3e04fde3	0.12987475
32	0x3db21647	0.08695655
33	0xbd9faa36	-0.07796137
34	0x3e51e3ad	0.20497008
35	0xbd502051	-0.05081207
36	0xbe0ca77d	-0.13735767
37	0x3d7cec53	0.061748814
38	0x3d043b01	0.032282833
39	0x3cd432b0	0.025903076
40	0xbe4d8fa5	-0.20074327
41	0xbcfd8dab	-0.030951342
42	0x3a677202	0.0008828939
43	0x3e2d3740	0.16915607
44	0x3e0382e9	0.12842907
45	0xbba8659a	-0.005139065
46	0x3bafdf68	0.0053672083
47	0x3e1f8d84	0.15581328
48	0x3d8bd900	0.06828499
49	0x3dc038d3	0.09385838
50	0xbd099bea	-0.033595957
51	0xbe611365	-0.21980055
52	0xbe4abdaf	-0.19798921
53	0xbd9a176e	-0.07524
54	0x3ca7c9df	0.020482002
55	0x3dab38d8	0.083604515
56	0xbe826866	-0.25470275
57	0x3db9e2b5	0.09076444
58	0x3d980f44	0.07424787
59	0xbd494b88	-0.049144298
60	0x3dabba25	0.083851136
61	0xbd8c0693	-0.068371914
62	0xbdc22216	-0.094791576
63	0x3e9d58ac	0.30731714
64	0xbe3db381	-0.18525507
65	0xbd733169	-0.059373293
66	0x3e589d64	0.2115379
67	0xbd99f44e	-0.075173005
68	0xbd0d3f62	-0.034484275
69	0x3e4613b9	0.19343461
70	0xbba2c725	-0.0049675875
71	0x3d91b502	0.071146026
72	0x3deeaa27	0.11653548
73	0xbc878a17	-0.016545339
74	0x3d1664fb	0.036717396
75	0xbd855f5c	-0.06512329
76	0x3c8699a0	0.016430676
77	0xbc229f9c	-0.009925749
78	0x3e2b587d	0.16732974
79	0xbc352fdb	-0.011058773
80	0xbdf7819d	-0.12085269
81	0xbd69bd0e	-0.057065062
82	0x3d1a9bcd	0.03774624
83	0x3e2ba91b	0.16763727
84	0xbd97e3ba	-0.07416482
85	0x3c09934e	0.008396937
86	0x3e5c40ee	0.21509144
87	0x3e816073	0.25268897
88	0x3e2e9464	0.17048794
89	0xbc158185	-0.009125118
90	0x3d1bb828	0.038017422
91	0x3da3f1d3	0.08005109
92	0x3d625240	0.05525422
93	0x3d43c258	0.047792763
94	0xbe003238	-0.12519157
95	0xbb3fa1b9	-0.0029240681
96	0x3c74003d	0.014892635
97	0xbda9f11a	-0.082979396
98	0x3df1daa4	0.118092805
99	0xbe1c17ed	-0.15243502
100	0x3e0690d1	0.1314118
101	0x3dbe8938	0.09303516
102	0xbe6f6ec4	-0.23382097
103	0x3d5b0464	0.053470984
104	0xbdf5a63b	-0.119945966
105	0xbc282547	-0.010262794
106	0x3e1bfe8a	0.15233818
107	0xbe1a7f35	-0.15087588
108	0x3d983311	0.07431615
109	0x3d737092	0.059433527
110	0xbca5dd9c	-0.020247273
111	0x3cbf1c9f	0.023329077
112	0x3dbecacc	0.09316024
113	0x3e4a152d	0.1973464
114	0x3d877963	0.066149496
115	0xbe22ba59	-0.15891398
116	0x3d725972	0.059167333
117	0x3c385a4b	0.011251996
118	0xbe686fa1	-0.22698833
119	0xbde5b815	-0.112167515
120	0x3be5ab89	0.007008974
121	0x3ddd585f	0.10807871
122	0xbe90c566	-0.28275603
123	0xbd819ea0	-0.063290834
124	0xbdd183b9	-0.10230202
125	0xbce9abb7	-0.028524263
126	0xbadb9bc2	-0.0016754793
127	0x3c1c05ae	0.0095228385
128	0x3ce6f6e4	0.028193898
129	0x3e589be5	0.21153219
130	0x3d9dcf14	0.07705513
131	0x3d937ac9	0.07201154
132	0x3e182fe1	0.14862014
133	0x3d95acb0	0.07308328
134	0x3cff7fcd	0.03118887
135	0xbe070068	-0.13183749
136	0x3e0ea54f	0.13930248
137	0xbe147c58	-0.14500558
138	0xbe09ef07	-0.13470088
139	0x3d8a4889	0.06752116
140	0xbd4e574f	-0.050376233
141	0x3e0b52a5	0.13605745
142	0xbe8a8c5d	-0.27060214
143	0xbd0efee2	-0.034911044
144	0xb9f504cc	-0.00046733615
145	0x3dda7a40	0.106678486
146	0xbdedd27f	-0.116124146
147	0x3b510862	0.0031895866
148	0x3e1365f6	0.14394364
149	0xbd873f5d	-0.066038825
150	0xbe5c3fba	-0.21508685
151	0x3d567de9	0.05236617
152	0x3e5c3857	0.21505867
153	0xbc5da4a0	-0.013528019
154	0xbd404162	-0.046937354
155	0x3dd91bcb	0.10601004
156	0x3de69ec5	0.11260752
157	0xbc8499ba	-0.016186584
158	0x3c8016e3	0.015635913
159	0xbd5a138c	-0.053241298
160	0x3e0c1c07	0.13682567
161	0x3e8330b3	0.25623092
162	0x3e788233	0.24268417
163	0x3db07ceb	0.08617576
164	0x3e1657ec	0.14681977
165	0x3da73968	0.08165246
166	0x3d93c9d1	0.07216228
167	0xbdaa8e71	-0.0832795
168	0xbc1d9e81	-0.00962031
169	0xbe3319f5	-0.1749037
170	0xbdcefe04	-0.101070434
171	0x3d1148b5	0.03546973
172	0xbc13940c	-0.009007465
173	0xbeab782f	-0.3349013
174	0x3e12e1f2	0.14344004
175	0x3d0e85e5	0.03479566
176	0x3cdc0639	0.026858436
177	0xbd16af03	-0.036787998
178	0x3e287d65	0.16454084
179	0xbc82b053	-0.015953219
180	0x3cc6bd6e	0.024260249
181	0x3ccdc256	0.02511708
182	0xbc943aaf	-0.018094389
183	0xbcfff6d6	-0.03124563
184	0xbd19a8e2	-0.037514575
185	0x3d6628bc	0.05619119
186	0xbd7d1480	-0.06178713
187	0xbdd497da	-0.10380526
188	0x3cc57e08	0.024107948
189	0xbd8a454a	-0.06751497
190	0xbd503369	-0.05083028
191	0xbbf2e1e3	-0.0074121817
192	0xbbeac82d	-0.007164976
193	0xbe0111d9	-0.12604465
194	0xbc9f3ee1	-0.019439163
195	0xbe781ffe	-0.24230954
196	0xbe61b698	-0.2204231
197	0xbd06d32f	-0.032916244
198	0x3e23dc52	0.16002014
199	0xbe20b2ac	-0.15693158
200	0x3e0b3f2b	0.13598315
201	0x3d59102c	0.05299394
202	0xbdf5f933	-0.120104216
203	0xbda8af22	-0.08236529
204	0x3d8f3e85	0.069943465
205	0xbe0f8c31	-0.14018323
206	0x3e1b4107	0.15161525
207	0x3c866cbd	0.016409272
208	0x3da18074	0.078858286
209	0xbe7b3180	-0.24530602
210	0xbd8c5344	-0.06851819
211	0xbd76eb23	-0.060282838
212	0x3d00e470	0.031467855
213	0xbccdea40	-0.025136113
214	0x3e04081f	0.12893723
215	0xbd9fd64a	-0.07804544
216	0x3d61c162	0.055116065
217	0x39d1937a	0.00039973465
218	0x3cb183d3	0.021669304
219	0x3d003d01	0.031308178
220	0x3d9a9322	0.075475946
221	0x3e5357f9	0.20639028
222	0xbe374616	-0.1789783
223	0xbcd09735	-0.025462726
224	0xbd45545d	-0.04817616
225	0x3d44efdb	0.048080307
226	0xbe0ca2ea	-0.13734022
227	0xbe68ff68	-0.2275368
228	0xbe8d8d33	-0.2764679
229	0x3dbb7358	0.091528594
230	0xbe318a73	-0.1733797
231	0xbcb9e196	-0.022690576
232	0x3e281516	0.16414294
233	0x3e04ac95	0.1295646
234	0xbe31e369	-0.17371906
235	0xbda9e20d	-0.08295069
236	0x3d992d3d	0.07479332
237	0xbe374fda	-0.17901555
238	0x3c0817c3	0.0083064465
239	0xbb074bc3	-0.0020644523
240	0xbdb933ad	-0.090430595
241	0xbd824cc5	-0.06362299
242	0xbe0aac33	-0.13542251
243	0xbe0c1564	-0.13680035
244	0xbe832365	-0.2561294
245	0x3dd742c4	0.105107814
246	0x3e26849f	0.16261528
247	0xbd245fcb	-0.040130418
248	0xbd5983df	-0.053104278
249	0xbd1a6ca4	-0.037701264
250	0x3da4fcb7	0.08056014
251	0xbd0e7032	-0.034774967
252	0x3ea1af24	0.31578934
253	0xbe5b8019	-0.21435584
254	0x3dd4138f	0.10355293
255	0x3d7c161d	0.061544526

value_stream.0.bias f4 [64]
0	0xbb074410	-0.0020639934
1	0x3acbbbca	0.0015543636
2	0x3c10c0a6	0.0088349935
3	0xbbeed21f	-0.007288232
4	0xbb6d8754	-0.0036243992
5	0xbaa574c4	-0.00126233
6	0x3c05605b	0.008140649
7	0x3bae27a3	0.0053147837
8	0xbb8e2725	-0.0043381625
9	0x3abd023c	0.0014420222
10	0xbc1653ac	-0.009175222
11	0xba096482	-0.0005241112
12	0x3ba3de43	0.005000861
13	0xb79a8e9a	-1.8424635e-05
14	0x3bf63741	0.007513911
15	0xbba07763	-0.0048970445
16	0x3ad56f40	0.0016283765
17	0x3b2caf60	0.0026349649
18	0x3b9d44ec	0.004799476
19	0x3c573218	0.013134502
20	0x39e85494	0.00044313504
21	0xbb190148	-0.002334671
22	0x3bdd7d86	0.0067593483
23	0xbb1b67ed	-0.0023713068
24	0x3b5e3396	0.003390526
25	0xbb790d60	-0.0038002357
26	0xba6e9d2c	-0.00091024
27	0xbbfb341b	-0.0076661236
28	0x3ba049c2	0.004891605
29	0xbb35e4a7	-0.0027754696
30	0xbadcdeb6	-0.0016851041
31	0xbb18c302	-0.0023309593
32	0xbb8db713	-0.0043248027
33	0xb986cb7e	-0.00025710085
34	0xbc441c61	-0.011969657
35	0x38d32283	0.00010067692
36	0x3c3b658a	0.011437783
37	0x3ba85d90	0.0051381066
38	0xbae5dd6b	-0.0017537301
39	0xbb60addd	-0.0034283318
40	0x3accf817	0.0015637901
41	0xba3899fc	-0.00070419884
42	0x3a2b457c	0.00065334863
43	0xb9ea53a6	-0.0004469428
44	0x3b741f1c	0.0037249988
45	0xba1c1307	-0.0005953763
46	0xbbe9ce31	-0.0071351756
47	0x38b6b41e	8.711986e-05
48	0xba8c9d47	-0.0010728025
49	0xb8277117	-3.9921226e-05
50	0x3ad65fd4	0.0016355463
51	0xbb9015ca	-0.0043971287
52	0xbb3c93f6	-0.0028774715
53	0x3ae241f6	0.001726209
54	0xba21f7ed	-0.00061786064
55	0x3ba3b182	0.004995526
56	0x3bfd0995	0.0077220895
57	0xb9ec05e4	-0.00045017817
58	0xba8f78c2	-0.0010946023
59	0x3a359131	0.0006926237
60	0x3b3f2dcb	0.0029171582
61	0x3ba0e2a5	0.0049098306
62	0x3b2df2cb	0.002654242
63	0xbbdf28ee	-0.006810299

value_stream.1.weight f4 [64]
0	0x3f801ad9	1.0008193
1	0x3f8094fb	1.0045465
2	0x3f8289b2	1.0198271
3	0x3f7f0363	0.9961454
4	0x3f8056ca	1.0026486
5	0x3f81377e	1.009506
6	0x3f831af1	1.0242597
7	0x3f80d7e6	1.0065887
8	0x3f80ad3b	1.0052866
9	0x3f8154f9	1.0104057
10	0x3f7f86b8	0.9981494
11	0x3f8020a0	1.0009956
12	0x3f820046	1.0156333
13	0x3f7c9b16	0.9867414
14	0x3f816f9c	1.0112185
15	0x3f8083b2	1.004019
16	0x3f80414e	1.001993
17	0x3f808815	1.0041529
18	0x3f8019b7	1.0007848
19	0x3f8198b3	1.0124725
20	0x3f802aa1	1.0013009
21	0x3f812951	1.0090734
22	0x3f820658	1.0158186
23	0x3f7f4868	0.9971986
24	0x3f8175b1	1.0114042
25	0x3f7dda0f	0.99160856
26	0x3f80357c	1.0016322
27	0x3f804d15	1.0023524
28	0x3f8123eb	1.0089086
29	0x3f804274	1.002028
30	0x3f803b85	1.0018164
31	0x3f7ebcc7	0.995068
32	0x3f7d8030	0.99023724
33	0x3f800c47	1.0003747
34	0x3f80a06d	1.0048958
35	0x3f7f5325	0.99736243
36	0x3f83003e	1.0234449
37	0x3f815588	1.0104227
38	0x3f7ef372	0.9959022
39	0x3f8329f4	1.0247178
40	0x3f80cc23	1.0062298
41	0x3f7f71b3	0.99782866
42	0x3f800993	1.0002922
43	0x3f809223	1.0044597
44	0x3f81f6f9	1.0153495
45	0x3f803709	1.0016795
46	0x3f7fa699	0.9986358
47	0x3f80adde	1.005306
48	0x3f7da086	0.99073064
49	0x3f80a9a2	1.0051768
50	0x3f7ebc28	0.99505854
51	0x3f7f8ff3	0.99829024
52	0x3f803d1d	1.001865
53	0x3f80a978	1.0051718
54	0x3f7faff5	0.99877864
55	0x3f812176	1.0088336
56	0x3f81da62	1.014477
57	0x3f808ffe	1.0043943
58	0x3f7faed8	0.99876165
59	0x3f7fa752	0.99864686
60	0x3f82c498	1.0216246
61	0x3f806b85	1.0032812
62	0x3f803d60	1.001873
63	0x3f7f67c3	0.997677

value_stream.1.bias f4 [64]
0	0x3ad2dcd5	0.0016087542
1	0xbb7a2ad6	-0.0038172505
2	0x3c233b85	0.009962921
3	0xbba5eea5	-0.005063849
4	0xbb040d75	-0.0020149623
5	0xbaf2f151	-0.0018535053
6	0x3c4df40e	0.012570394
7	0x3b9974dd	0.0046831206
8	0xbb149a0e	-0.0022674832
9	0x3b447ac2	0.0029980396
10	0xbb60fb7e	-0.0034329589
11	0xb99cf1e2	-0.00029934855
12	0xbbe660a1	-0.007030562
13	0x3a79671b	0.000951396
14	0x3bb32186	0.005466643
15	0xbb465bd4	-0.0030267136
16	0x3aa0f150	0.0012278948
17	0x3b674a38	0.003529204
18	0x3b9d06fa	0.0047920914
19	0x3bcf78a9	0.0063315225
20	0xbaf29f28	-0.0018510567
21	0xbb2a69ad	-0.002600293
22	0x3bc2081d	0.0059213773
23	0x3b2ae3a0	0.0026075616
24	0xba59a561	-0.00083025364
25	0xbbd695a1	-0.006548599
26	0xbb2525a7	-0.0025199444
27	0xbb78c778	-0.003796069
28	0x3b8fe3f0	0.004391186
29	0x39905788	0.00027531036
30	0xbad7f0ec	-0.0016474999
31	0xba5230b2	-0.00080181204
32	0xbafd69a1	-0.0019333848
33	0xbaf82f44	-0.0018934985
34	0xbc264e0a	-0.010150442
35	0xba54c96c	-0.00081171724
36	0x3c993095	0.018699924
37	0x3b9ebf15	0.004844556
38	0xbc3f5766	-0.011678552
39	0xba3f36a5	-0.00072942144
40	0x3af27db8	0.0018500602
41	0x3b6ceb7e	0.0036151106
42	0x3b2aaf22	0.0026044329
43	0xb8ca829c	-9.6564385e-05
44	0x3b49e28d	0.00308052
45	0xbae50c77	-0.0017475028
46	0xbb592f60	-0.003313981
47	0xbaa8beb2	-0.0012874214
48	0xbb8593ea	-0.0040764706
49	0xba951b29	-0.0011375892
50	0xbba8af9e	-0.0051478883
51	0xbbba0885	-0.005677285
52	0xbb88d4f9	-0.004175779
53	0x3b1937c9	0.0023379198
54	0xba82af58	-0.0009970469
55	0x3c11fce0	0.008910388
56	0x3be15cd2	0.00687752
57	0xbae7d3a0	-0.001768697
58	0x3b53ceb6	0.0032319254
59	0xb629a928	-2.5281424e-06
60	0xbce2af21	-0.027671399
61	0x3c3a22ce	0.011360837
62	0x3b18ad73	0.0023296743
63	0x3a923822	0.0011155645

value_stream.3.weight f4 [1, 64]
0	0x3e82f17d	0.25574866
1	0xbd870e37	-0.06594508
2	0x3e93dc9d	0.28879252
3	0x3de89b77	0.113577776
4	0xbe4d1228	-0.20026457
5	0x3eae0013	0.33984432
6	0x3dc942bb	0.09827181
7	0xbd34ccf9	-0.04414079
8	0x3dbbe0e2	0.09173752
9	0xbe0a1ae4	-0.1348682
10	0x3ca8d934	0.020611383
11	0xbe4447e4	-0.19168049
12	0xbd3c1b63	-0.045924556
13	0x3e08f9c4	0.13376528
14	0xbdc64e9c	-0.09682962
15	0x3d843f82	0.06457426
16	0xbe5331a7	-0.2062441
17	0x3ea143d5	0.31497064
18	0xbe95a2d8	-0.29225802
19	0xbcc636cc	-0.024196051
20	0x3ea0bf5c	0.31395996
21	0xbe160d55	-0.14653523
22	0x3e327ceb	0.17430465
23	0x3cdd13d3	0.026986992
24	0xbdb7afac	-0.089690536
25	0xbd0274b7	-0.03184959
26	0xbe90e8d9	-0.2830265
27	0x3dd8ea64	0.105915815
28	0xbe1ed7b2	-0.15511969
29	0x3e05647c	0.13026613
30	0xbe46c45d	-0.19410844
31	0x3eb58cec	0.35459077
32	0x3df17ad1	0.117910035
33	0xbd55c71b	-0.052191835
34	0x3e923c71	0.28561738
35	0x3e08842b	0.13331668
36	0xbdcbcc25	-0.09951047
37	0xbe696e7d	-0.22796054
38	0x3e643b38	0.22288215
39	0x3e5a4c6b	0.21318214
40	0xbd14bfee	-0.03631585
41	0x3e0934b2	0.13399008
42	0x3eb73f08	0.35790277
43	0x3e92b3a8	0.28652692
44	0xbc50775f	-0.012723773
45	0xbe87acee	-0.26499122
46	0x3d296355	0.041354496
47	0xbd24415d	-0.040101398
48	0xbd5a073d	-0.05322956
49	0xbdc7f164	-0.097628385
50	0xbc3ef1be	-0.0116543155
51	0xbe468711	-0.19387461
52	0xbe81fa61	-0.25386336
53	0xbe224edc	-0.15850395
54	0x3ea105f0	0.31449842
55	0xbd025307	-0.031817462
56	0x3e73e06f	0.23816083
57	0xbe4cd957	-0.20004784
58	0xbd4d9650	-0.050192177
59	0xbe0148c3	-0.12625413
60	0xbcba9688	-0.022776857
61	0x3cbc932b	0.023019394
62	0xbe292a1f	-0.16519974
63	0x3c0c6c9e	0.008570818

advantage_stream.0.weight f4 [64, 128]
0	0xbcd15476	-0.02555297
1	0x3bfa2ad2	0.007634499
2	0xbda5c50f	-0.080942266
3	0x3c94af43	0.018149978
4	0x3e049e06	0.12950906
5	0x3e1607f8	0.14651477
6	0xbdc74a70	-0.09730995
7	0x3e0a9557	0.13533531
8	0x3dee716e	0.11642729
9	0x3d63f906	0.05565741
10	0xbdfe64c8	-0.12421566
11	0x3e856a1c	0.26057518
12	0x3db04662	0.086071745
13	0x3d05c6f3	0.032660436
14	0x3da9b88b	0.08287152
15	0xbbbf37f3	-0.005835527
16	0xbdd83581	-0.1055708
17	0x3cb1807f	0.021667717
18	0x3d46570a	0.04842285
19	0x3e710aa7	0.2353922
20	0xbe7f6d62	-0.2494407
21	0x3d0b5d12	0.034024306
22	0xbd4f34ec	-0.05058758
23	0x3d2610bb	0.0405433
24	0x3e404d24	0.18779427
25	0xbe4741bd	-0.19458671
26	0xbbaed811	-0.0053358157
27	0xbddbc762	-0.10731389
28	0xbdc650ad	-0.096833564
29	0x3c944883	0.018100983
30	0xbd02649c	-0.03183423
31	0x3e00d47f	0.12581061
32	0x3d1161bc	0.035493597
33	0xbdf07986	-0.11741929
34	0xbe130419	-0.14357032
35	0x3d011cd3	0.03152163
36	0xbe73d9e7	-0.23813592
37	0x3d53205b	0.05154453
38	0xbd515974	-0.0511107
39	0xbd9ed03f	-0.077545635
40	0x3b863ba5	0.0040964657
41	0x3cca9928	0.024731234
42	0xbcf63816	-0.03005604
43	0x3d4ef8cf	0.05053025
44	0xbe1c7a5f	-0.15281056
45	0x3c80f16e	0.015740123
46	0x3ea8e4b4	0.32986987
47	0x3d25e567	0.04050198
48	0x3e51f853	0.20504884
49	0xbe83bb51	-0.2572885
50	0xbddc6f70	-0.107634425
51	0xbc6ddcd2	-0.01451798
52	0x3b9d7d77	0.0048062163
53	0x3e0bf499	0.13667525
54	0xbe458ebd	-0.19292732
55	0xbdd1fdcf	-0.10253488
56	0x3e3a56fd	0.18197246
57	0x3d5a2a3f	0.053262945
58	0xbd5cdb02	-0.0539198
59	0xbd9e05de	-0.07715963
60	0x3d8fca99	0.07021064
61	0xbdf819ad	-0.12114272
62	0x3d4a7119	0.049424265
63	0xbd54dc12	-0.051967688
64	0x3e0f59da	0.1399912
65	0x3e6db503	0.23213582
66	0x3daa9a8f	0.08330261
67	0x3d9976dd	0.074933745
68	0x3dd7bc21	0.105339296
69	0x3caa531f	0.020791588
70	0x3d833f8a	0.064086035
71	0x3d58a7e9	0.052894507
72	0xbce945f8	-0.028475747
73	0x3dc4f0ac	0.09616217
74	0x3d9705d7	0.07374161
75	0x3c42505a	0.011859978
76	0x3e61359d	0.21993108
77	0xbce67a4c	-0.028134488
78	0x3cd0175b	0.025401762
79	0xbe04530a	-0.12922302
80	0x3d58360e	0.052785926
81	0xbd844768	-0.06458932
82	0x3e573193	0.21015005
83	0x3d99c2e9	0.07507879
84	0xbe059d27	-0.1304823
85	0x3e4ae5e5	0.1981426
86	0xbddc4d1a	-0.107568935
87	0x3d5b021a	0.0534688
88	0x3c830f76	0.015998583
89	0x3d505325	0.050860543
90	0xbc82706f	-0.015922753
91	0xbea74569	-0.32670143
92	0x3daf197a	0.08549781
93	0xbc885bec	-0.016645394
94	0x3e00cdfe	0.1257858
95	0x3e002c23	0.12516837
96	0x3d7a17c8	0.061057836
97	0xbc313ee0	-0.010818213
98	0x3d50c738	0.05097124
99	0xbdc7183d	-0.0972142
100	0xbe2ded4a	-0.1698505
101	0xbd454abb	-0.04816697
102	0x3d5a9969	0.05336896
103	0xbeab8b98	-0.3350494
104	0xbe235066	-0.15948638
105	0xbc0ff90e	-0.008787407
106	0xbdb0506c	-0.08609089
107	0x3e0c25ba	0.13686267
108	0xbc093750	-0.008375004
109	0x3dc113f2	0.094276324
110	0xbe74d62f	-0.2390983
111	0x3e5097ab	0.20370357
112	0xbe862e23	-0.26207075
113	0x3c961a3b	0.018323055
114	0xbb9d4148	-0.004799042
115	0x3dba5dbb	0.09099909
116	0x3c342b0d	0.010996592
117	0x3d2d696f	0.042336877
118	0x3d9c9824	0.07646206
119	0x3e7321e2	0.23743394
120	0xbe456702	-0.19277576
121	0xbc9d2aaf	-0.019185392
122	0x3dd8f828	0.10594207
123	0x3d86c0b7	0.06579726
124	0x3e82132f	0.2540526
125	0x3d47b424	0.04875578
126	0x3d96e125	0.07367162
127	0xbe21fdd3	-0.15819483
128	0x3de7a9bd	0.11311672
129	0xbcc82724	-0.024432726
130	0xbd1caa45	-0.03824832
131	0xbd2bf443	-0.041980993
132	0x3d146376	0.036227666
133	0x3bb13819	0.0054082987
134	0xbccfd870	-0.02537176
135	0x3c01da53	0.007925588
136	0xbdbfc5f9	-0.09363932
137	0xbe9d6a82	-0.30745322
138	0x3e90d4f0	0.28287458
139	0x3e516ade	0.20450923
140	0xbc806b9c	-0.015676312
141	0x3d7f050b	0.06226067
142	0xbd3ada40	-0.045618296
143	0xbdcdf90c	-0.100572675
144	0x3e4a83b7	0.19776808
145	0x3d00dbe6	0.03145971
146	0xbdb871d9	-0.0900609
147	0x3d468675	0.048468072
148	0xbdf4d2da	-0.11954279
149	0x3df6abea	0.12044509
150	0xbc84e339	-0.01622163
151	0xbd74405a	-0.059631683
152	0xbe3ea40a	-0.18617263
153	0xbd464e78	-0.048414677
154	0x3e46575f	0.19369267
155	0xbe389619	-0.18026008
156	0x3e26ef65	0.1630226
157	0xbc93a627	-0.018023564
158	0xbd284b1d	-0.04108726
159	0x3e57a7c1	0.21060087
160	0xbcd64c77	-0.026159508
161	0x3d2f9ae2	0.042872317
162	0xbd4e6ff4	-0.050399736
163	0x3db82ac2	0.089925304
164	0x3ddcff31	0.107908614
165	0xbe1f41b8	-0.15552413
166	0xbdd53adf	-0.104116194
167	0xbe51eeb5	-0.20501216
168	0x3d8793da	0.06619997
169	0xbe20654c	-0.15663642
170	0x3dcd4fdc	0.100249976
171	0x3df612ad	0.12015281
172	0xbdac6142	-0.08416988
173	0x3cb99390	0.022653371
174	0xbca410ae	-0.020027485
175	0x3cabe273	0.020982003
176	0x3db6056f	0.08887755
177	0xbd3c15e0	-0.0459193
178	0xbd2ca25b	-0.04214702
179	0xbbc38504	-0.0059667844
180	0xbd3cd1ca	-0.046098508
181	0x3dd18064	0.10229567
182	0x3e4d3c04	0.20042425
183	0x3e87f5db	0.2655476
184	0xbda80204	-0.082035094
185	0xbdba6f31	-0.09103239
186	0x3dc61211	0.09671415
187	0xbdb2329b	-0.087010585
188	0x3dd99aff	0.10625266
189	0xbe43146f	-0.19050764
190	0x3cfe3f50	0.03103605
191	0xbd94d7ff	-0.072677605
192	0xbdf9ad7b	-0.12191292
193	0xbd64eca7	-0.05588975
194	0x3e65765f	0.22408436
195	0x3e105086	0.14093217
196	0xbdc26b44	-0.094931155
197	0x3cec0628	0.02881153
198	0xbd7854f7	-0.060627904
199	0xbdb25736	-0.087080404
200	0x3d8b7747	0.0680986
201	0x3e6273f3	0.22114544
202	0x3e26d36d	0.1629159
203	0xbe60df76	-0.21960244
204	0xbd71161b	-0.058858972
205	0x3d806e5d	0.0627105
206	0x3d24b86a	0.040214933
207	0x3ca885f8	0.020571694
208	0x3d4b08ad	0.04956882
209	0xbd64a284	-0.05581905
210	0xbe830bd4	-0.25594962
211	0xbdd35677	-0.10319226
212	0xbe03dbd5	-0.12876828
213	0x3c9bbc7a	0.019010771
214	0xbe3f9e20	-0.18712664
215	0x3e5de9be	0.21671197
216	0xbd32b9bd	-0.043634165
217	0x3da5ac9a	0.08089562
218	0xbeb860ff	-0.36011502
219	0x3d288333	0.041140746
220	0x3d29afdb	0.041427474
221	0x3ce0e4c1	0.027452828
222	0x3d89754c	0.06711826
223	0x3da9631d	0.082708575
224	0x3c92ba26	0.017911028
225	0x3ebfa09e	0.3742723
226	0xbcc87408	-0.02446939
227	0x3e06a2ea	0.13148084
228	0xbd864c92	-0.065575734
229	0x3e08663e	0.13320252
230	0x3d2ff4b8	0.04295799
231	0xbdb8b5c2	-0.090190426
232	0x3e1223f8	0.14271533
233	0xbdb494dc	-0.08817455
234	0x3d76b83a	0.060234286
235	0xbcfa7f82	-0.030578379
236	0xbd30d8b4	-0.043175414
237	0x3e227050	0.15863156
238	0x3e0cdd05	0.13756187
239	0xbd9c7a90	-0.076405644
240	0xbe54ee38	-0.20793998
241	0xbddff276	-0.10934918
242	0x3cd9f07e	0.026603933
243	0x3e286bbe	0.1644735
244	0xbe2f0bbe	-0.17094323
245	0xbd5712a6	-0.05250802
246	0xbd2546cf	-0.04035073
247	0xbda6133c	-0.081091374
248	0xbd8e67e2	-0.06953408
249	0xbe1d219c	-0.15344852
250	0xbc9ea7be	-0.019367095
251	0x3e0011b6	0.12506756
252	0x3d45f300	0.048327446
253	0xbdf8bc19	-0.12145252
254	0x3d1b6ee0	0.037947536
255	0x3e1c6f4c	0.15276831

advantage_stream.0.bias f4 [64]
0	0x3b8a2783	0.004216136
1	0x3c085773	0.008321631
2	0x3ad2a25a	0.0016070113
3	0xbbe46161	-0.0069696163
4	0xbbdaa4db	-0.0066724843
5	0x3b9857d4	0.004649142
6	0xbc3e7c19	-0.011626267
7	0xbb83e359	-0.0040249047
8	0x3bd4dd03	0.006496073
9	0x3b975bf8	0.004619118
10	0x3b2d38b1	0.0026431496
11	0x3b975619	0.004618418
12	0x3c2d20ba	0.010566885
13	0xbb2f1925	-0.0026717868
14	0x3c5ca94a	0.013468096
15	0x3c63d558	0.013905846
16	0x3b8a3581	0.004217804
17	0x3c11b239	0.008892589
18	0xbbb4394b	-0.005499994
19	0x3b8f8f7f	0.0043811197
20	0xbbaef9d9	-0.0053398428
21	0x3c1f3045	0.009716098
22	0x3ba86b32	0.005139732
23	0x3b6511bd	0.00349532
24	0xbbfc76e8	-0.0077046044
25	0xbc08e355	-0.008354981
26	0x3bb1827e	0.005417167
27	0x3c22148b	0.009892593
28	0xbbd524b7	-0.006504621
29	0xba9ffe4e	-0.0012206526
30	0x3c97c657	0.018527193
31	0x3b8cf345	0.004301461
32	0x3bfe8413	0.0077672093
33	0xbbfd919e	-0.007738306
34	0x3b74c518	0.0037348922
35	0xbbdc7feb	-0.006729116
36	0x3bdcbf0c	0.0067366417
37	0xbc1dcc03	-0.00963116
38	0x3bc96c20	0.0061469227
39	0xbc09845b	-0.008393372
40	0x3b140dfb	0.002259134
41	0xbbb22608	-0.0054366626
42	0xbc093ccb	-0.008376311
43	0x3aeca0b7	0.0018053268
44	0xbb81bb58	-0.0039591007
45	0x3a9df531	0.0012051222
46	0xbbbd9310	-0.0057853535
47	0xbb591533	-0.0033124208
48	0x3c1c0128	0.00952176
49	0x3c00a948	0.00785286
50	0x3be821be	0.0070841005
51	0x3bfa18ae	0.0076323366
52	0xba3dc9aa	-0.0007239828
53	0xbbb94229	-0.005653639
54	0x3c0db2ec	0.008648615
55	0xbb9a037b	-0.004700122
56	0x3b6ddb8c	0.003629419
57	0xbb921e66	-0.00445919
58	0xbb4f23d0	-0.003160704
59	0xbc144d0a	-0.009051571
60	0xbbafdac1	-0.0053666537
61	0x3b085403	0.0020802028
62	0x3b508039	0.0031814708
63	0x3b2b85f5	0.0026172374

advantage_stream.1.weight f4 [64]
0	0x3f806c21	1.0032998
1	0x3f80a472	1.0050185
2	0x3f822f30	1.017065
3	0x3f805f59	1.0029098
4	0x3f7fd4ee	0.9993428
5	0x3f7e8214	0.99417233
6	0x3f80bbf3	1.0057358
7	0x3f809279	1.00447
8	0x3f828d84	1.0199437
9	0x3f81922a	1.0122731
10	0x3f7eba27	0.99502796
11	0x3f81c683	1.0138706
12	0x3f82c586	1.0216529
13	0x3f7bdade	0.9838084
14	0x3f82602f	1.0185603
15	0x3f814dff	1.0101928
16	0x3f82a092	1.0205252
17	0x3f80ef34	1.0072999
18	0x3f7f274d	0.99669343
19	0x3f816999	1.0110351
20	0x3f80ad59	1.0052902
21	0x3f810d1e	1.0082128
22	0x3f81ec45	1.0150229
23	0x3f8027ae	1.0012109
24	0x3f804248	1.0020227
25	0x3f7efd3e	0.99605167
26	0x3f84c3d8	1.0372267
27	0x3f826587	1.0187234
28	0x3f84baaf	1.0369471
29	0x3f81746d	1.0113655
30	0x3f872642	1.055855
31	0x3f84a254	1.0362039
32	0x3f7fc82c	0.99914813
33	0x3f7eedfd	0.9958189
34	0x3f7f0a31	0.99624926
35	0x3f7cae45	0.98703414
36	0x3f83cc33	1.0296692
37	0x3f7eec83	0.9957964
38	0x3f8105c9	1.007989
39	0x3f7eda2a	0.9955164
40	0x3f833c91	1.0252858
41	0x3f7f3d9b	0.9970338
42	0x3f815fc0	1.0107346
43	0x3f80c286	1.0059364
44	0x3f802a4c	1.0012908
45	0x3f80e385	1.0069433
46	0x3f78fd54	0.9726155
47	0x3f7f59d4	0.9974644
48	0x3f826435	1.0186831
49	0x3f7ffd75	0.9999612
50	0x3f80c470	1.0059948
51	0x3f81b8b7	1.0134495
52	0x3f836692	1.0265677
53	0x3f807ad0	1.0037479
54	0x3f811de0	1.0087242
55	0x3f7f6a26	0.99771345
56	0x3f80d62c	1.006536
57	0x3f81ee24	1.01508
58	0x3f7e594c	0.99355006
59	0x3f7c41ea	0.98538077
60	0x3f7f2375	0.9966348
61	0x3f7f2813	0.99670523
62	0x3f80c2c8	1.0059443
63	0x3f807fca	1.0038998

advantage_stream.1.bias f4 [64]
0	0x3bcc3b7b	0.0062326766
1	0x3c655db8	0.013999395
2	0xbc03da67	-0.008047677
3	0xbbdf0e52	-0.006807127
4	0xbbcf5033	-0.006326699
5	0x3a965786	0.0011470176
6	0x3cdd459c	0.027010731
7	0x3b1ca684	0.0023902962
8	0x3c0fa2f5	0.008766879
9	0xbb0636d6	-0.0020479462
10	0xbc0a2ce7	-0.008433557
11	0x3bcf85e4	0.0063330997
12	0x38f56799	0.00011701807
13	0xbb21ded9	-0.0024699478
14	0x3cb633a0	0.022241414
15	0x3bf46b8b	0.007459109
16	0x3b9e8d7b	0.004838643
17	0x3b984ed9	0.0046480712
18	0xbbb94e7d	-0.0056551085
19	0x3c497d29	0.012297907
20	0x3bcef273	0.0063155233
21	0x3c3e25e4	0.0116057135
22	0x3bee85e7	0.007279146
23	0x3b3207b5	0.0027165238
24	0xbbdaed46	-0.006681117
25	0xbc2301a7	-0.009949124
26	0x3c73da56	0.014883598
27	0x3c2f87c6	0.010713523
28	0x3c9575c3	0.01824463
29	0x3b033eae	0.0020026374
30	0x3a231432	0.0006220966
31	0xbae5b7d9	-0.0017526104
32	0x3bb1b03f	0.0054226215
33	0xbbbb1ea6	-0.0057104407
34	0x3bd485b4	0.006485665
35	0xbc0eb552	-0.008710222
36	0x3c328dbe	0.010898052
37	0xbc61e836	-0.013788274
38	0x3b8f0d17	0.004365574
39	0xbc0f5779	-0.008748882
40	0x3c93e754	0.018054642
41	0xbbe9dfec	-0.0071372893
42	0x3b609737	0.0034269819
43	0x3ac8e4aa	0.0015326936
44	0xbba930be	-0.005163281
45	0x3bdfc2c5	0.0068286383
46	0xba921d0b	-0.0011147571
47	0x3b9ae3bb	0.0047268546
48	0x3c1a1f72	0.009406911
49	0x3c15e2f3	0.009148347
50	0x3bc89f4d	0.0061225058
51	0x3c114d04	0.00886846
52	0xbb6f5041	-0.003651634
53	0x3b6935c1	0.0035585018
54	0x3c420cf2	0.011843907
55	0xbb9f13d0	-0.0048546568
56	0xbc81a972	-0.015827868
57	0x3c571401	0.013127328
58	0xbbb77dc9	-0.0055997116
59	0xbc0c8002	-0.008575441
60	0xbbcd7b67	-0.006270814
61	0x3b548be1	0.0032432007
62	0x3b7642af	0.0037576368
63	0x3bd9b1a7	0.0066434923

advantage_stream.3.weight f4 [2, 64]
0	0x3eaf6580	0.34257126
1	0x3d549d08	0.05190757
2	0xbe7df637	-0.24800955
3	0xbec3287b	-0.38116822
4	0x3e5640e6	0.20923194
5	0xbdb11e7a	-0.08648391
6	0xbe6cf1aa	-0.23139063
7	0xbd2150ab	-0.03938357
8	0x3e7a76e5	0.24459417
9	0xbd00f011	-0.031478945
10	0x3dcb7953	0.0993525
11	0x3eda538d	0.4264187
12	0x3d8316fb	0.064008676
13	0xbd9753b7	-0.07389014
14	0xbbca35af	-0.0061709504
15	0x3e49ae12	0.19695309
16	0x3ea0e102	0.31421667
17	0x3eb59954	0.35468543
18	0xbe07557b	-0.13216202
19	0xbd653c65	-0.0559658
20	0xbda368eb	-0.07978996
21	0xbca0ece8	-0.019644216
22	0xbe9d4461	-0.3071623
23	0xbc778f54	-0.015109856
24	0xbaf0e378	-0.0018378338
25	0xbd0657de	-0.03279864
26	0xbc86460f	-0.016390828
27	0x3df84eac	0.121243805
28	0x3d05fb8a	0.03271059
29	0x3e2e0c37	0.16996847
30	0xbde08353	-0.10962548
31	0x3e3437e7	0.1759945
32	0x3ebef454	0.37295783
33	0xbe8e99cc	-0.27851713
34	0xbdebaec6	-0.11507945
35	0xbe9afb22	-0.30269724
36	0x3dc4c1ae	0.09607254
37	0xbaa4c67c	-0.001257136
38	0x3d672990	0.05643612
39	0xbde44604	-0.11146167
40	0xbdc0ab5e	-0.09407686
41	0xbe1c2ba4	-0.15251023
42	0x3e16c770	0.14724517
43	0x3d433498	0.04765758
44	0xbdd4141a	-0.103553966
45	0x3d128c95	0.0357786
46	0x3e0359ef	0.12827276
47	0xbe80243f	-0.25027654
48	0xbd67668a	-0.056494273
49	0x3e334749	0.17507662
50	0xbe4bd0c0	-0.1990385
51	0x3e12a7da	0.14321843
52	0xbcbe69d4	-0.023243822
53	0xbd6c5e9a	-0.057707407
54	0x3dacf6f3	0.08445539
55	0xbeb9d5cb	-0.36295924
56	0xbcadc6d6	-0.021212976
57	0xbcbf87d7	-0.023380203
58	0xbdaba777	-0.08381551
59	0xbe9e2e05	-0.30894485
60	0x3b439391	0.0029842595
61	0x3e3e7a3e	0.18601319
62	0x3e2c7b5f	0.16843937
63	0xbd2734f8	-0.040822
64	0x39873ab5	0.00025792947
65	0xbd9b9c70	-0.075981975
66	0xbd556456	-0.05209764
67	0x3c34a425	0.011025463
68	0xbe3faff0	-0.18719459
69	0x3e5fac28	0.21843016
70	0xbe7e6409	-0.24842848
71	0xbe2a69e8	-0.16641963
72	0xbe18895d	-0.1489615
73	0xbdb45b5c	-0.08806488
74	0x3dbdcbbb	0.09267374
75	0xbe46dea7	-0.19420873
76	0x3e85c441	0.26126292
77	0x3e87a2fe	0.2649154
78	0x3cefa0ec	0.029251538
79	0x3d969014	0.073516995
80	0xbd451b8b	-0.04812197
81	0xbe36c36c	-0.17847985
82	0x3e808316	0.2510001
83	0xbdc7964b	-0.09745463
84	0xbe2bfe5c	-0.16796249
85	0xbdc229b2	-0.09480609
86	0xbdb2ae37	-0.08724635
87	0xbd8d0778	-0.0688619
88	0x3e2ff543	0.17183404
89	0xbc2fd9a4	-0.010733042
90	0xbdcf097e	-0.10109232
91	0xbe381cd6	-0.1797975
92	0xbcc6c563	-0.024264043
93	0xbe9ff896	-0.31244344
94	0x3e17f0fd	0.14838023
95	0xbdc367b8	-0.09541267
96	0x3cdbb6da	0.026820589
97	0xbe7e529a	-0.24836197
98	0xbec9b7fc	-0.3939818
99	0xbdc69e39	-0.09698147
100	0xbd964525	-0.07337407
101	0x3e17f7bb	0.14840595
102	0xbdaebb04	-0.08531764
103	0x3ed69b12	0.41915184
104	0xbe3dd825	-0.18539484
105	0x3e249875	0.16073783
106	0x3dba8f1a	0.09109326
107	0xbea0b4a5	-0.3138782
108	0x3e838bff	0.25692746
109	0xbd94d3c6	-0.07266955
110	0x3e29b094	0.16571265
111	0xbe7d6d72	-0.24748781
112	0x3e83fe03	0.25779733
113	0x3c74599f	0.014913945
114	0xbed69d91	-0.4191709
115	0xbe8f8d81	-0.28037646
116	0x3e45c9ec	0.19315308
117	0xbe05992a	-0.13046709
118	0xbdf85216	-0.12125032
119	0x3d9a27f3	0.07527151
120	0x3dd9dc1f	0.10637688
121	0xbddc779a	-0.10765
122	0x3cf1a0fb	0.029495707
123	0xbe39c987	-0.18143283
124	0x3e5893a6	0.21150073
125	0xbe34e39b	-0.1766495
126	0x3d238d62	0.039929755
127	0xbe4e9e8f	-0.20177673

advantage_stream.3.bias f4 [2]
0	0x3bd8c619	0.006615412
1	0xbbd8c619	-0.006615412
