backend/models/rl_agents/chain_8453/dqn_checkpoint_ep1000.pkl (torch, 382055 bytes, 60 tensors)

shared.0.weight f4 [128, 38]
0	0xbe2be94f	-0.16788219
1	0xbde3456a	-0.11097224
2	0x3cca8c68	0.024725154
3	0x3dbc6ef3	0.092008494
4	0xbc9ae9f2	-0.018910382
5	0xbda29754	-0.0793902
6	0xbe1cea33	-0.15323715
7	0x3cba157e	0.022715326
8	0xbd9bc894	-0.076066166
9	0xbe398be9	-0.18119778
10	0xbcc11dfc	-0.023573868
11	0xbd15269c	-0.036413774
12	0x3d70f26a	0.058824934
13	0x3ea3c161	0.31983474
14	0xbce88fb7	-0.028388841
15	0x3d9f6964	0.077837735
16	0x3da286b0	0.07935846
17	0xbe942d8c	-0.28941
18	0x3e42dbac	0.1902911
19	0xbd2c5b91	-0.042079512
20	0x3db0a558	0.08625287
21	0x3d631b43	0.05544592
22	0x3dd0d2e8	0.10196477
23	0x3d67a3d3	0.05655272
24	0x3dc26444	0.094917804
25	0x3e1f1789	0.15536322
26	0x3e585edb	0.21129934
27	0x3debfa1e	0.115223154
28	0xbdacbbc5	-0.08434252
29	0xbb4c9f09	-0.0031222722
30	0x3e18e781	0.14932062
31	0xbe14d5f2	-0.14534739
32	0xbdf664e2	-0.120309606
33	0xbd8e07b7	-0.06935065
34	0xbda3ae95	-0.07992283
35	0x3d3ae9e5	0.045633215
36	0xbe1c851b	-0.1528515
37	0xbd3280b3	-0.04357977
38	0x3d405bfe	0.04696273
39	0x3e40ffa6	0.18847522
40	0xbd43bfa8	-0.0477902
41	0x3e479fd2	0.1949456
42	0xbe0222c5	-0.12708576
43	0x3d17a574	0.037023023
44	0x3ac47a7f	0.001499012
45	0xbdac6814	-0.08418289
46	0xbba84fe8	-0.0051364787
47	0xbdbc2c96	-0.091881916
48	0x3e8f045a	0.27933007
49	0x3e50f83e	0.20407197
50	0xbd3554ce	-0.04427033
51	0xbdbfa871	-0.093582995
52	0xbc4eae82	-0.012614848
53	0x3d529d40	0.051419497
54	0x3de8306f	0.11337363
55	0x3d9e8017	0.07739275
56	0x3da45bd7	0.080253296
57	0x3d2554ba	0.040364005
58	0xbe566aa4	-0.20939118
59	0xbe8c5958	-0.27411914
60	0x3bbea0a3	0.0058174892
61	0xbe06ec50	-0.13176084
62	0x3de2a963	0.11067464
63	0x3e27a44c	0.16371268
64	0xbe60b70b	-0.21944825
65	0x3cdb158f	0.026743678
66	0xbd47ff74	-0.048827603
67	0xbeb7c0b1	-0.358892
68	0xbd05d0ab	-0.032669704
69	0xbe3170aa	-0.17328134
70	0xbe541dcc	-0.20714492
71	0xbe06ec8b	-0.13176171
72	0x3e262262	0.16224054
73	0x3e9c770a	0.3055957
74	0x3d3a4b57	0.045482006
75	0x3d9cb760	0.076521635
76	0x3bf3d1d8	0.007440787
77	0x3c9fbde6	0.01949973
78	0x3d078952	0.033089943
79	0xbe02450d	-0.12721653
80	0x3de5ba2c	0.1121715
81	0xbe6975b4	-0.22798806
82	0xbe5e097c	-0.21683306
83	0x3e3b47d7	0.18289123
84	0xbdc97f65	-0.09838752
85	0xbe00ecb7	-0.125903
86	0xbdb4ae3f	-0.08822297
87	0x3e8b802c	0.27246225
88	0xbe9eb039	-0.30993822
89	0xbe08591e	-0.13315246
90	0xbe609f27	-0.21935712
91	0x3da727bd	0.08161876
92	0x3e667161	0.22504188
93	0x3daf2401	0.08551789
94	0xba8dd111	-0.0010819753
95	0x3ca87f4a	0.020568509
96	0x3e33ba81	0.17551614
97	0x3c98ddf3	0.018660521
98	0x3da569d3	0.08076825
99	0xb9f960ea	-0.00047565188
100	0xbd3a19ce	-0.045434766
101	0x3c2d4a8e	0.010576857
102	0x3d5f52d1	0.05452234
103	0x3e1168db	0.14200155
104	0xbcfc87be	-0.030826446
105	0x3db3c85f	0.08778452
106	0x3dc3b893	0.09556689
107	0xbe07dff2	-0.13269022
108	0xbd223e10	-0.03960997
109	0x3a86c7ab	0.0010282894
110	0x3d481588	0.04884866
111	0xbda79727	-0.08183127
112	0xbca259a2	-0.01981813
113	0x3d574817	0.052558985
114	0x3dd93090	0.10604966
115	0x3dadd516	0.084879085
116	0xbc9f243a	-0.019426454
117	0xbe709b58	-0.23496759
118	0x3dd389b4	0.10328999
119	0xbe59954b	-0.21248357
120	0x3dac0292	0.08398928
121	0xbdbd6394	-0.09247509
122	0xbe33611c	-0.17517513
123	0xbce70090	-0.02819851
124	0x3e3aeab2	0.18253592
125	0xbe78c7f1	-0.24295022
126	0x3bebf5e1	0.007200942
127	0x3deb3e74	0.11486521
128	0x3dc71f88	0.09722811
129	0x3d3a46d9	0.04547772
130	0x3e27020a	0.16309372
131	0x3de73e94	0.11291233
132	0x3c32f7fe	0.010923384
133	0x3e42ef4c	0.19036597
134	0xbdf6c6bb	-0.120496236
135	0x3cf78625	0.030215332
136	0x3d86f2d4	0.065892845
137	0x3dc46ab7	0.09590667
138	0x3e0873e1	0.13325454
139	0x3d317981	0.043328766
140	0x3cd207e0	0.02563852
141	0xbe896112	-0.2683187
142	0x3d51c280	0.05121088
143	0xbda8df55	-0.08245722
144	0x3dbe595b	0.09294387
145	0xbdd13ad6	-0.102163
146	0x3dc0fe67	0.094235234
147	0xbe68ad53	-0.22722368
148	0xbcfe929f	-0.031075774
149	0x3d3ca97a	0.046060063
150	0x3e2abdec	0.16674012
151	0x3d376753	0.044776272
152	0xbe778191	-0.2417052
153	0x3dbbe2bc	0.091741055
154	0x3da1290c	0.07869157
155	0xbe1162c6	-0.14197835
156	0x3e7627b9	0.2403859
157	0xbe5073ca	-0.2035667
158	0xbd94069c	-0.07227823
159	0x3e2a8866	0.16653594
160	0x3e0c80ec	0.13721055
161	0xbd44e275	-0.04806753
162	0xbd92847e	-0.07154177
163	0x3cdfbd85	0.02731205
164	0x3dfd0407	0.12354284
165	0xbe64c2eb	-0.2233998
166	0x3e191c4b	0.14952199
167	0xbdd4b624	-0.10386303
168	0x3d53c46e	0.051701
169	0xbd804828	-0.06263763
170	0xbde4dc33	-0.11174812
171	0xbc64f910	-0.013975397
172	0xbdc26da9	-0.09493572
173	0x3ddce3e6	0.10785656
174	0x3ce01a70	0.027356356
175	0xbe03fcd9	-0.12889422
176	0x3e41048c	0.18849391
177	0xbe042821	-0.12905933
178	0x3e41b799	0.18917693
179	0xbde3f25a	-0.11130209
180	0xbd6f5cc1	-0.058438066
181	0xbbcda29d	-0.0062754885
182	0xbec2ff90	-0.38085604
183	0xbb42d3a6	-0.0029728203
184	0xbd0bc3d3	-0.0341223
185	0xbd933e16	-0.07189576
186	0xbcae5bac	-0.021283947
187	0xbd004ebd	-0.03132509
188	0x3d3849a8	0.04499212
189	0x3e2991cc	0.16559523
190	0x3e115abd	0.1419477
191	0xbda639d6	-0.081165
192	0x3bd18815	0.006394396
193	0x3e8b2a24	0.27180588
194	0x3eccd272	0.40004307
195	0x3dc72a09	0.097248144
196	0xbd13d8db	-0.03609548
197	0x3c9c74af	0.019098608
198	0x3d54b01b	0.05192576
199	0xbd0a23c9	-0.033725534
200	0x3ddd5749	0.10807664
201	0x3ca5b94f	0.020229964
202	0x3c5b5768	0.0133875385
203	0xbbd968eb	-0.0066348216
204	0xbe7fcde3	-0.24980883
205	0xbc7f073f	-0.015565692
206	0x3e1139ed	0.14182253
207	0xbe76d7b0	-0.24105716
208	0x3dcd07b6	0.10011236
209	0xbcbdbf09	-0.023162382
210	0x3e01a3bf	0.1266012
211	0x3d806df1	0.0627097
212	0x3d8280ce	0.06372224
213	0x3da67906	0.08128552
214	0x3e115a02	0.14194492
215	0xbe21ca52	-0.15799835
216	0x3a9b6590	0.001185583
217	0x3e7feb33	0.24992065
218	0x3dcccf5d	0.10000489
219	0x3e099560	0.13435888
220	0xbd39bdd5	-0.045347054
221	0xbd8d93bf	-0.06912946
222	0x3e3a291e	0.18179747
223	0x3d4e8f3b	0.050429564
224	0x3dd42dcc	0.103602976
225	0xbe140ce0	-0.14458036
226	0x3ddd39a4	0.1080201
227	0x3e41b83a	0.18917933
228	0xbe309b97	-0.17246853
229	0xbe0740d2	-0.1320832
230	0xbd3c8287	-0.046022918
231	0x3d96da18	0.07365817
232	0xbd85b430	-0.06528509
233	0xbdbae622	-0.091259256
234	0x3cbb6f8c	0.022880338
235	0xbe2f5e70	-0.17125869
236	0x3b441ea9	0.0029925501
237	0x3d8c4c68	0.06850511
238	0x3d62de7e	0.055387966
239	0xbd50ffcc	-0.051025197
240	0x3e3fa83d	0.18716522
241	0x3dda4b0e	0.10658847
242	0x3c93a997	0.018025203
243	0x3d3f3c4b	0.04668836
244	0x3e0c2e22	0.13689473
245	0x3dd1e498	0.10248679
246	0x3e40ee1f	0.18840836
247	0x3d19a72a	0.037512936
248	0xbddf0d03	-0.10891154
249	0x3d7a0d52	0.06104786
250	0xbe1897ef	-0.14901708
251	0xbd16ce98	-0.036818117
252	0x3d92e070	0.07171714
253	0x3e3db4f9	0.18526067
254	0x3e6b9712	0.23006848
255	0x3da4e5cc	0.08051643

shared.0.bias f4 [128]
0	0x3906bc8c	0.00012849475
1	0xbb198ccd	-0.002342987
2	0x3c3e3a83	0.01161063
3	0xbc414bb9	-0.011797839
4	0x3bf5bf54	0.0074996147
5	0xbc600ecf	-0.013675406
6	0xbbbf361d	-0.005835308
7	0xbc1e0371	-0.009644375
8	0x3c5d50fd	0.013508079
9	0x3a126977	0.00055851735
10	0xbbc88727	-0.006119627
11	0x3c031066	0.007999515
12	0xbb7d785f	-0.0038676483
13	0xbb53579e	-0.0032248269
14	0xbaa68ee9	-0.0012707385
15	0x3c34d974	0.011038173
16	0xbc75da34	-0.015005637
17	0x3b7188ac	0.0036855144
18	0x3b8303d8	0.003998261
19	0x3c17bcbf	0.009261309
20	0x3c01579b	0.007894422
21	0xbbb75e34	-0.0055959467
22	0xbb28f52c	-0.00257809
23	0xbb0b7395	-0.002127861
24	0x3b03f214	0.0020133303
25	0x3a39d08d	0.00070882664
26	0x3ca0ebef	0.019643752
27	0xbc1e8c0b	-0.0096769435
28	0x384d55f6	4.8955866e-05
29	0xbb2025f3	-0.0024436682
30	0x3b401199	0.0029307364
31	0xbb860a41	-0.004090578
32	0x3b2205d4	0.0024722712
33	0x3c8ba4b2	0.017046306
34	0x3913cfe7	0.00014096462
35	0xba2d2f5b	-0.0006606483
36	0xbc432d38	-0.011912636
37	0xbc3161cd	-0.01082654
38	0x3c47a121	0.012184412
39	0xbc400ce0	-0.01172182
40	0xbbe2529d	-0.006906821
41	0x398d1011	0.00026905586
42	0x3c1a1934	0.009405423
43	0xbacf33f1	-0.0015808326
44	0xbbfa7659	-0.0076435027
45	0xb9ba5f8c	-0.00035547873
46	0xbc177463	-0.009244057
47	0x3c84ac20	0.016195357
48	0xbbccf654	-0.0062549505
49	0xbbec0bb0	-0.0072035417
50	0x3bc69ded	0.0060613067
51	0x3b8c4369	0.004280497
52	0x3cbbbe93	0.022918021
53	0xbc96afde	-0.018394407
54	0x3c556368	0.013024189
55	0xbc77da00	-0.015127659
56	0x3c543528	0.012952127
57	0x3c07fc0c	0.008299839
58	0x3bf54865	0.0074854367
59	0x3a14122c	0.000564846
60	0x3b90ae38	0.0044152997
61	0x3bf3e17e	0.0074426522
62	0xbb4bf91c	-0.0031123823
63	0x3c833d01	0.0160203
64	0x3bca2e33	0.006170058
65	0xbc6fa491	-0.014626638
66	0xbb4ef9c0	-0.0031581968
67	0x3ae453c5	0.0017419985
68	0xbc52c738	-0.01286488
69	0xbaba747a	-0.0014225387
70	0x39ac3880	0.00032848492
71	0xbc95dcee	-0.018293824
72	0xbb05758a	-0.0020364248
73	0x3bb0943a	0.0053887637
74	0xbbe74fe9	-0.0070590866
75	0xbb690118	-0.003555363
76	0xbc0963cb	-0.008385609
77	0xbabb323a	-0.0014281936
78	0xbc7beb82	-0.015375974
79	0xbbb68fbc	-0.0055713337
80	0xbc4ae954	-0.012384731
81	0x3c709bba	0.014685566
82	0xbbc8ea71	-0.006131463
83	0xba97cffb	-0.0011582369
84	0xbc24ed16	-0.010066291
85	0x3b06cd5f	0.0020569188
86	0xbb5eeae8	-0.0034014527
87	0xbbdd9e2b	-0.00676324
88	0x3c04bc3e	0.008101521
89	0xbc825ac3	-0.01591242
90	0x3b9279ce	0.0044700867
91	0xbb94f82b	-0.0045461855
92	0xba3b5c44	-0.00071472325
93	0xbc50a65d	-0.012734977
94	0xbc9dcf81	-0.019263985
95	0xba8e86e6	-0.0010873943
96	0x3d28ee8e	0.04124313
97	0xbc4bff28	-0.012450971
98	0x3c02a1b5	0.007973124
99	0xbaaba126	-0.0013094291
100	0x3b479782	0.0030455296
101	0x3ba7cf92	0.00512118
102	0xbc82363f	-0.015895007
103	0xb700bcb2	-7.673329e-06
104	0xbc14b81c	-0.009077098
105	0x3bec5919	0.0072127697
106	0xbb373556	-0.0027955375
107	0x3aa5237b	0.0012599075
108	0xbb53dba6	-0.0032326966
109	0xbc7813ad	-0.01514141
110	0xbc3b8cdc	-0.011447158
111	0xbba2cdd2	-0.0049683833
112	0x3c74073f	0.014894306
113	0xbbd07826	-0.006361979
114	0x3bffeb16	0.007810007
115	0xbbd1e587	-0.0064055356
116	0xba896d7e	-0.0010484902
117	0x3bb0144a	0.0053735124
118	0xb8e2463f	-0.00010789604
119	0xbb5e466b	-0.0033916484
120	0x3c32cdba	0.010913307
121	0xbc61c65a	-0.013780201
122	0xbb5adeb1	-0.0033396895
123	0x3bd99978	0.0066406094
124	0x3bfb848f	0.0076757143
125	0x3ae30647	0.0017320596
126	0x3cb14926	0.021641325
127	0x3c13b49b	0.009015228

shared.1.weight f4 [128]
0	0x3f7fe90e	0.9996499
1	0x3f801956	1.0007732
2	0x3f7f44e6	0.99714506
3	0x3f7e6270	0.99368954
4	0x3f844750	1.0334263
5	0x3f805025	1.0024458
6	0x3f7d60c6	0.9897579
7	0x3f7bf643	0.9842264
8	0x3f818c41	1.0120927
9	0x3f7eb52f	0.99495214
10	0x3f7d57c1	0.98962027
11	0x3f81c097	1.0136899
12	0x3f7f3c40	0.9970131
13	0x3f7f7007	0.99780315
14	0x3f7f4682	0.9971696
15	0x3f8128c4	1.0090566
16	0x3f7fb1fd	0.99880964
17	0x3f7ea781	0.9947434
18	0x3f817b38	1.0115728
19	0x3f7f7cc3	0.99799746
20	0x3f805239	1.0025092
21	0x3f801aff	1.0008239
22	0x3f8252ce	1.018152
23	0x3f7f7936	0.9979433
24	0x3f7f3a91	0.9969874
25	0x3f7c3b36	0.9852785
26	0x3f80d5b5	1.0065218
27	0x3f81654a	1.0109036
28	0x3f8142af	1.0098475
29	0x3f7f862f	0.9981412
30	0x3f80524d	1.0025116
31	0x3f7e722b	0.99392956
32	0x3f804ff0	1.0024395
33	0x3f80416f	1.0019969
34	0x3f817369	1.0113345
35	0x3f7fa15f	0.9985561
36	0x3f808661	1.0041009
37	0x3f7c8577	0.9864115
38	0x3f8272ec	1.0191321
39	0x3f7f4922	0.99720967
40	0x3f803e94	1.0019097
41	0x3f7f47a3	0.99718684
42	0x3f80bc50	1.0057468
43	0x3f80a9ac	1.005178
44	0x3f8065dd	1.0031086
45	0x3f7ff760	0.9998684
46	0x3f7e4a67	0.9933228
47	0x3f7edc2f	0.99554724
48	0x3f800bf8	1.0003653
49	0x3f7e6394	0.99370694
50	0x3f825ab6	1.0183933
51	0x3f822c97	1.0169858
52	0x3f85fe8d	1.0468308
53	0x3f7ec5b0	0.995204
54	0x3f80cdd3	1.0062813
55	0x3f7fe2e7	0.999556
56	0x3f805d39	1.0028449
57	0x3f80724e	1.0034883
58	0x3f8018eb	1.0007604
59	0x3f80cd06	1.0062568
60	0x3f7da0d1	0.9907351
61	0x3f7f21c3	0.9966089
62	0x3f7e13b2	0.992488
63	0x3f80d7f7	1.0065907
64	0x3f7bd5d4	0.9837315
65	0x3f8039e2	1.0017664
66	0x3f80099f	1.0002936
67	0x3f812bd4	1.00915
68	0x3f7cc8b1	0.9874373
69	0x3f80a96c	1.0051703
70	0x3f816c70	1.0111217
71	0x3f7b760d	0.98227006
72	0x3f7ff7ff	0.99987787
73	0x3f81b812	1.0134299
74	0x3f7e5234	0.9934418
75	0x3f808a3e	1.0042188
76	0x3f809a93	1.0047172
77	0x3f80a13d	1.0049206
78	0x3f7dfbf8	0.992126
79	0x3f80bb58	1.0057173
80	0x3f7fc28b	0.99906224
81	0x3f8074f3	1.003569
82	0x3f80bbb0	1.0057278
83	0x3f801cbf	1.0008773
84	0x3f804388	1.0020609
85	0x3f801bcd	1.0008484
86	0x3f7f60a8	0.9975686
87	0x3f80d200	1.0064087
88	0x3f812350	1.0088902
89	0x3f7de9c0	0.991848
90	0x3f803cc8	1.0018549
91	0x3f7e431d	0.99321157
92	0x3f7dc2e1	0.99125487
93	0x3f7af4d3	0.9802982
94	0x3f7d0120	0.9882984
95	0x3f7c2bfc	0.98504615
96	0x3f80989b	1.0046571
97	0x3f7b27c7	0.9810757
98	0x3f809b62	1.0047419
99	0x3f7f2b65	0.9967559
100	0x3f80d502	1.0065005
101	0x3f805b7e	1.0027921
102	0x3f7f3035	0.99682933
103	0x3f80657e	1.0030973
104	0x3f812250	1.0088596
105	0x3f82e3e3	1.0225796
106	0x3f7f3b32	0.996997
107	0x3f8063d4	1.0030465
108	0x3f7f0b6d	0.9962681
109	0x3f7ed593	0.9954464
110	0x3f7ef606	0.9959415
111	0x3f7de774	0.99181294
112	0x3f823bc0	1.0174484
113	0x3f7e9509	0.9944616
114	0x3f817597	1.011401
115	0x3f7f066b	0.9961917
116	0x3f7ea527	0.9947075
117	0x3f80b673	1.0055679
118	0x3f7f4210	0.9971018
119	0x3f7e4630	0.9932585
120	0x3f82c9a9	1.0217792
121	0x3f7ff38e	0.9998101
122	0x3f7e7821	0.9940205
123	0x3f7f30d1	0.9968386
124	0x3f8093dc	1.0045123
125	0x3f82ce0e	1.0219133
126	0x3f817da0	1.0116463
127	0x3f7f7ed9	0.9980293

shared.1.bias f4 [128]
0	0xbbef0f2d	-0.0072955103
1	0xbad29631	-0.0016066489
2	0x3c4439c3	0.011976662
3	0xbc8e2da1	-0.017355742
4	0x3c4d3fc6	0.012527412
5	0xbb9e4724	-0.004830258
6	0xbca962e7	-0.020677043
7	0xbc34bec6	-0.011031812
8	0x3cabd6b5	0.020976404
9	0xba4d0af3	-0.0007821761
10	0xbbcc098c	-0.006226724
11	0x3bc004c5	0.0058599436
12	0xbb524f24	-0.0032090629
13	0xbbdd0596	-0.0067450507
14	0x3bcfccb3	0.0063415407
15	0x3c3b465a	0.011430347
16	0xbc23c4b5	-0.009995629
17	0xbacab4a5	-0.0015465213
18	0x3c94c3c9	0.018159764
19	0x3c31d698	0.010854386
20	0x3c509e4f	0.012733056
21	0xbb11e749	-0.00222631
22	0x3c851b7b	0.016248455
23	0x3bca4b73	0.006173545
24	0x3c3e430b	0.011612664
25	0x3a2b7333	0.00065402983
26	0x3c97dade	0.018536981
27	0xbbb9b1bb	-0.005666939
28	0x3bdbe1bd	0.0067102597
29	0xbb0bddf3	-0.002134201
30	0x3bb70f21	0.0055865203
31	0x3a3f2500	0.0007291585
32	0x3922cc44	0.00015525619
33	0x3c929702	0.017894272
34	0x3ae5aca0	0.001752276
35	0xbb2714c7	-0.0025494562
36	0x3be9890d	0.0071269334
37	0xbb96c718	-0.0046013705
38	0x3c4663d7	0.012108765
39	0xbc9c8d07	-0.019110216
40	0xba9c9a59	-0.0011947855
41	0xbb50b61d	-0.003184683
42	0x3babf549	0.005247746
43	0x3b785160	0.00378903
44	0x3c5ffe6f	0.013671502
45	0x3b203af2	0.0024449197
46	0xbc62a635	-0.013833572
47	0x3c9129e3	0.017720168
48	0xbc2571f5	-0.01009797
49	0xbbfe4b9f	-0.0077604796
50	0x3c0317e5	0.008001302
51	0x3c04415e	0.008072225
52	0x3d286811	0.04111487
53	0xbc74980a	-0.014928827
54	0x3c5f83a9	0.01364223
55	0xbc1c9b34	-0.009558488
56	0x3c20a483	0.009804848
57	0x3c06bb20	0.008223325
58	0x3bedc1a8	0.0072557516
59	0xb8351086	-4.316915e-05
60	0x39996df8	0.00029264367
61	0x3bddfc5d	0.006774469
62	0xbb924fea	-0.004465093
63	0x3c2c133b	0.010502632
64	0x3bbb35d7	0.0057132053
65	0xbbdd3c94	-0.0067516062
66	0x3bda1d15	0.006656299
67	0x3c1aab6c	0.009440284
68	0xbc1d47f7	-0.009599677
69	0x3ba66c20	0.0050788075
70	0x3b8d3cf8	0.0043102466
71	0xbca94a5a	-0.020665336
72	0xbbeaa07e	-0.0071602454
73	0x39e84e48	0.00044308812
74	0x3a4e974a	0.000788082
75	0xbb93ff78	-0.004516538
76	0xbbf486e2	-0.0074623683
77	0x3c88ead1	0.016713532
78	0xbc5776a7	-0.0131508475
79	0x3ae38ca9	0.0017360646
80	0xbc2237d0	-0.009901002
81	0x3c42f44f	0.011899068
82	0x3b42b2c8	0.0029708613
83	0xbb26e9b0	-0.0025468878
84	0xbbf9ba04	-0.0076210517
85	0x3ab25c43	0.0013607818
86	0x3b766107	0.0037594454
87	0xbb15dedb	-0.0022868428
88	0x3c73e9a2	0.014887245
89	0xbbc22ab0	-0.005925499
90	0x3c44464d	0.011979652
91	0xbbf718ac	-0.007540783
92	0xbaac6291	-0.0013151934
93	0xbc0a8fc0	-0.008457124
94	0xbc7c86dc	-0.015413012
95	0xbb371a2c	-0.0027939184
96	0x3d3df746	0.046378396
97	0xba7ec6d3	-0.0009718958
98	0x3b292795	0.0025810946
99	0x3c04e390	0.008110896
100	0x3a22251c	0.00061853393
101	0x3bb3dacb	0.0054887286
102	0x3b516c40	0.0031955391
103	0xbc588412	-0.013215082
104	0xbba5f847	-0.0050649974
105	0x3c8f1761	0.017467203
106	0xbb84d6bb	-0.004053918
107	0x3af447db	0.0018637137
108	0xbb0d54b0	-0.002156537
109	0xbc1ccce3	-0.009570333
110	0xbbfdeb66	-0.007749009
111	0xbb822931	-0.0039721956
112	0x3b63cc8b	0.0034759368
113	0xbb804a10	-0.003915079
114	0x3c517e14	0.012786407
115	0xbc2301e9	-0.009949186
116	0x39d615e0	0.0004083356
117	0x3be1151a	0.0068689706
118	0x3c048bb1	0.008089946
119	0x3b987042	0.004652054
120	0x3c246fad	0.010036391
121	0xbc3e6dbb	-0.0116228415
122	0xba11fc4f	-0.0005568908
123	0x3bba08fa	0.0056773396
124	0x3c021a74	0.007940877
125	0x3bdc4f5f	0.006723329
126	0x3c59e723	0.013299736
127	0x3b9f650c	0.0048643406

value_stream.0.weight f4 [64, 128]
0	0xbda557be	-0.08073376
1	0xbe233bfd	-0.15940852
2	0xbcb0364a	-0.021510262
3	0x3e926fee	0.2860102
4	0xbc4d5f03	-0.01253486
5	0xbdbb8816	-0.09156816
6	0xbe1785ee	-0.14797184
7	0x3e5b609f	0.21423577
8	0x3c2ff0f9	0.010738605
9	0xbdd8d23d	-0.10586975
10	0xbd7e6d07	-0.062115695
11	0xbdaa8a8b	-0.08327206
12	0x3b0bf545	0.0021355909
13	0xbc8d4fa7	-0.017249895
14	0x3d9101f0	0.07080448
15	0x3e3d209e	0.18469474
16	0x3c38bf04	0.01127601
17	0xbcc93721	-0.02456242
18	0x3d1ec866	0.038765334
19	0xbb937169	-0.0044996035
20	0x3deea5d2	0.116527215
21	0xbe3d2235	-0.1847008
22	0xbede8aaa	-0.43465167
23	0x3dd7566f	0.10514533
24	0x3cede343	0.02903903
25	0xbddf26bb	-0.10896059
26	0x3d855ec3	0.06512215
27	0x3de74339	0.112921186
28	0xbe8e1832	-0.27752835
29	0xbd5af332	-0.053454585
30	0xbda51c9c	-0.080620974
31	0x3d75bdb5	0.05999537
32	0x3cb2d74f	0.021831183
33	0x3da3720c	0.07980737
34	0x3ce49633	0.027903652
35	0xbd9b4b66	-0.075827405
36	0xbd13807b	-0.0360112
37	0xbcb6165a	-0.022227455
38	0xbbcc44fa	-0.0062338086
39	0x3e469919	0.1939434
40	0x3e0f51c7	0.1399604
41	0xbdf46c42	-0.11934711
42	0xbddfe9f5	-0.10933296
43	0x3e0ba1d3	0.1363595
44	0xbc558fff	-0.01303482
45	0x3d92677e	0.07148646
46	0x3cbb38c5	0.022854218
47	0xbd084249	-0.03326634
48	0x3ca5296b	0.020161351
49	0xbd489709	-0.048972163
50	0xbde28b5a	-0.110617355
51	0xbe4a8aba	-0.19779482
52	0x3cf89ba7	0.030347658
53	0xbd89dcee	-0.06731592
54	0x3d57d491	0.052692953
55	0x3c631731	0.01386051
56	0xbe4c92fe	-0.19977948
57	0x3da17a21	0.07884622
58	0xbdc88b19	-0.09792156
59	0xbdfbc33f	-0.122930996
60	0x3e2734d0	0.1632874
61	0xbd0674e3	-0.032826316
62	0xbd8e024f	-0.06934034
63	0x3d972bc0	0.073813915
64	0x3c8280bc	0.015930526
65	0xbe0601e4	-0.13086659
66	0x3d077999	0.03307495
67	0x3e398693	0.18117742
68	0x3e5b94a4	0.2144342
69	0xbe6d0c4b	-0.2314922
70	0xbd91672c	-0.070997566
71	0xbc886fcd	-0.016654873
72	0xbdef946d	-0.11698232
73	0x3dc26294	0.094914585
74	0x3dcc0850	0.09962523
75	0x3e28866d	0.1645753
76	0xbe2dfa7b	-0.16990082
77	0xbe683875	-0.22677787
78	0xbbdcaf0e	-0.0067347353
79	0xbbf5a74a	-0.007496749
80	0xbcb827d3	-0.022479927
81	0xbd9ad4d0	-0.07560122
82	0x3dd643b7	0.10462134
83	0xbcfb277c	-0.030658476
84	0xbe90b467	-0.28262636
85	0xbe5478fd	-0.20749278
86	0x3e064c0a	0.13114944
87	0x3d9b0a68	0.07570344
88	0x3da0497d	0.07826517
89	0x3bd34705	0.006447675
90	0x3e2b2d68	0.1671654
91	0xbde4d0b9	-0.11172623
92	0xbdcc9de4	-0.09991053
93	0x3cba4791	0.022739204
94	0x3e8326c6	0.2561552
95	0x3e12183a	0.14267054
96	0xbe013150	-0.12616467
97	0xbd9b6f1a	-0.0758955
98	0xbc2f3c3c	-0.010695513
99	0x3e154259	0.14576091
100	0xbddc906f	-0.10769736
101	0xbd31f3dd	-0.043445457
102	0xbe8ac9a9	-0.2710698
103	0x3dad14a7	0.08451205
104	0x3e8e72ba	0.27821904
105	0x3e0ed716	0.13949236
106	0x3db21f07	0.08697324
107	0x3ce188ac	0.02753099
108	0x3e63430b	0.22193544
109	0xbe17fde2	-0.14842942
110	0xbcc3adeb	-0.023886641
111	0xbd24877e	-0.040168278
112	0xbe4b31ff	-0.19843291
113	0x3df2c882	0.1185465
114	0xbe656cf7	-0.22404848
115	0xbd9dd3d1	-0.077064164
116	0x3d53bd7a	0.05169437
117	0x3a071531	0.0005152999
118	0xbdd457d1	-0.10368312
119	0x3e29b13d	0.16571517
120	0x3d963d7f	0.07335948
121	0xbe2414f4	-0.16023618
122	0xbc300511	-0.010743395
123	0x3cfccaf5	0.030858496
124	0xbeb8e0ab	-0.36108908
125	0xbcc91a62	-0.024548713
126	0x3d18bbcf	0.037288483
127	0xbd407861	-0.046989802
128	0x3d8509d1	0.06496013
129	0xbde6cd26	-0.11269598
130	0x3d70a254	0.05874856
131	0x3dd14e9c	0.10220072
132	0x3bdd45ff	0.006752729
133	0xbaf00832	-0.0018312989
134	0x3dedde4f	0.116146676
135	0xbc3cba03	-0.011518958
136	0x3d81244e	0.06305753
137	0x3cf8309b	0.030296614
138	0x3ebb6f8f	0.3660855
139	0x3e12a6e0	0.1432147
140	0xbba39634	-0.004992271
141	0x3c9b02ef	0.018922297
142	0xbe65a7a3	-0.2242723
143	0x3cbed6c5	0.02329577
144	0xbd726da5	-0.059186596
145	0xbe06d334	-0.13166505
146	0x3c53027f	0.012879013
147	0xbda0f850	-0.07859862
148	0x3e4a3959	0.19748439
149	0x3daf1755	0.08549372
150	0xbbd64f96	-0.006540249
151	0xbdfed664	-0.124432355
152	0xbda8cc2d	-0.082420684
153	0x3d9410e0	0.07229781
154	0x3d4b5956	0.049645744
155	0xbe1de85c	-0.1542067
156	0xbd37db13	-0.04488666
157	0x3d9f9edd	0.07793973
158	0xbe34280f	-0.17593406
159	0x3e4f0365	0.20216139
160	0xbe29b001	-0.16571046
161	0xbd17e864	-0.03708686
162	0x3da0dbe3	0.0785444
163	0x3d3d67b5	0.04624148
164	0xbdd68bb4	-0.10475865
165	0x3de3d3df	0.111243956
166	0xbcc565e5	-0.024096439
167	0xbbe879ac	-0.0070945825
168	0x3e0e3d5f	0.13890599
169	0x3cab4904	0.02090884
170	0xbe898894	-0.26862013
171	0xbe100ed2	-0.14068154
172	0x3d9ddeda	0.07708521
173	0x3d995f02	0.074888244
174	0xbe2e556e	-0.17024776
175	0x3e14aa36	0.14518055
176	0x3d273b3a	0.040827967
177	0x3d9aaee3	0.07552888
178	0x3e8741fe	0.26417536
179	0xbe0d2c9f	-0.13786553
180	0x3e131133	0.1436203
181	0xbe6a5001	-0.22882082
182	0x3b8685e1	0.004105315
183	0x3e2e9f9e	0.17053077
184	0x3e041c43	0.12901406
185	0xbda2df59	-0.079527564
186	0xbdcc32b2	-0.09970607
187	0x3d42fb49	0.047602925
188	0x3de5dbbb	0.11223551
189	0x3d36526a	0.04451219
190	0x3dc29a7c	0.09502122
191	0x3e4479c1	0.1918707
192	0x3ca43b4a	0.020047802
193	0x3d58ef2e	0.052962475
194	0x3e161011	0.14654566
195	0xbdda5977	-0.10661595
196	0x3d05f74b	0.03270654
197	0xbcee38da	-0.029079843
198	0xbe5f86fc	-0.21828836
199	0x3e43ccf9	0.1912116
200	0xbd13eec0	-0.03611636
201	0x3ba0fd86	0.004913035
202	0xbd56b313	-0.052416872
203	0x3d44c8cc	0.048043057
204	0x3d246ebe	0.040144674
205	0x3d8fe2e9	0.070257016
206	0x3e849ea9	0.25902298
207	0xbddcd6f8	-0.107831895
208	0x3e5fedef	0.21868108
209	0xbd8e4e8b	-0.06948575
210	0x3d586070	0.052826345
211	0xbcb886e8	-0.022525266
212	0x3d7929eb	0.06083099
213	0xbd8e4f75	-0.06948749
214	0x3e034ff6	0.12823471
215	0x3d10cf41	0.035353903
216	0x3d7086b8	0.058722228
217	0x3deed0ff	0.116609566
218	0x3eba9270	0.36439848
219	0x3d2eb674	0.04265447
220	0xbba219ae	-0.004946909
221	0x3e1fdb64	0.15611035
222	0x3e18a7ed	0.14907809
223	0x3c5c711f	0.013454705
224	0xbd407a38	-0.046991557
225	0x3dccdb5d	0.10002778
226	0x3dfa6889	0.1222697
227	0xbe771e95	-0.2413276
228	0xbd011d81	-0.031522278
229	0x3e212149	0.15735354
230	0x3e2533ba	0.16133013
231	0x3d0e1782	0.034690388
232	0xbdd38fa0	-0.10330129
233	0x3e4c9b04	0.19981009
234	0x3e6005e0	0.21877241
235	0x3d34372a	0.04399792
236	0xbce3888b	-0.02777507
237	0xbca2ce5e	-0.019873794
238	0xbd938562	-0.07203175
239	0xbe42a5a1	-0.19008495
240	0x3e0698db	0.13144247
241	0xbd7f8081	-0.06237841
242	0xbd7df73d	-0.062003363
243	0x3e007994	0.12546378
244	0xbe0ae148	-0.135625
245	0x3c8148d6	0.015781801
246	0x3e3ea71f	0.18618439
247	0xbd8473fd	-0.064674355
248	0x3d4c1909	0.049828563
249	0xbbe40241	-0.0069582765
250	0xbba96d39	-0.005170491
251	0x3e0f840f	0.1401522
252	0x3c21a798	0.009866618
253	0x3d8fda8d	0.07024107
254	0xbea6203e	-0.32446474
255	0xbe3606c3	-0.17776017

value_stream.0.bias f4 [64]
0	0x3bcfb583	0.0063387766
1	0x3b6b56b1	0.0035909826
2	0x3baaba66	0.0052102087
3	0x3b93cd5a	0.004510564
4	0xbc95241f	-0.0182057
5	0x3b7a1f8c	0.0038165776
6	0xbba745fe	-0.0051047793
7	0xbcf392be	-0.029733058
8	0xbd175180	-0.03694296
9	0x3c833ff6	0.01602171
10	0xba90bc57	-0.0011042458
11	0x3ac6b1b2	0.0015159159
12	0x3b89e1cc	0.0042078253
13	0x3be4de65	0.0069845193
14	0x3c9a867f	0.01886296
15	0xbc371b15	-0.01117589
16	0x3c74a05d	0.014930812
17	0x3b1ed263	0.0024234287
18	0xbc184319	-0.009293341
19	0x3d2e19d3	0.042505097
20	0x3cbbd300	0.022927761
21	0x3c3bf2b0	0.011471435
22	0xbb900c43	-0.004395993
23	0xbc3b936c	-0.011448722
24	0xbc7d9242	-0.015476765
25	0xbc74f8e7	-0.014951921
26	0xbcfdd602	-0.030985836
27	0xbb185ed9	-0.0023249893
28	0xbc31edb5	-0.010859896
29	0xbb7c1f69	-0.003847087
30	0xba99b1e0	-0.0011725985
31	0x3bf6fb3c	0.0075372737
32	0x3aaa98b4	0.001301548
33	0x3cdb22cb	0.026749989
34	0x3c09f947	0.008421249
35	0x3b7c9c9d	0.0038545497
36	0x3bf98a59	0.0076153693
37	0xb8411dc4	-4.6042507e-05
38	0x398bc2d1	0.00026657296
39	0x3c2fd605	0.010732179
40	0x3b7b8cab	0.0038383405
41	0x3bda2627	0.00665738
42	0x3c1aea15	0.009455224
43	0x3b431a14	0.0029770182
44	0xbb2a1307	-0.0025951283
45	0xbb0a3177	-0.0021086612
46	0xba6673f5	-0.00087910827
47	0x3bcb9e8d	0.006213969
48	0xbb5787cc	-0.0032887338
49	0x3b4f0b8f	0.0031592583
50	0xbbe274f8	-0.0069109164
51	0xbca5ab44	-0.020223267
52	0xbb88197f	-0.00415343
53	0xbc536c36	-0.0129042175
54	0x3b6fd88d	0.003659758
55	0x3b327fbb	0.0027236778
56	0xbb9ec986	-0.004845801
57	0x3a303079	0.000672109
58	0xbb4f92a8	-0.0031673107
59	0x3a578058	0.0008220724
60	0x3c03db0d	0.008047831
61	0x3c3c0571	0.011475907
62	0xba746b90	-0.00093238894
63	0x3b49bd98	0.0030783173

value_stream.1.weight f4 [64]
0	0x3f85be99	1.0448791
1	0x3f7fe9a4	0.9996588
2	0x3f7c6233	0.9858734
3	0x3f7e9137	0.9944033
4	0x3f80adc3	1.0053028
5	0x3f7c7d14	0.98628354
6	0x3f828997	1.0198239
7	0x3f80abf8	1.0052481
8	0x3f7f3bf4	0.99700856
9	0x3f80255e	1.0011404
10	0x3f7f7b17	0.99797195
11	0x3f7fc930	0.9991636
12	0x3f7dcab8	0.9913745
13	0x3f8014f4	1.0006394
14	0x3f80f636	1.0075138
15	0x3f7f5b3d	0.99748594
16	0x3f82d5a2	1.0221446
17	0x3f836951	1.0266515
18	0x3f7f0bf9	0.99627644
19	0x3f76282e	0.9615506
20	0x3f8012a8	1.0005693
21	0x3f8016c0	1.0006943
22	0x3f7a6ea0	0.9782505
23	0x3f81b28e	1.0132616
24	0x3f7cd7dd	0.9876688
25	0x3f7ed16f	0.9953832
26	0x3f7e0e0d	0.9924019
27	0x3f7f6b0f	0.99772733
28	0x3f808135	1.0039431
29	0x3f80158f	1.0006579
30	0x3f818991	1.0120107
31	0x3f805ce9	1.0028354
32	0x3f7e1357	0.9924826
33	0x3f800434	1.0001283
34	0x3f8113a3	1.0084118
35	0x3f7dda9a	0.99161685
36	0x3f7fea07	0.9996647
37	0x3f806cce	1.0033205
38	0x3f7c6606	0.98593175
39	0x3f803106	1.0014961
40	0x3f806ef6	1.0033863
41	0x3f7edc83	0.99555224
42	0x3f7fa9c4	0.99868417
43	0x3f80a2c6	1.0049675
44	0x3f7dbc1b	0.9911515
45	0x3f79c74d	0.97569734
46	0x3f7f26be	0.9966849
47	0x3f7fa5ec	0.9986255
48	0x3f7e14ad	0.992503
49	0x3f8d41f0	1.1035748
50	0x3f7f23f0	0.9966421
51	0x3f7a2bed	0.97723275
52	0x3f7ff816	0.99987924
53	0x3f7cd81f	0.98767275
54	0x3f7d8104	0.9902499
55	0x3f80feb4	1.0077729
56	0x3f7da3ed	0.99078256
57	0x3f800c57	1.0003766
58	0x3f7a09aa	0.97670996
59	0x3f8008a2	1.0002635
60	0x3f80a767	1.0051087
61	0x3f7ea965	0.99477226
62	0x3f7f7277	0.99784034
63	0x3f7e1c69	0.992621

value_stream.1.bias f4 [64]
0	0x3c0d6960	0.00863108
1	0xbb1c8be5	-0.0023887095
2	0x3b28ef52	0.0025777412
3	0x3ad4ef43	0.0016245622
4	0xbc92684d	-0.017872
5	0x3b088d80	0.0020836294
6	0xbb395ec6	-0.002828525
7	0xbb976ab6	-0.004620875
8	0xbb6ba3b0	-0.003595572
9	0x3bec06b9	0.00720295
10	0xbb96819c	-0.0045930874
11	0x3b085f97	0.002080893
12	0x3aeedddb	0.0018224077
13	0x3aa7cfe7	0.0012803049
14	0xbc18996f	-0.009313925
15	0xbbe7fc2c	-0.007079622
16	0xbb2d97eb	-0.0026488255
17	0xbaeba3a7	-0.0017977849
18	0xbbb22222	-0.005436198
19	0xbce38924	-0.027775355
20	0x3b1e75ff	0.0024179218
21	0x377eeba3	1.5194443e-05
22	0xbbc63d0c	-0.006049758
23	0xbc3d9c67	-0.011572934
24	0xbc9ecd58	-0.019385025
25	0xbc772df7	-0.0150866425
26	0xbc0e7e06	-0.0086970385
27	0xbb944257	-0.00452451
28	0xbb3202cd	-0.0027162314
29	0x3b2a0b7e	0.0025946791
30	0x3aebf27f	0.0018001347
31	0xb9eb0dbf	-0.00044832935
32	0x3a1d4ecd	0.0006000817
33	0xbc2cb330	-0.0105407685
34	0xbb7337a0	-0.0037112013
35	0x3b39cd94	0.0028351294
36	0xbbb64bae	-0.005563221
37	0xba240efe	-0.00062583375
38	0xbb003c37	-0.001956714
39	0x3ba1d175	0.0049382993
40	0x3b5f3a0c	0.0034061698
41	0x3b481b56	0.0030533872
42	0x3b46b8b7	0.00303225
43	0x3adc473c	0.0016805897
44	0xbb4634ee	-0.003024395
45	0xbb83840b	-0.0040135435
46	0x3b513526	0.0031922548
47	0x3b8ab8b7	0.0042334455
48	0xbb0e3471	-0.0021698738
49	0x3b1aca4d	0.0023619116
50	0xbbba285f	-0.005681082
51	0xbbe0ebb9	-0.006864038
52	0xbbf55a93	-0.007487604
53	0xbc61326b	-0.013744931
54	0x3afa0bf8	0.0019077053
55	0xbbc1ab3d	-0.005910306
56	0xbbeb57aa	-0.007182081
57	0xbb0c9781	-0.0021452608
58	0xbb410b83	-0.0029456324
59	0xbb8fb76f	-0.0043858807
60	0x3af8f41a	0.0018993646
61	0xbc213dbf	-0.009841382
62	0xbb2d7147	-0.0026465224
63	0x3afc34b2	0.0019241779

value_stream.3.weight f4 [1, 64]
0	0xbe5ba186	-0.21448335
1	0xbdc2efe6	-0.09518413
2	0x3e64ca5c	0.22342819
3	0x3e48117c	0.1953792
4	0xbdf79d5f	-0.12090563
5	0xbe3d4d8b	-0.18486612
6	0x3e6b50e8	0.22980082
7	0xbce36715	-0.027759114
8	0x3c9499a0	0.01813966
9	0xbd0463ca	-0.03232173
10	0xbe608823	-0.21926932
11	0x3e93d8c8	0.28876328
12	0x3e819be4	0.25314248
13	0xbdabb80a	-0.08384712
14	0xbc72fad1	-0.014830307
15	0xbce9982f	-0.02851495
16	0x3d0d9815	0.034568865
17	0xbd74068b	-0.059576552
18	0xbe22a7ec	-0.1588437
19	0xb9058812	-0.00012734559
20	0x3c92220a	0.017838497
21	0xbc591f68	-0.013252117
22	0x3eca25aa	0.3948186
23	0x3e149ef1	0.14513756
24	0xbe838f03	-0.25695047
25	0xbe68e533	-0.22743683
26	0x3e82f5f8	0.25578284
27	0xbdb1114c	-0.08645877
28	0x3e513967	0.20432054
29	0x3dd68f4f	0.10476553
30	0x3e1349a8	0.14383566
31	0x3d349a4a	0.044092454
32	0xbea401f6	-0.32032746
33	0xbbe2e359	-0.0069240746
34	0xbd30fcdf	-0.043209907
35	0x3e9e1c06	0.30880755
36	0x3d7d91dc	0.06190668
37	0x3e2d7829	0.16940369
38	0xbe10b5b0	-0.14131808
39	0x3dcd8e68	0.100369275
40	0x3e60c9d7	0.21951996
41	0x3e213f8e	0.157469
42	0x3db41f48	0.08795029
43	0x3da1aff0	0.078948855
44	0xbe1246ec	-0.14284867
45	0xbe7821d2	-0.24231651
46	0x3da46c0d	0.080284216
47	0x3e4d5a34	0.20053941
48	0xbe18395b	-0.1486563
49	0x3e5e5f40	0.21716022
50	0xbe1eab30	-0.1549499
51	0xbdb6dd8f	-0.08928978
52	0xbde9a5ba	-0.11408563
53	0xbe7e54a1	-0.24836971
54	0xbdaaa313	-0.08331885
55	0x3d8a1913	0.06743064
56	0xbe34f9cd	-0.17673416
57	0xbde70574	-0.11280337
58	0xbec4bc00	-0.38424683
59	0xbe07cc3a	-0.132615
60	0xbd38f657	-0.045156803
61	0xbd0a5d0e	-0.03378015
62	0x3e788b07	0.24271785
63	0xbe999422	-0.2999583

advantage_stream.0.weight f4 [64, 128]
0	0xbdeae3b7	-0.114692144
1	0x3abf56df	0.0014598033
2	0xbd812afb	-0.06307026
3	0x3d8a15ec	0.067424625
4	0x3e3460ce	0.17615053
5	0xbaa25dbe	-0.0012387556
6	0x3d540720	0.051764607
7	0x3dde4e55	0.108547844
8	0xbe0a12a6	-0.13483676
9	0xbdb9a27d	-0.09064195
10	0x3d23db08	0.040003806
11	0xbe42c3e0	-0.19020033
12	0xbd942475	-0.07233516
13	0x3b906471	0.004406505
14	0x3e5943b0	0.21217227
15	0x3db72cfc	0.08944127
16	0xbe22d2e2	-0.15900758
17	0x3ddfb5f6	0.10923378
18	0xbde6a9cb	-0.11262854
19	0x3d6a9348	0.057269365
20	0x3da258ba	0.079270795
21	0x3e2058cf	0.15658878
22	0x3e634f3d	0.22198196
23	0x3d017cca	0.03161315
24	0xbea3c515	-0.319863
25	0x3e10eda3	0.14153151
26	0xbd913750	-0.07090628
27	0xbbf98571	-0.0076147844
28	0x3bc5f32f	0.0060409526
29	0x3ca10077	0.019653542
30	0x3d4d0a58	0.050058693
31	0xbc8202f3	-0.015870547
32	0xbdcc6aaa	-0.09981282
33	0xbdbc97d9	-0.0920865
34	0xbe0a77ee	-0.13522312
35	0x3e21e809	0.1581117
36	0xbd90c90f	-0.07069599
37	0x3dfb399c	0.122668475
38	0x3dd2f362	0.10300328
39	0x3ddaed23	0.106897615
40	0x3c1b521f	0.009480028
41	0xbe492aec	-0.1964528
42	0xbe19a3a9	-0.15003838
43	0x3d0514f2	0.032490678
44	0xbd3c7c4c	-0.046016976
45	0xbdaae6e2	-0.08344819
46	0xbc87cf0e	-0.016578224
47	0xbc45df9a	-0.012077237
48	0x3ea2ba0e	0.31782573
49	0xbe387f8f	-0.1801741
50	0x3db95771	0.09049881
51	0xbd837341	-0.06418467
52	0xbbaca172	-0.005268269
53	0x3e07592c	0.1321761
54	0x3e1fb599	0.15596618
55	0x3e12fd7e	0.14354512
56	0x3d41a9ca	0.047281064
57	0xbdaf014d	-0.0854517
58	0x3e7a58e0	0.24447966
59	0x3d99ae54	0.075039536
60	0x3db5b222	0.08871867
61	0xbd526fc6	-0.051376127
62	0xbc2727a6	-0.010202324
63	0xbda3b65a	-0.07993765
64	0x3df6e884	0.120560676
65	0x3e230948	0.1592151
66	0xbe844613	-0.25834712
67	0x3d9b6871	0.0758828
68	0xbc433129	-0.011913576
69	0xbbe3e3fa	-0.006954667
70	0x3b161410	0.0022900142
71	0x3d559f3c	0.05215381
72	0xbe397f19	-0.1811489
73	0x3ca51a15	0.020154038
74	0x3ca6bc0f	0.020353345
75	0x3c0b5cee	0.008506043
76	0xbe1634f1	-0.14668633
77	0x3e267e5f	0.16259144
78	0xbdcc5bcb	-0.099784456
79	0xbba2f545	-0.004973086
80	0xbc279248	-0.010227747
81	0xbceef6fd	-0.029170508
82	0x3e73dd3f	0.23814867
83	0x3df915f8	0.12162393
84	0x3d9df210	0.077121854
85	0x3e14b8de	0.14523646
86	0xbdb24160	-0.087038755
87	0x3e228231	0.15869977
88	0x3e096877	0.13418756
89	0xbdecd5a5	-0.11564187
90	0x3ca0bc98	0.019621179
91	0xbd8ba76b	-0.06819042
92	0xbe19867a	-0.14992705
93	0x3e1b8c77	0.15190302
94	0x3dd9fa17	0.10643404
95	0xbe0bee1f	-0.13665055
96	0x3d89f6ce	0.067365274
97	0xbe20384a	-0.15646473
98	0xbd858832	-0.06520118
99	0xbd28b52f	-0.041188415
100	0xbd8b6761	-0.06806827
101	0x3e0a8d98	0.13530576
102	0x3dc1c8d4	0.09462133
103	0x3ba82670	0.005131535
104	0x3e761ca6	0.24034366
105	0xbc87a90e	-0.016560104
106	0xbd9bbf66	-0.07604866
107	0xbdfb5782	-0.1227255
108	0x3e9ba65e	0.30400366
109	0xbcba9ca6	-0.022779774
110	0xbd16166c	-0.036642477
111	0xbcaa90b5	-0.020820955
112	0xbcc86b89	-0.02446534
113	0xbd6dc1e6	-0.058046244
114	0x3e8e14eb	0.27750334
115	0x3d4a2f87	0.04936173
116	0xbda12320	-0.07868028
117	0xbce62a87	-0.02809645
118	0x3e84af01	0.25914767
119	0xbe369bfe	-0.17832944
120	0x3d9d6849	0.076859064
121	0xbc37fdc1	-0.011229933
122	0x3e493b2c	0.19651479
123	0xbe5295b3	-0.20564918
124	0xbe19a0bd	-0.15002723
125	0x3e6e776e	0.23287746
126	0xbe61c712	-0.22048596
127	0xbdd9a10f	-0.106264226
128	0xba887e0b	-0.001041354
129	0x3e38432c	0.17994374
130	0xbe25b3ab	-0.16181819
131	0x3e298296	0.16553721
132	0xbe8d7156	-0.2762553
133	0x3ec1bfd2	0.3784166
134	0x3c5722ce	0.013130857
135	0x3db231ce	0.08700906
136	0x3d693a8d	0.056940604
137	0xbd9063a3	-0.07050254
138	0x3e7b719a	0.24555054
139	0xbb4c6ba8	-0.0031192098
140	0xbe303925	-0.17209299
141	0x3e066b79	0.13126935
142	0x3df3b07d	0.11898897
143	0xbdbc2041	-0.091858394
144	0xbd999f9a	-0.07501145
145	0x3e00d1ae	0.12579986
146	0xbd8a860a	-0.06763847
147	0xbdbcdff3	-0.092224024
148	0xbe360ffa	-0.17779532
149	0x3c7d2d66	0.015452718
150	0xbe131705	-0.1436425
151	0x3dbd8b5a	0.09255095
152	0x3e0e15de	0.13875529
153	0x3d99e97f	0.07515239
154	0x3d5c13a1	0.053729657
155	0x3de8a9cc	0.11360511
156	0x3dc03a1d	0.09386084
157	0x3cd90832	0.026493166
158	0x3d8f088e	0.069840536
159	0xbd1fcbe5	-0.03901281
160	0xbd6df3ba	-0.058093764
161	0x3e2fcf9f	0.17169045
162	0xbcc85c87	-0.024458183
163	0xbd8607d3	-0.06544461
164	0xbc8cf2da	-0.017205644
165	0x3e28c037	0.16479574
166	0x3d2b11f1	0.041765157
167	0xbe320d43	-0.17387871
168	0x3c5693ba	0.013096744
169	0x3d61ff8c	0.05517535
170	0x3a4b7fc8	0.00077628763
171	0x3e8ba238	0.272722
172	0x3d5fd0e0	0.054642558
173	0xbd819499	-0.06327171
174	0xbe11c017	-0.14233433
175	0xbe18ab86	-0.14909181
176	0x3d38eba1	0.04514659
177	0x3dbde81e	0.092727885
178	0xbd856813	-0.06513991
179	0xbdc240ff	-0.09485053
180	0x3e3a327e	0.18183324
181	0xbd07f27b	-0.03319023
182	0x3d9e746b	0.07737049
183	0x3e620a19	0.22074164
184	0x3e119c9f	0.14219902
185	0xbd4b17ba	-0.049583174
186	0xbd2f2098	-0.042755693
187	0x3e0bd638	0.13655937
188	0x3e3c1e8b	0.18371026
189	0xbe33d660	-0.17562246
190	0x3e557df2	0.20848826
191	0x3e8039eb	0.25044188
192	0x3df2952a	0.11844857
193	0xbde31fae	-0.11090027
194	0x3e09d7a0	0.1346116
195	0xbc827177	-0.015923245
196	0xbd554cc3	-0.05207516
197	0x3d00fbe5	0.031490225
198	0xbe4f599b	-0.20249026
199	0xbde29dc6	-0.11065249
200	0x3d3f53f0	0.04671091
201	0x3e81040f	0.2519841
202	0x3e05e552	0.1307576
203	0xbd96a508	-0.07355696
204	0xbdeb464c	-0.114880174
205	0x3b6918c1	0.0035567733
206	0x3d7d2610	0.061803877
207	0xbe0b6524	-0.13612801
208	0x3e6779b0	0.22605014
209	0xbd9c05b9	-0.07618279
210	0xbd97ed8f	-0.074183576
211	0x3ddddc3e	0.108330235
212	0xbdf7b5e3	-0.12095239
213	0x3e233bb8	0.1594075
214	0xbc8437a1	-0.016139807
215	0x3e6776fe	0.22603986
216	0xbce28578	-0.027651533
217	0x3d186b0e	0.03721147
218	0x3de9a5f9	0.1140861
219	0x3e33448d	0.17506619
220	0x3e00071c	0.12502712
221	0x3cc0e216	0.023545306
222	0xbe8e91e6	-0.27845687
223	0xbde3e44d	-0.11127529
224	0xbd894eee	-0.06704508
225	0x3ca8feed	0.02062937
226	0xbbf28247	-0.007400784
227	0xbdc8dc16	-0.09807603
228	0xbdc77016	-0.097381756
229	0x3e6335ce	0.22188494
230	0x3cf32e69	0.029685216
231	0xbe299e3c	-0.16564268
232	0xbd03b112	-0.03215129
233	0xbd644973	-0.05573411
234	0x3e5fef3a	0.21868601
235	0x3c579437	0.013157896
236	0x3d5fd360	0.054644942
237	0x3daca29f	0.08429455
238	0x3d619787	0.05507615
239	0xbe539d9d	-0.20665593
240	0xbc3e9f37	-0.011634639
241	0x3c794090	0.015213147
242	0xbe02d249	-0.1277553
243	0xbce9dae5	-0.02854676
244	0xbcfb6c41	-0.030691268
245	0xbd3bb1ae	-0.045823745
246	0x3e07b8e7	0.13254128
247	0x3ca436d9	0.020045685
248	0x3dda26e1	0.10651947
249	0xbe0df0fb	-0.13861458
250	0x3d75fe56	0.060057007
251	0x3d8c2f45	0.068449534
252	0x3d8d77e4	0.06907633
253	0x3e109c92	0.14122227
254	0xbd4055a2	-0.046956666
255	0x3e30731e	0.17231414

advantage_stream.0.bias f4 [64]
0	0x3bf44a5c	0.0074551534
1	0x3c7124c6	0.01471824
2	0x3b353cdb	0.002765468
3	0x3b9c0c8b	0.0047622374
4	0x3bd1781b	0.0063924915
5	0xbbef0a07	-0.0072948965
6	0xba901578	-0.0010992726
7	0xbc03b3ad	-0.0080384435
8	0x3c101199	0.008793258
9	0xbb49e47e	-0.0030806358
10	0x3b936a6b	0.00449877
11	0x3b7462bb	0.0037290293
12	0x3c54e8df	0.012994974
13	0x3c41e974	0.011835445
14	0xbc2dc470	-0.010605916
15	0x3c301c13	0.010748881
16	0x3bceefd3	0.0063152104
17	0xbaa2bbc8	-0.0012415582
18	0xbba01728	-0.004885573
19	0x3cb90044	0.022583134
20	0x3a51158a	0.0007975927
21	0x3c7fe68b	0.015618931
22	0xbb5c839b	-0.003364778
23	0x3a93adf7	0.0011267056
24	0x3ba1cd76	0.004937823
25	0xbb92c01a	-0.0044784667
26	0xbb772658	-0.0037712064
27	0xbad814f0	-0.0016485732
28	0xbbef4080	-0.00730139
29	0x3cc930dd	0.024559433
30	0xbb36c594	-0.0027888762
31	0x3c1fdff8	0.009757988
32	0x3be4f43a	0.006987122
33	0xbc26f55f	-0.010190337
34	0x3b8cd20e	0.0042975014
35	0x3b1ea6a6	0.0024208217
36	0xba9edc96	-0.0012120183
37	0x3c8b6559	0.0170161
38	0xbc38d0c9	-0.011280247
39	0x3b123f74	0.0022315653
40	0x3b080e84	0.0020760605
41	0x3b904754	0.004403034
42	0x3c8e6339	0.017381297
43	0xba922945	-0.0011151215
44	0xbb3599bc	-0.002771004
45	0xbb701413	-0.003663306
46	0x3b0e0a25	0.0021673527
47	0x3b404f19	0.002934402
48	0xbc5f0c76	-0.013613811
49	0xbbac4bfc	-0.0052580815
50	0x3bf110ee	0.0073567545
51	0x3c6d2724	0.014474664
52	0xbb190579	-0.002334921
53	0xbbf1f3df	-0.007383808
54	0x3c8ee516	0.017443221
55	0xbcad1613	-0.02112869
56	0x3b90433f	0.0044025476
57	0x3c15d24e	0.009144379
58	0xbb5375ec	-0.0032266332
59	0x3b22f33c	0.0024864217
60	0x3bbbf570	0.0057360455
61	0x3a13e18b	0.00056412135
62	0xbc01873d	-0.0079057785
63	0xbb449782	-0.0029997532

advantage_stream.1.weight f4 [64]
0	0x3f7ed7db	0.9954812
1	0x3f80444d	1.0020844
2	0x3f7f6abd	0.99772245
3	0x3f811256	1.0083721
4	0x3f82076a	1.0158513
5	0x3f7e572f	0.9935178
6	0x3f7fb60d	0.9988716
7	0x3f7f3d15	0.9970258
8	0x3f7fc9ff	0.99917597
9	0x3f7ed583	0.99544543
10	0x3f7fcbd2	0.9992038
11	0x3f813b0e	1.0096147
12	0x3f7e87bf	0.9942588
13	0x3f7fc535	0.9991029
14	0x3f83c573	1.0294632
15	0x3f8063de	1.0030477
16	0x3f7f633b	0.9976079
17	0x3f7e1f41	0.9926644
18	0x3f7f415c	0.99709105
19	0x3f825384	1.0181737
20	0x3f835c85	1.026261
21	0x3f800206	1.0000618
22	0x3f80de76	1.006789
23	0x3f80cce2	1.0062525
24	0x3f856755	1.042216
25	0x3f7d9558	0.99056005
26	0x3f7f7b32	0.99797356
27	0x3f82199e	1.0164068
28	0x3f8331f3	1.0249618
29	0x3f7d1945	0.98866683
30	0x3f7ce492	0.9878627
31	0x3f7e7809	0.9940191
32	0x3f81774d	1.0114533
33	0x3f7e6f7e	0.99388874
34	0x3f82b359	1.0210983
35	0x3f7e56cb	0.99351186
36	0x3f7de71f	0.9918079
37	0x3f7cc19a	0.9873291
38	0x3f7fd034	0.9992707
39	0x3f7f5e71	0.9975348
40	0x3f80a85a	1.0051377
41	0x3f837ce0	1.0272484
42	0x3f86cbfa	1.0530999
43	0x3f7ffa17	0.9999098
44	0x3f8058a7	1.0027055
45	0x3f7e5d9f	0.99361604
46	0x3f8184a3	1.0118603
47	0x3f7e582f	0.9935331
48	0x3f7ed651	0.9954577
49	0x3f7c415a	0.9853722
50	0x3f824375	1.0176836
51	0x3f82e4f0	1.0226116
52	0x3f7c9c65	0.9867614
53	0x3f80d516	1.0065029
54	0x3f804a48	1.0022669
55	0x3f8367c3	1.026604
56	0x3f7f69b4	0.99770665
57	0x3f809e03	1.0048221
58	0x3f801594	1.0006585
59	0x3f7ea358	0.9946799
60	0x3f81636b	1.0108465
61	0x3f7ea456	0.99469507
62	0x3f7e18ab	0.9925639
63	0x3f7ff46c	0.99982333

advantage_stream.1.bias f4 [64]
0	0xbb23b6d8	-0.002498081
1	0x3baeba27	0.0053322497
2	0x3ae14f67	0.0017189801
3	0x3b732f2f	0.003710698
4	0x3b6b9897	0.0035949105
5	0xbc0a9eaf	-0.008460685
6	0xbbc83e30	-0.006110929
7	0xbc1b0e66	-0.009463882
8	0x3b8b476e	0.0042504584
9	0xbb881ba4	-0.0041536856
10	0x3b1c52ba	0.002385302
11	0x3b25bf3b	0.0025290984
12	0xbbc24a34	-0.005929256
13	0x3a270768	0.0006371648
14	0xbb7a3edc	-0.003818444
15	0x3c0e8fde	0.008701293
16	0x3a91d864	0.0011127112
17	0xbb6526cd	-0.0034965754
18	0xbbd4804d	-0.006485021
19	0x3cc24510	0.023714572
20	0x3ba306b4	0.0049751643
21	0xbc70b219	-0.014690899
22	0xbbb833aa	-0.005621393
23	0x3a434e31	0.0007450311
24	0xbaccf093	-0.0015635662
25	0xbc1810bc	-0.009281334
26	0xbb9c5155	-0.0047704377
27	0xbb20efad	-0.002455692
28	0xbbe2acc2	-0.006917567
29	0xbc105074	-0.008808244
30	0xbb71de19	-0.0036906062
31	0x3ab46bee	0.0013765076
32	0xbc9e8b04	-0.019353397
33	0xbc2bd4b1	-0.010487721
34	0xbbfccd9c	-0.0077149402
35	0x3afe96da	0.0019423619
36	0xbb52c0f2	-0.0032158461
37	0xba88840c	-0.001041533
38	0xbc7f60a3	-0.015587005
39	0xba50d341	-0.00079660496
40	0xb8983a9c	-7.258842e-05
41	0x3ad8d3ca	0.001654261
42	0xbb735d0b	-0.0037134315
43	0xbcbf9459	-0.023386167
44	0xbb28ebd3	-0.0025775328
45	0xbbf03a5d	-0.007331176
46	0xbb8177ff	-0.003951072
47	0x3aa40ad2	0.0012515432
48	0xbc5614af	-0.013066455
49	0xbbce6f24	-0.00629987
50	0x3abab708	0.0014245221
51	0x3c5b4953	0.013384181
52	0xbb8d6f64	-0.0043162573
53	0xbc03c28b	-0.008041988
54	0x3aa88236	0.0012856189
55	0xbc8ca9aa	-0.017170746
56	0x3b57136e	0.0032817977
57	0x3bdcea40	0.006741792
58	0xbbd61591	-0.0065333326
59	0x38b68a0b	8.704149e-05
60	0x3a94f8fb	0.0011365706
61	0xbb8c5425	-0.0042824917
62	0xbc0aec9b	-0.008479263
63	0xbbf90b11	-0.007600196

advantage_stream.3.weight f4 [2, 64]
0	0xbe43685c	-0.19082779
1	0x3e0e9735	0.13924868
2	0x3e473764	0.19454724
3	0x3e9ae061	0.30249313
4	0x3ea8e08b	0.32983813
5	0xbd803da8	-0.0626176
6	0xbe08b5ad	-0.13350554
7	0x3dd5dd16	0.104425594
8	0xbd130d33	-0.03590126
9	0xbea133f7	-0.3148496
10	0x3e98fbbb	0.29879555
11	0x3dc87743	0.09788372
12	0x3dc7ae9a	0.097500995
13	0x3de43fe8	0.11145002
14	0x3d9e2b10	0.07723057
15	0x3e06373d	0.13107009
16	0xbcd82987	-0.02638699
17	0xbcdf30c2	-0.02724493
18	0xbde521bf	-0.11188077
19	0x3d61b998	0.055108637
20	0xbd1445b9	-0.036199305
21	0x3ba949d6	0.0051662726
22	0x3b8f0435	0.004364515
23	0x3de5f6a8	0.112286866
24	0xbe801d0e	-0.25022167
25	0xbe03d200	-0.12873077
26	0xbe022a6b	-0.12711494
27	0x3ef5d8ca	0.4801696
28	0x3cd978ad	0.0265468
29	0x3e389e19	0.1802906
30	0xbe489ade	-0.19590327
31	0x3cbda70b	0.023150941
32	0xbd9c6e19	-0.07638187
33	0xbe0b5a93	-0.1360877
34	0x3d238ba6	0.0399281
35	0x3e9dd10a	0.30823547
36	0xbda78ea5	-0.08181504
37	0x3da21807	0.07914739
38	0x3df0e79d	0.11762927
39	0xbe7e5de7	-0.24840508
40	0xbddbe9ee	-0.10737978
41	0xbe6f0edd	-0.23345514
42	0xbd303018	-0.043014616
43	0xbcd593f0	-0.026071519
44	0x3e90ee36	0.2830674
45	0x3da6ece7	0.08150654
46	0x3da24c75	0.07924739
47	0x3dc31c37	0.09526866
48	0xbe765af4	-0.24058133
49	0xbf05891a	-0.52162325
50	0x3d85000c	0.064941496
51	0xbc8ad102	-0.016945366
52	0x3e673d33	0.2258194
53	0x3db51432	0.088417426
54	0xbd155871	-0.036461297
55	0xbe4f8702	-0.20266345
56	0x3e4807a7	0.19534169
57	0x3e69df57	0.22839104
58	0xbe1a1294	-0.1504615
59	0xbe0492e2	-0.12946656
60	0xbc187550	-0.009305313
61	0xbdbe64aa	-0.09296544
62	0xbcfda28e	-0.030961301
63	0xbe92e592	-0.28690773
64	0xbde60591	-0.112315305
65	0x3dc77672	0.097393885
66	0xbe3c8f33	-0.18414001
67	0x3d510492	0.05102975
68	0x3cc79dca	0.024367232
69	0x3dabf15f	0.08395647
70	0x3dad9297	0.084752254
71	0x3ebbf814	0.36712706
72	0xbe0ad400	-0.13557434
73	0x3e2caee3	0.16863589
74	0x3d598f48	0.05311516
75	0xbe6921d3	-0.22766809
76	0x3e097834	0.1342476
77	0x3e413863	0.18869166
78	0x3e059015	0.13043244
79	0xbe0ce8b7	-0.13760649
80	0xbe022f73	-0.12713413
81	0x3dee7a78	0.11644453
82	0x3e74ff01	0.23925401
83	0x3ca56f45	0.020194659
84	0x3de408ff	0.11134528
85	0xbcaadb27	-0.020856453
86	0x3def0435	0.11670724
87	0x3ea01884	0.31268704
88	0x3a3504f5	0.00069053407
89	0x3c728fbe	0.014804779
90	0x3e5d46cc	0.21609038
91	0x3d7500cf	0.059815224
92	0xbd8b15a9	-0.06791241
93	0x3e4375b6	0.19087872
94	0x3eca05a2	0.39457422
95	0xbb7b1bfd	-0.0038316243
96	0xbd23e65b	-0.040014606
97	0x3e5ec1b4	0.2175358
98	0xbdded394	-0.10880199
99	0xbd9f8424	-0.07788876
100	0x3e495b58	0.19663751
101	0x3da0b7a9	0.078475304
102	0x3e5da0f5	0.21643431
103	0xbde43d08	-0.11144453
104	0xbe9066b2	-0.2820335
105	0x3ca8a4ae	0.020586338
106	0xbdfc9731	-0.12333525
107	0x3c1702c4	0.009216968
108	0xbe6f530f	-0.23371528
109	0xbd931415	-0.07181565
110	0x3e324994	0.1741088
111	0xbe9001ff	-0.28126523
112	0xbc72a58d	-0.014809978
113	0x3dfdd202	0.123935714
114	0x3ad2edbe	0.0016092581
115	0x3ed0c9b3	0.40778884
116	0x3ef3ff0e	0.4765553
117	0xbe06ce42	-0.13164619
118	0xbd8ad1cd	-0.067782976
119	0xbd4e482d	-0.0503618
120	0xbe625c67	-0.22105561
121	0xbc36aacc	-0.01114912
122	0x3d80d0a3	0.06289794
123	0xbeca75b4	-0.39542925
124	0xbd91d4ff	-0.07120704
125	0x3d9a2627	0.07526808
126	0x3def4f7a	0.11685081
127	0xbe2f92e8	-0.17145884

advantage_stream.3.bias f4 [2]
0	0x3b966751	0.004589953
1	0xbb966751	-0.004589953
