backend/models/rl_agents/chain_8453/dqn_checkpoint_ep1500.pkl (torch, 382055 bytes, 60 tensors)

shared.0.weight f4 [128, 38]
000000 d5 ea 2a be 58 48 e1 bd 73 80 d2 3c 05 6c be 3d
       -0.16691144 -0.110001266 0.025696015 0.09297947
000010 e7 f5 92 bc 42 9a a0 bd b9 eb 1b be 89 09 c2 3c
       -0.017939521 -0.07841922 -0.1522664 0.023686187
000020 82 cb 99 bd 6f 8d 38 be f1 29 b9 bc 9d 2c 11 bd
       -0.07509519 -0.18022703 -0.022603007 -0.035442937
000030 69 ec 74 3d a9 40 a4 3e 63 9f e0 bc 04 56 a1 3d
       0.05979577 0.32080582 -0.027419752 0.07877734
000040 41 77 a7 3d 92 53 93 be 26 c7 44 3e 11 5d 2f bd
       0.08177043 -0.28774697 0.19216594 -0.042813364
000050 52 c0 b0 3d 68 09 63 3d a2 6d b9 3d 83 0a 8e 3d
       0.08630432 0.055428892 0.09054114 0.06935599
000060 d1 3b ba 3d cf a4 1c 3e b2 27 60 3e b6 99 dd 3d
       0.0909344 0.15297244 0.21890143 0.10820334
000070 33 1c bb bd f4 44 88 bb 88 7e 11 3e a8 5e 18 be
       -0.09136238 -0.0041586105 0.14208424 -0.14879858
000080 44 98 fe bd 67 61 8e bd 95 ae a3 bd e5 e9 3a 3d
       -0.12431386 -0.06952172 -0.07992283 0.045633215
000090 1b 85 1c be b3 80 32 bd c3 87 3d 3d a7 4a 40 3e
       -0.1528515 -0.04357977 0.04627205 0.18778478
0000a0 e3 93 46 bd d3 ea 46 3e c4 d7 02 be 39 d1 14 3d
       -0.04848088 0.19425516 -0.1277762 0.036332343
0000b0 10 e7 53 3a 39 d2 ad bd a8 f1 be bb bb 96 bd bd
       0.0008083442 -0.084873624 -0.0058271475 -0.09257265
0000c0 ed a9 8e 3e 3f 43 50 3e 09 29 38 bd 96 12 c1 bd
       0.27864018 0.20338152 -0.04496101 -0.09427373
0000d0 34 fe 59 bc 51 de 4f 3d 8a 0d e7 3d d9 c6 9d 3d
       -0.013305236 0.050749127 0.11281879 0.07703943
0000e0 80 c7 a2 3d db 43 22 3d fb 51 55 be 09 b7 8c be
       0.07948208 0.039615493 -0.20832054 -0.27483395
0000f0 01 57 f0 3b 94 76 07 be 81 7c e8 3d 16 cd 29 3e
       0.0073345904 -0.13228828 0.11351872 0.1658214
000100 10 09 64 be d4 9d c7 3c 4e bb 51 bd 5e f0 b9 be
       -0.22269082 0.02436725 -0.05120402 -0.36316198
000110 62 79 1e bd 98 2f 32 be b0 36 4e be 18 ca 09 be
       -0.03868998 -0.17400968 -0.20138049 -0.13455999
000120 62 22 26 3e 0a 77 9c 3e 57 4b 3a 3d 60 b7 9c 3d
       0.16224054 0.3055957 0.045482006 0.076521635
000130 c1 60 c2 3b 9b 61 93 3c 38 5b 01 3d 92 d0 03 be
       0.005931944 0.017990878 0.031581134 -0.12872532
000140 26 a3 e2 3d 39 01 6b be 01 95 5f be 52 bc 39 3e
       0.11066274 -0.22949685 -0.21834184 0.18138245
000150 6b 96 cc bd 3c 78 02 be 45 c5 b7 bd 58 ba 8a 3e
       -0.099896275 -0.12741178 -0.08973173 0.27095294
000160 0d 76 9f be a3 e4 09 be e8 27 62 be 52 c1 a1 3d
       -0.31144753 -0.13466124 -0.22085536 0.07898201
000170 94 e3 63 3e 94 9c ab 3d bf 55 03 bb d4 a2 7c 3c
       0.22254783 0.08379474 -0.0020040122 0.015419681
000180 36 4f 30 3e cb 38 93 3c 77 ab 9b 3d ea a7 9f b9
       0.17217717 0.017971417 0.07601064 -0.0003045195
000190 76 16 37 bd 75 37 2a 3c 98 ae 5d 3d 0b 8d 0c 3e
       -0.044699155 0.010389199 0.054121584 0.13725679
0001a0 37 b3 11 bd ba 6d ac 3d 81 03 b9 3d 31 32 0b be
       -0.035571303 0.08419366 0.090338714 -0.13593365
0001b0 2e ba 0b bd 37 4e ad bb 88 15 48 3d 27 97 a7 bd
       -0.0341131 -0.005288865 0.04884866 -0.08183127
0001c0 a2 59 a2 bc 17 48 57 3d ce 26 e4 3d 54 cb b8 3d
       -0.01981813 0.052558985 0.11140214 0.09023157
0001d0 d3 96 66 bc 46 20 6b be f2 7f de 3d 39 1a 54 be
       -0.014074045 -0.2296153 0.108642474 -0.20713128
0001e0 d0 f8 b6 3d 56 6d b2 bd 0a e6 2d be c3 27 bb bc
       0.08934176 -0.087122604 -0.16982284 -0.022846108
0001f0 c4 65 40 3e df 4c 73 be a7 ac 4d 3c b2 34 f6 3d
       0.1878882 -0.23759793 0.012553371 0.120217696
000200 4a 15 d2 3d 6e 54 50 3d 82 b7 2c 3e 56 60 f3 3d
       0.10257967 0.05086177 0.16866878 0.11883609
000210 08 f5 86 3c 7d a1 48 3e d1 9b ea bd d1 ee 0b 3d
       0.016474262 0.19592853 -0.11455501 0.0341633
000220 8b 89 8a 3d 32 db b6 3d 58 6e 04 3e 97 d5 1b 3d
       0.067645155 0.08928527 0.12932718 0.038045492
000230 cf 37 e9 3c 0d 6e 85 be 90 5a 71 3d 1a 5e b1 bd
       0.028468994 -0.26060525 0.058924258 -0.086605266
000240 07 d0 ac 3d 10 0e ca bd ac 15 c2 3d cb d5 6b be
       0.084381156 -0.098659635 0.0947679 -0.23030774
000250 9f 92 fe bc 7a a9 3c 3d ec bd 2a 3e 53 67 37 3d
       -0.031075774 0.046060063 0.16674012 0.044776272
000260 de 95 76 be 1a ba bd 3d 6a 00 a3 3d 14 77 10 be
       -0.24080607 0.09264012 0.07959063 -0.14107925
000270 6c 13 77 3e 18 88 4f be 3e 2f 92 bd 18 74 2b 3e
       0.24128503 -0.2026676 -0.07137917 0.16743505
000280 9e 6c 0d 3e 9e 33 41 bd 20 ad 90 bd 1f 1b e7 3c
       0.13810965 -0.047168367 -0.07064271 0.028211175
000290 65 db fe 3d 38 d7 63 be 29 53 1a 3e 2c 11 cd bd
       0.1244419 -0.22250068 0.15070786 -0.10013041
0002a0 2e 84 68 3d 90 27 76 bd 18 e3 e4 bd c5 ee f7 bb
       0.05676668 -0.060096323 -0.11176127 -0.0075663053
0002b0 18 e3 cb bd 87 58 e9 3d e1 b2 fa 3c 49 76 05 be
       -0.09955424 0.113938384 0.030602874 -0.13033403
0002c0 db fc 3c 3e ed c5 03 be d6 ed 4b 3e 0e 85 e8 bd
       0.18455832 -0.12868471 0.19914946 -0.11353503
0002d0 5b 82 78 bd 12 5d 5f bc 0f 6e c4 be 59 ce 89 bb
       -0.06067119 -0.01363303 -0.38365218 -0.0042055068
0002e0 26 ba c6 bc 9a a9 a7 bd ac 5b ae bc bd 4e 00 bd
       -0.024258684 -0.08186646 -0.021283947 -0.03132509
0002f0 a8 49 38 3d cc 91 29 3e bf c1 14 3e c2 6b 9f bd
       0.04499212 0.16559523 0.14527033 -0.07784225
000300 59 34 1f 3c 9c dd 8c 3e ea 85 ce 3e 1d f8 cd 3d
       0.0097170705 0.27512825 0.40336543 0.100570895
000310 ca 3c 06 bd eb ac b7 3c 2c 4c 62 3d 7d 0f f9 bc
       -0.032772817 0.02242132 0.055248424 -0.030402893
000320 5d 25 e4 3d 8b f1 c0 3c e5 e3 88 3c 73 10 59 bb
       0.11139939 0.023552677 0.016710231 -0.0033121377
000330 a3 9c 7c be d7 68 67 bc 06 63 10 3e 9e 19 7e be
       -0.24669127 -0.014124117 0.14100274 -0.2481446
000340 4c 91 c5 3d e3 5c 15 bd f6 f9 00 3e 01 2a 78 3d
       0.09646854 -0.036465537 0.12595353 0.060586933
000350 fe 35 8e 3d 00 4f 9b 3d 6d 7e 13 3e a1 e7 1f be
       0.06943892 0.075834274 0.14403696 -0.15615703
000360 83 37 c8 3c 2a 50 7d 3e 41 99 c7 3d da 9c 10 3e
       0.024440533 0.24737611 0.09746028 0.14122334
000370 3c fd 3e bd 5b 58 87 bd 1b 23 37 3e cb f1 5d 3d
       -0.046628222 -0.06608649 0.17884485 0.05418567
000380 cc 2d d4 3d e0 0c 14 be a4 39 dd 3d 3a b8 41 3e
       0.103602976 -0.14458036 0.1080201 0.18917933
000390 26 0b 30 be 61 b0 06 be a7 40 3a bd 0c fb 97 3d
       -0.17191753 -0.1315322 -0.045471814 0.0742093
0003a0 3c 93 84 bd 2e c5 b9 bd 3d f3 bf 3c ff cd 2e be
       -0.06473395 -0.09070812 0.023431415 -0.17070769
0003b0 56 3c 68 3b 5c 6d 8d 3d 5d 20 65 3d ed bd 4e bd
       0.0035436354 0.06905624 0.055939067 -0.050474096
0003c0 ae 38 40 3e 02 6c db 3d 57 4c 96 3c c8 e3 3f 3d
       0.18771622 0.1071396 0.018346949 0.04684809
0003d0 db ad 0a 3e 2b b7 ce 3d 52 71 40 3e 8e f1 0f 3d
       0.13542883 0.1009353 0.18793228 0.035142474
0003e0 e7 42 ee bd 97 77 6c 3d 0c 2e 21 be be 6c 0d bd
       -0.11633854 0.057731237 -0.15740222 -0.034527533
0003f0 00 10 92 3d 90 df 37 3e 7e 76 6f 3e 6f 2e 9e 3d
       0.07131958 0.17956376 0.23385045 0.077237

shared.0.bias f4 [128]
000000 ed 04 1f 3b a9 6f e9 ba d8 fc 6b 3c 31 40 8a bc
       0.002426441 -0.0017809767 0.014403544 -0.016876312
000010 b4 a1 c8 3b 55 5b 74 bc 35 35 8a ba 21 08 55 bc
       0.006122792 -0.014914353 -0.0010544421 -0.013002426
000020 8a a6 26 3c 04 dd 0a 3a 19 85 13 bc ab b9 c1 3b
       0.010171542 0.0005297216 -0.009003901 0.005912026
000030 e2 78 87 bb 7a 95 ad ba a7 2f 27 ba 6a 51 07 3c
       -0.0041342834 -0.00132434 -0.0006377645 0.008259157
000040 80 0e 71 bc e6 38 26 3b 1e c0 ac 3b 66 a8 50 3c
       -0.01471293 0.0025363504 0.0052719256 0.012735462
000050 84 f9 f0 3b df f7 55 bc 28 01 b7 bb 28 84 a6 3a
       0.0073539633 -0.013059585 -0.0055848546 0.001270418
000060 47 7e 07 3b da 8e c1 3a 44 9c a4 3c 71 42 29 bc
       0.0020674632 0.0014767305 0.020094045 -0.010330782
000070 e8 1e c0 b9 53 82 33 ba bf ed 42 3b f3 71 50 bc
       -0.0003664412 -0.0006847728 0.0029743758 -0.01272248
000080 12 1b 27 3b bd cb 83 3c 47 22 62 b9 b5 e9 63 3b
       0.0025498313 0.01608836 -0.00021565809 0.0034776751
000090 81 37 45 bc 45 af 31 bc 11 82 34 3c 98 cf 85 bc
       -0.012037159 -0.01084501 0.011017338 -0.01633434
0000a0 d9 16 00 bc 51 e1 ba 3a 8d 49 d4 3b 7e 7c d9 ba
       -0.007817947 0.0014257823 0.0064784945 -0.0016592888
0000b0 8c 22 c7 bb 81 ff 45 3a c2 d4 c8 bb bd 70 71 3c
       -0.0060771164 0.00075530267 -0.0061288783 0.014736352
0000c0 92 7b 0b bc 02 8c eb bb 91 be 02 3c a9 86 39 3b
       -0.008513348 -0.007188321 0.007980005 0.0028309023
0000d0 86 42 fd 3c dc 41 84 bc e3 ba 31 3c 71 44 41 bc
       0.03091551 -0.016144685 0.01084778 -0.011796103
0000e0 cf fe 3d 3c b5 8d 20 3c 42 d8 08 3c 4f 8e 2d 3b
       0.011596396 0.009799411 0.008352341 0.0026482528
0000f0 9f 99 d0 3b 9e 7c 2d 3c 46 63 58 ba 52 a4 9d 3c
       0.0063659693 0.010588793 -0.0008254539 0.019243393
000100 1a ca 99 3b 74 19 77 bc 47 de 67 bc 0a 76 5c bb
       0.004693282 -0.015081752 -0.014152116 -0.0033639693
000110 95 1e 2e bc 40 66 a0 bb 34 d6 2d bb 5a e4 8b bc
       -0.0106274085 -0.0048950016 -0.002652538 -0.01707666
000120 1b d3 21 3b ab 53 b5 3b 6d 3f 1f bc f7 fc 40 ba
       0.002469248 0.0055336556 -0.009719712 -0.00073619134
000130 d0 c1 fb bb fc c3 1b 3b 57 33 7e bc a5 83 09 bc
       -0.0076830164 0.002376794 -0.01551517 -0.008393203
000140 db 13 a4 bc 11 c0 b3 3c c6 6b 00 bb 5f 76 73 3a
       -0.020029 0.02194217 -0.0019595488 0.0009287353
000150 6c d8 92 bc e8 25 80 3b 71 4b 1d bc ee 13 17 bc
       -0.017925464 0.003910769 -0.009600506 -0.00922106
000160 01 18 4c 3c c7 3a da bc fb 6b a1 3b e9 b6 63 bb
       0.012456895 -0.026639355 0.0049262024 -0.0034746474
000170 cd 29 ff 39 b6 57 67 bc 58 d4 a7 bc c4 1e 0f bb
       0.00048668534 -0.014120033 -0.020486996 -0.0021838406
000180 2d 7c 3d 3d 16 cd 82 bc b0 37 cb 3b 00 d7 b1 3a
       0.046261 -0.015966933 0.006201707 0.0013568103
000190 bc d5 23 bb 16 61 9f 3b 38 52 56 bc de dd 86 3b
       -0.0024999222 0.0048638685 -0.013081126 0.004115804
0001a0 7a 75 70 bc 69 e0 81 3b 29 ae 65 3b 8e e8 da ba
       -0.014676446 0.0039635194 0.0035046434 -0.0016701387
0001b0 2b ae 57 bb 7d d8 5b bc e9 03 a6 bc 33 70 d9 bb
       -0.0032910209 -0.013418314 -0.020265536 -0.0066356896
0001c0 70 c7 83 3c b4 d5 e2 bb dc 1c f5 3b 7f e2 19 bc
       0.01608631 -0.006922448 0.007480247 -0.00939238
0001d0 9e 5f a9 3b ca 24 c0 3b 71 25 59 bb 25 21 00 bb
       0.005168869 0.0058637606 -0.003313389 -0.0019551006
0001e0 47 b0 bc 3c ad 2b 97 bc c2 8c d5 bb 3c c2 11 3c
       0.023033274 -0.018453443 -0.006517024 0.008896407
0001f0 28 b3 29 3c fb 35 95 ba 33 6b 91 3c 3d 00 45 3c
       0.010357656 -0.0011383885 0.017751312 0.012023983

shared.1.weight f4 [128]
000000 17 30 80 3f ed 16 80 3f b7 8c 7d 3f 91 64 7d 3f
       1.0014676 1.0006996 0.9904284 0.9898158
000010 29 79 85 3f dc e0 80 3f 00 2c 7c 3f 9f b8 7d 3f
       1.04276 1.0068622 0.9850464 0.99109834
000020 9d bc 81 3f fc e1 7e 3f 8c 10 7e 3f 28 47 82 3f
       1.0135685 0.99563575 0.99244 1.0177965
000030 46 ca 7e 3f 46 e7 7e 3f f8 6c 7e 3f 91 28 81 3f
       0.99527395 0.99571645 0.99385023 1.0090505
000040 e8 62 7f 3f 08 33 7f 3f b1 10 82 3f ca d2 7e 3f
       0.99760294 0.9968724 1.0161344 0.9954039
000050 52 1a 80 3f 44 3a 7f 3f ac fe 82 3f 68 87 7f 3f
       1.0008032 0.9969828 1.023397 0.9981599
000060 1a 90 7e 3f e5 5c 7b 3f 21 0d 81 3f 18 a9 81 3f
       0.9943863 0.9818862 1.0082132 1.0129728
000070 2e 63 81 3f cb 3c 80 3f f2 15 80 3f 16 ed 7d 3f
       1.0108392 1.0018553 1.0006697 0.9918989
000080 e5 87 80 3f 02 01 81 3f f5 57 81 3f a2 62 7f 3f
       1.0041472 1.0078433 1.0104967 0.99759877
000090 a6 6d 80 3f cd f8 7b 3f 86 22 83 3f 84 db 7e 3f
       1.0033462 0.98426515 1.0244911 0.99553704
0000a0 d6 1d 80 3f c0 d8 7f 3f 8c 09 81 3f 04 97 80 3f
       1.0009105 0.9994011 1.0081038 1.0046086
0000b0 75 78 80 3f 1c 63 80 3f 78 88 7e 3f 88 c4 7e 3f
       1.003676 1.0030246 0.99426985 0.9951863
0000c0 2b 21 7f 3f 2b 27 7f 3f 96 3e 83 3f 71 9a 82 3f
       0.99659985 0.9966914 1.0253475 1.0203382
0000d0 2d 6b 85 3f 4b f2 7f 3f cb a3 80 3f 0c 28 81 3f
       1.0423332 0.99979085 1.0049986 1.0090346
0000e0 5d 21 81 3f 74 4d 80 3f 21 cd 80 3f 19 50 81 3f
       1.0088307 1.0023637 1.00626 1.0102569
0000f0 4f 2a 7d 3f 56 82 7e 3f ba fd 7f 3f 38 10 81 3f
       0.9889268 0.99417627 0.9999653 1.0083075
000100 78 00 7c 3f 14 17 80 3f fa dc 7f 3f 7b a2 80 3f
       0.98438215 1.0007043 0.9994656 1.0049585
000110 d3 9d 7e 3f ba 76 80 3f 41 65 82 3f 0a 1a 7c 3f
       0.9945957 1.0036232 1.018715 0.9847723
000120 3b 70 7f 3f ae d9 81 3f 82 eb 7e 3f 13 03 81 3f
       0.99780625 1.0144556 0.99578106 1.0079063
000130 b2 d9 80 3f e1 a8 80 3f 3f 60 7d 3f b3 76 80 3f
       1.0066435 1.0051538 0.98974985 1.0036224
000140 7d ad 7f 3f 79 ef 80 3f fe 76 81 3f d0 37 80 3f
       0.998741 1.0073081 1.0114439 1.0017033
000150 81 7a 80 3f 25 0f 80 3f b8 5a 7f 3f 83 32 81 3f
       1.0037385 1.0004622 0.997478 1.009354
000160 bc 74 81 3f 83 22 7b 3f 5d 56 80 3f 8f 57 7e 3f
       1.011375 0.98099536 1.0026356 0.99352354
000170 3c 05 7d 3f 0c b9 7d 3f 04 d9 7e 3f fc 8d 7b 3f
       0.9883611 0.99110484 0.9954989 0.98263526
000180 16 ad 7e 3f 6c 46 79 3f 76 89 80 3f 3f c0 7d 3f
       0.9948286 0.9737308 1.004195 0.9912147
000190 d2 fb 7f 3f 83 46 80 3f 8a 64 7e 3f 04 43 81 3f
       0.9999362 1.0021518 0.9937216 1.0098577
0001a0 91 40 81 3f 5c be 82 3f 1f 20 7d 3f 44 ca 80 3f
       1.0097829 1.0214343 0.9887714 1.0061727
0001b0 73 b1 7e 3f a4 11 80 3f d7 72 7e 3f d6 89 7d 3f
       0.99489516 1.0005383 0.9939398 0.99038446
0001c0 d7 c6 82 3f 04 4f 7c 3f c2 12 82 3f 0b c7 80 3f
       1.0216931 0.9855807 1.0161974 1.0060743
0001d0 a3 7b 7e 3f cb ed 80 3f 4e 04 7e 3f 4d 9e 7f 3f
       0.99407405 1.0072569 0.9922532 0.9985092
0001e0 4d 36 82 3f a8 2b 80 3f b9 2f 7e 3f 72 71 7e 3f
       1.0172821 1.0013323 0.9929157 0.99391854
0001f0 f5 25 80 3f 52 03 83 3f 62 93 81 3f 1d a6 7e 3f
       1.0011584 1.0235388 1.0123103 0.9947222

shared.1.bias f4 [128]
000000 cf 16 d2 bb c9 e5 9c b9 5a 5a 3e 3c c1 93 b7 bc
       -0.0064114104 -0.00029925842 0.011618221 -0.022409322
000010 ea fd 10 3c d1 f7 ca ba b5 d9 85 bc 04 2d 11 bc
       0.0088496 -0.0015485232 -0.016339162 -0.00886083
000020 53 28 9f 3c b8 d0 07 3b d3 1d cf bb 27 41 05 3c
       0.019428408 0.0020723771 -0.006320694 0.008133209
000030 1d ac eb ba c0 a0 92 bb ad b4 48 3b 15 38 09 3c
       -0.0017980371 -0.0044747293 0.003062527 0.008375187
000040 a8 10 c8 bb c5 f2 6e bb bc c1 b1 3c c0 26 64 3c
       -0.006105501 -0.003646062 0.021698825 0.013925254
000050 be 4e 86 3c a8 09 0b bc 45 51 7e 3c 3b f2 cd 3b
       0.01639497 -0.008486189 0.015522306 0.0062849796
000060 61 04 37 3c 1e fb f7 3a 57 6c b6 3c 06 79 93 bb
       0.011170478 0.0018919443 0.022268457 -0.004500511
000070 7c 4b cc 3b 1b ee 50 ba d5 64 21 3c 37 83 21 39
       0.0062345844 -0.0007970051 0.0098507 0.00015403038
000080 67 56 09 ba 91 f0 62 3c ce 68 7c ba ee fa e1 3b
       -0.000523901 0.013851301 -0.0009628654 0.006896368
000090 ce 4c 0d 3c eb 12 8f bb a3 7b 31 3c 55 1b 6f bc
       0.008624269 -0.004366269 0.0108327 -0.014593919
0000a0 f8 fc d0 bb 49 0e 14 bb 51 f3 14 ba 82 ff e1 3b
       -0.0063778125 -0.0022591522 -0.0005682009 0.006896914
0000b0 65 0e 85 3c e7 46 e2 3a 54 81 22 bc 85 0e 94 3c
       0.016242215 0.0017263562 -0.00991853 0.01807333
0000c0 5a 72 63 bb 7b 42 62 bb d5 a6 12 3c f5 b3 f7 ba
       -0.003470561 -0.0034524489 0.008950909 -0.0018898236
0000d0 65 24 47 3d e4 df 4d bc ff 9b 45 3c 12 c9 63 bb
       0.048618693 -0.012565587 0.012061118 -0.0034757298
0000e0 6c 48 57 3c 9d 1d 21 3c e2 3f 0f 3c ac 45 f5 3a
       0.013139825 0.0098337205 0.008743258 0.001871278
0000f0 6f ce 55 3b 75 58 31 3c 2e d3 70 3a 75 ed 12 3c
       0.0032624265 0.010824312 0.00091867417 0.008967747
000100 29 67 a0 3b c0 98 c6 ba 65 d0 8c 3b ce 26 af 3b
       0.00489511 -0.0015151724 0.0042973035 0.005345202
000110 59 7d 05 3b 38 5f 45 b9 c4 d9 49 3b f8 1a 7a bc
       0.0020368902 -0.00018822856 0.0030799964 -0.015265219
000120 e0 c9 5a bb ae 68 86 3b 72 1a 2d b9 3e f1 0d bb
       -0.0033384487 0.0041018343 -0.00016508417 -0.0021658684
000130 19 8e f8 bb 53 1c ac 3c 6b ab 5e bc e7 99 97 ba
       -0.0075852987 0.0210096 -0.013590674 -0.0011566252
000140 ea 59 5c bc 46 32 9a 3c f1 c4 22 3c 2b ed 2b 3b
       -0.013449172 0.0188228 0.00993465 0.0026233892
000150 8b 5b 77 bc 08 9a 23 3c 23 99 82 3b 76 11 05 3b
       -0.015097509 0.009985454 0.0039855405 0.0020304597
000160 15 e1 91 3c d4 ae 3c bc e4 b9 65 3c f8 5c df bb
       0.017807523 -0.011516292 0.014021371 -0.0068165027
000170 69 f2 05 3b c7 ed 3c bb d6 58 9a bc 52 ef 62 b9
       0.0020438677 -0.002882825 -0.018841188 -0.00021642193
000180 5d 27 6d 3d e6 ec 9f ba e9 1b 7b 3b 05 43 a5 3c
       0.057898868 -0.0012201339 0.0038316196 0.020173559
000190 a1 6f dc bb 41 70 c4 3b 05 d3 d1 3b d0 e9 1f bc
       -0.0067271744 0.005994827 0.0064033293 -0.009760335
0001a0 4e c1 05 bc 7b 0d 9c 3c 77 c0 17 bc cf a5 e8 3a
       -0.008163763 0.019049397 -0.009262196 0.001774961
0001b0 f6 b6 bd ba 8c c5 3b ba 60 41 1b bc a9 48 90 bb
       -0.0014474082 -0.00071629207 -0.009476036 -0.004403193
0001c0 0a 60 f3 3b b0 2b e3 ba d3 a5 42 3c 5e 12 13 bc
       0.00742722 -0.0017331745 0.011880356 -0.008976547
0001d0 b8 d7 c9 3b 0b 9d fc 3b 43 03 86 3a 9e c8 e0 3b
       0.006159749 0.0077091507 0.0010224361 0.006859853
0001e0 81 f7 cf 3c f6 d0 62 bc 09 b4 ab bb 11 00 a8 3b
       0.025386574 -0.0138437655 -0.0052399677 0.005126961
0001f0 c8 9b 2e 3c 84 16 26 3c e0 d4 39 3c 91 74 93 3b
       0.010657258 0.010137204 0.011342257 0.00449998

value_stream.0.weight f4 [64, 128]
000000 13 70 a3 bd 76 f4 26 be 4c 04 a0 bc 6c e6 95 3e
       -0.07980361 -0.16304192 -0.019533299 0.2927736
000010 d1 b1 17 bc d2 b2 b8 bd e0 83 14 be f7 30 64 3e
       -0.009258703 -0.09018482 -0.14503431 0.22284304
000020 63 5e 2c 3c ed 91 e1 bd 3b b0 85 bd 04 18 b4 bd
       0.01052055 -0.11014161 -0.06527754 -0.08793643
000030 0b e6 45 3b 51 0e 88 bc 26 8a 86 3d e0 d4 3c 3e
       0.003019693 -0.01660839 0.065693185 0.1844058
000040 1f df 82 3c 07 df c3 bc e9 8e 9d 3b 96 53 5b bc
       0.015975533 -0.023910059 0.004808296 -0.013386628
000050 d8 08 ef 3d fa c6 39 be ee 34 e1 be be 3f d6 3d
       0.11671609 -0.1814231 -0.43985695 0.104613766
000060 7c 6a ca 3c ca be e2 bd 00 f7 75 3d 4b ec c9 3d
       0.024708979 -0.110715464 0.06005001 0.098595224
000070 95 7c 8e be cd ee 7d bd 74 f0 c7 bd 68 49 83 3d
       -0.27829424 -0.061995316 -0.0976266 0.064104855
000080 b1 bb c7 3c e7 ac bf 3d 0c 18 4c 3c e4 ea a8 bd
       0.02438149 0.093591504 0.012456905 -0.08247927
000090 e9 d2 35 bd 4e af d8 bc e8 c8 1d bc 05 6c 3e 3e
       -0.044390593 -0.02645078 -0.009630419 0.18595894
0000a0 fb ce 0f 3e d1 37 f7 bd 95 ab e3 bd 63 78 f9 3d
       0.140438 -0.12071193 -0.11116711 0.12181165
0000b0 95 85 03 bc 4f df 9e 3d 20 8a 24 3d a9 7a 0b bd
       -0.008027454 0.077574365 0.04017079 -0.034052525
0000c0 0a 1a ba 3c 19 20 30 bd 13 fd de bd de aa 44 be
       0.022717495 -0.04299936 -0.10888114 -0.19205806
0000d0 74 31 16 3d 51 f6 84 bd d9 d5 4a 3d 36 07 0e 3d
       0.036668256 -0.064922936 0.049520347 0.034674846
0000e0 4b 13 57 be 45 8f 9e 3d f9 de ca bd 53 4e 09 be
       -0.21003453 0.0774217 -0.0990581 -0.13408785
0000f0 3a e5 28 3e 8a ae 3f bd 84 65 93 bd a6 a6 9a 3d
       0.16493693 -0.046797313 -0.07197097 0.07551317
000100 71 33 88 3c 25 92 02 be 31 2b b9 3c fd 55 38 3e
       0.016626092 -0.12751062 0.022603603 0.18001552
000110 22 6b 5b 3e c8 9f 67 be cb b3 9b bd f1 17 a9 bc
       0.21427587 -0.22619545 -0.07602652 -0.020641299
000120 34 f3 eb bd 88 2e c1 3d ea 28 cf 3d 0b e8 2b 3e
       -0.11520997 0.09432703 0.101152256 0.16787736
000130 26 53 28 be 90 f4 73 be fc 35 07 bc b2 b4 03 bc
       -0.16437969 -0.23823762 -0.008252617 -0.008038687
000140 bc f0 03 bd 5e 1f b6 bd 2f 9a db 3d f9 b2 20 bd
       -0.032212004 -0.088927016 0.107227676 -0.03923318
000150 7f 23 90 be 17 ce 53 be 63 1c e8 3d 87 7c 8f 3d
       -0.2815208 -0.20684086 0.11333539 0.070061736
000160 e9 fa a1 3d 73 63 1b 3c da b4 2b 3e 6f dc 01 be
       0.079091854 0.00948416 0.16768208 -0.12681745
000170 d4 6f c8 bd b9 a9 c1 3c d5 0b 85 3e b4 25 12 3e
       -0.097869545 0.0236405 0.2598559 0.14272195
000180 5e 1c f1 bd a1 fa a6 bd 70 35 30 bc 1d 3c 15 3e
       -0.11772989 -0.081532724 -0.010754928 0.14573713
000190 06 ad d7 bd 59 d5 f9 bc 87 6a 8d be d7 cc ad 3d
       -0.105310485 -0.03049724 -0.27620336 0.08486336
0001a0 8c 0f 8d 3e 52 b5 10 3e e9 87 ba 3d d3 4c dc 3c
       0.27550924 0.14131668 0.09107954 0.026892101
0001b0 6c c6 5c 3e ba c2 1e be f4 ae 27 bd 8e 57 ac bc
       0.21560067 -0.1550397 -0.040938333 -0.021037843
0001c0 d1 fd 5c be f8 b0 f2 3d c3 a5 5d be 83 5d 99 bd
       -0.21581198 0.1185016 -0.21645264 -0.07488539
0001d0 1d 38 60 3d 43 75 df b9 75 08 d7 bd 1b a0 26 3e
       0.054741014 -0.0004262124 -0.1049966 0.16272013
0001e0 f3 75 9b 3d 6a 9f 24 be 33 cd 17 bc 17 13 f7 3c
       0.075908564 -0.16076437 -0.009265232 0.03016047
0001f0 8c 5b b9 be 77 58 d0 bc 67 73 1e 3d 35 99 46 bd
       -0.36202657 -0.025432808 0.038684275 -0.048485953
000200 61 4c 81 3d 15 a5 f2 bd 00 af 7d 3d 31 4e cd 3d
       0.06313396 -0.11847893 0.06193447 0.100246795
000210 9e 40 91 3b ef fa 40 bb 31 ac f6 3d f4 d6 8b bc
       0.004432752 -0.0029446443 0.12044562 -0.017070271
000220 2f 34 81 3d c4 75 de 3c 24 69 b8 3e cb f7 0e 3e
       0.06308781 0.027155764 0.36017716 0.13961713
000230 71 fe 10 bc da 0a 95 3c d1 ee 67 be b8 95 b2 3c
       -0.008849726 0.018193651 -0.22649695 0.021799907
000240 03 c0 82 bd d3 dc 0c be 70 da 2f 3c fb 45 99 bd
       -0.063842796 -0.13756113 0.010733232 -0.07484051
000250 c2 ca 4b 3e 28 bc ad 3d 3d cc 9c bb 7e a9 f9 bd
       0.19901565 0.084831536 -0.0047850893 -0.12190531
000260 43 1e a1 bd 1c c9 8a 3d 9d 34 55 3d 6d a9 1f be
       -0.078671 0.0677664 0.05205213 -0.15591975
000270 ba 87 40 bd 2f 5d a2 3d e3 67 37 be 0e c1 4b 3e
       -0.04700444 0.079279296 -0.17910723 0.19897863
000280 01 6d 2d be 0a bb 11 bd b7 a1 a1 3d 30 43 35 3d
       -0.16936113 -0.035578765 0.07892173 0.044253528
000290 e1 d5 d1 bd e1 c9 e2 3d ea e7 e9 bc 89 dd 48 bc
       -0.10245872 0.110736616 -0.028552968 -0.012259849
0002a0 94 a8 0e 3e 87 a2 b6 3c 1b 74 8a be 9f e9 1c be
       0.13931495 0.022294296 -0.27041706 -0.15323494
0002b0 5b 93 94 3d c0 09 96 3d 93 d8 31 be e6 c1 12 3e
       0.07254668 0.073260784 -0.17367773 0.14331779
0002c0 4e 91 27 3d a3 66 98 3d cb 13 86 3e 2b 1b 12 be
       0.040910058 0.074414514 0.26186976 -0.14268176
0002d0 5c 99 11 3e 88 6f 6c be ec b7 0b 3a 5a 40 2c 3e
       0.14218658 -0.23089421 0.00053298357 0.16821423
0002e0 16 a0 08 3e cb 99 a5 bd 56 ed ce bd c9 83 36 3d
       0.13342318 -0.08085974 -0.10103862 0.044559274
0002f0 fc b5 e6 3d f1 85 2c 3d b0 a7 c9 3d c2 55 43 3e
       0.112651795 0.042119924 0.09846437 0.19075683
000300 84 25 a1 3c ab 67 53 3d 38 51 13 3e 3b 41 da bd
       0.01967121 0.051612537 0.14386451 -0.10656973
000310 20 48 27 3d b9 7a d6 bc 94 a8 65 be 00 10 4b 3e
       0.040840268 -0.026181566 -0.22427589 0.19830322
000320 f0 45 17 bd 0f 03 37 3b 7e 16 5d bd 12 db 30 3d
       -0.036931932 0.0027925407 -0.05397653 0.04317767
000330 98 82 20 3d 32 d7 8d 3d e4 7c 84 3e 20 b0 dd bd
       0.039187044 0.06925811 0.25876534 -0.10824609
000340 0f ac 5b 3e 59 a4 8e bd 80 dd 51 3d 9d aa c6 bc
       0.21452354 -0.069649406 0.05123663 -0.024251277
000350 a4 dc 6b 3d 82 b3 8e bd 84 93 02 3e 64 06 01 3d
       0.057583466 -0.06967832 0.12751585 0.031500235
000360 51 c5 79 3d a6 f2 e9 3d 30 48 ba 3e d0 5a 21 3d
       0.06097919 0.11423235 0.363832 0.039393246
000370 90 71 0f bc 18 2e 1d 3e d3 09 10 3e 9f 15 19 3c
       -0.008755103 0.15349615 0.14066248 0.009343534
000380 f2 dd 38 bd f5 b0 d7 3d fd 5a f2 3d f1 42 7a be
       -0.04513354 0.10531799 0.11833761 -0.24439599
000390 44 53 15 bd 93 50 21 3e 10 a8 1f 3e 60 6d 0f 3d
       -0.03645636 0.15753393 0.15591455 0.035016418
0003a0 b5 18 d6 bd a9 d4 4c 3e e6 0e 5d 3e 02 6a 2b 3d
       -0.10453931 0.20002998 0.21587715 0.041849144
0003b0 2a b3 00 bd a7 c8 9f bc 0c b1 95 bd 6c 6b 4e be
       -0.031420864 -0.019504858 -0.0730916 -0.20158166
0003c0 c7 17 07 3e 5d 34 8c bd 6b b3 89 bd 96 a3 fe 3d
       0.13192664 -0.06845925 -0.067236744 0.12433545
0003d0 36 ac 0a be da 3d 62 3c 4e bc 3c 3e 1d ef 8e bd
       -0.13542256 0.013808692 0.18431208 -0.06979201
0003e0 07 7d 41 3d 44 2e 8b bb 08 a3 94 bb d7 39 0f 3e
       0.047238376 -0.0042474587 -0.0045360364 0.13986908
0003f0 73 b8 03 3c 09 2b 84 3d d2 b7 a5 be 08 7d 37 be
       0.008039582 0.06453521 -0.32366806 -0.1791879

value_stream.0.bias f4 [64]
000000 c3 7e ce 3b 93 c1 94 3a 76 7b df 3b 47 46 0c 3b
       0.0063017323 0.0011349194 0.0068201376 0.0021404193
000010 78 e2 9a bc de 0e 1b 3b 7a d7 00 bc 79 76 0e bd
       -0.018906817 0.0023659985 -0.007863874 -0.034780953
000020 b5 79 45 bd c9 54 8a 3c a4 e1 3c bb af 20 27 3a
       -0.048211772 0.016886132 -0.0028821016 0.00063754147
000030 d4 6c 9c 3b 04 39 d1 3b 71 3e d9 3c 1f 0e 3e bc
       0.0047737155 0.0063849706 0.026519032 -0.011600046
000040 e3 cb 85 3c d8 16 6d 3b ae ec 0a bc 3e f5 57 3d
       0.016332572 0.0036176946 -0.00847928 0.052724116
000050 6f 0d e6 3c 2c 58 63 3c 1d d6 fb ba de e4 2c bc
       0.028082578 0.013876002 -0.0019213591 -0.010552613
000060 dd e2 87 bc 74 f5 58 bc 85 86 26 bd 2f cc c0 ba
       -0.016587669 -0.013242114 -0.04065563 -0.0014709289
000070 bb 19 40 bc 0f 79 ee bb ec b8 d6 39 f6 7f 1d 3c
       -0.011724885 -0.007277615 0.00040955038 0.009613028
000080 5c c4 8e 3a 63 5d 06 3d 7a f3 37 3c f8 9c 22 3b
       0.001089226 0.032803904 0.011227483 0.00248128
000090 a7 0c 55 3c 5a c3 3d ba 5f 43 f9 ba 80 2b 3f 3c
       0.013003505 -0.00072388875 -0.001901727 0.011668086
0000a0 e8 95 78 3b d7 cb 14 3c 14 95 3b 3c 30 b3 40 3b
       0.0037931148 0.009081802 0.011449117 0.002940368
0000b0 e9 0d ad bb 8b 10 24 bb b3 5c 59 3b 60 7a e1 3b
       -0.0052811992 -0.0025034274 0.0033166825 0.0068810433
0000c0 97 4a b9 ba af e3 3c 3b d2 92 e3 bb cd 9d c9 bc
       -0.0014136609 0.0028822233 -0.0069449926 -0.024611378
0000d0 21 e7 a6 bb 7e a9 51 bc a9 71 83 3b 3f 09 47 3b
       -0.0050934707 -0.012796758 0.004011352 0.0030370501
0000e0 63 39 af bb 18 4e 94 39 f5 5a 47 bb 63 67 02 ba
       -0.005347417 0.00028286944 -0.0030419205 -0.0004974512
0000f0 2b 0f 11 3c 60 98 66 3c 39 e3 dd b9 97 71 28 3b
       0.008853714 0.014074415 -0.000423217 0.002570247

value_stream.1.weight f4 [64]
000000 69 9a 86 3f 35 c9 7f 3f 68 41 7b 3f 99 45 7e 3f
       1.0515872 0.9991639 0.98146677 0.9932495
000010 e6 da 80 3f 72 56 7b 3f a9 89 83 3f f8 ab 80 3f
       1.0066803 0.9817878 1.0276386 1.0052481
000020 f4 3b 7f 3f a6 f6 7f 3f d7 84 7e 3f 0f 1f 7f 3f
       0.99700856 0.9998573 0.9942145 0.99656767
000030 36 4b 7d 3f 44 b7 7f 3f 55 e8 80 3f 7b 50 7f 3f
       0.9894289 0.99889016 1.0070902 0.9973218
000040 c0 68 82 3f e4 52 84 3f fe 35 7f 3f 2b b5 69 3f
       1.0188217 1.0337796 0.9969176 0.91292065
000050 3c cf 7f 3f 6a 07 80 3f c3 68 7a 3f 71 cc 82 3f
       0.9992559 1.0002263 0.97816104 1.021864
000060 84 a3 7f 3f 94 33 7e 3f 0d 0e 7e 3f 13 fa 7f 3f
       0.9985888 0.9929745 0.9924019 0.9999096
000070 35 81 80 3f a8 15 81 3f 53 72 81 3f 32 76 80 3f
       1.0039431 1.0084734 1.0113014 1.003607
000080 51 52 7d 3f 68 3d 7f 3f c7 8a 81 3f d2 b5 7c 3f
       0.9895373 0.99703074 1.0120476 0.98714936
000090 6d a1 7f 3f 5d 7c 80 3f f9 45 7d 3f 10 3b 80 3f
       0.9985569 1.0037953 0.98934895 1.0018024
0000a0 bb 1c 80 3f 1e 07 7f 3f 77 ee 7f 3f 53 fd 80 3f
       1.0008768 0.99620235 0.99973243 1.0077308
0000b0 bd ce 7c 3f 8f 28 79 3f a9 92 7f 3f 78 fe 7e 3f
       0.9875296 0.9732751 0.9983316 0.9960704
0000c0 cf ca 7e 3f 3a c2 93 3f 42 6b 7f 3f d6 f2 79 3f
       0.9952821 1.1543648 0.9977304 0.97636163
0000d0 ab 7f 7f 3f 51 8d 7c 3f 67 60 7c 3f 3c 70 81 3f
       0.9980418 0.9865313 0.985846 1.0112376
0000e0 36 fa 7c 3f 8c 13 80 3f 90 fc 77 3f f7 41 80 3f
       0.9881929 1.0005965 0.96869755 1.0020131
0000f0 25 b2 80 3f fb 7b 7e 3f 83 ff 7e 3f 25 81 7d 3f
       1.0054365 0.9940793 0.9960863 0.99025184

value_stream.1.bias f4 [64]
000000 bc 28 16 3c ee a7 ac bb c2 12 81 3b 1f 02 dc ba
       0.009164985 -0.005269042 0.0039390037 -0.00167853
000010 8d c3 8b bc 32 12 0b 3a ba 4a b4 bb b6 6a 97 bb
       -0.01706102 0.00053051405 -0.005502072 -0.004620875
000020 b0 a3 6b bb 36 0c df 3b ed 50 d4 bb d5 d9 35 3a
       -0.003595572 0.0068068756 -0.0064793737 0.00069370616
000030 39 df f6 3a 9b 6e 3b 39 5d 19 2a bb 1f 82 c1 bb
       0.0018834836 0.00017874913 -0.002595506 -0.005905404
000040 b2 7f 84 bb 43 dd c6 ba ae 34 7c bb 71 8b 7e bd
       -0.004043543 -0.0015172142 -0.0038483548 -0.0621447
000050 aa 35 05 3b d1 16 29 bb 42 4a 64 bb 27 71 2f bc
       0.0020326176 -0.0025800953 -0.00348343 -0.01070813
000060 65 4a a8 bc f4 8d 55 bc 06 7e 0e bc 04 74 7c bb
       -0.020543287 -0.013034333 -0.0086970385 -0.00385213
000070 cd 02 32 bb c5 83 de 38 fa 05 9e 3b a8 49 ec ba
       -0.0027162314 0.00010610329 0.00482249 -0.0018027322
000080 f6 a9 13 3a ee 06 8d bc 5b ee 46 bb 89 d3 69 3a
       0.0005632931 -0.017215218 -0.0030354473 0.0008919766
000090 76 be 1c bb 9c 83 08 bb f8 25 8f bb 25 c2 9a 3b
       -0.0023917235 -0.0020830398 -0.00436854 0.004722851
0000a0 84 70 44 3b 5b a3 aa 3b 09 d8 6b 3b 60 4e 83 39
       0.002997429 0.005207462 0.0035986921 0.0002504466
0000b0 ce 95 b6 bb 08 7e 93 bb 6b 0b f7 3b 58 90 90 3b
       -0.0055720573 -0.004501108 0.007539203 0.0044117384
0000c0 48 3c fc b7 68 d5 47 3b bb 35 ad bb 2f 4d ea bb
       -3.0068812e-05 0.003049219 -0.005285946 -0.0071503143
0000d0 32 b8 09 bc 32 d3 5a bc 2e 4b 36 3b f3 88 fc bb
       -0.008405732 -0.013356017 0.0027815807 -0.0077067553
0000e0 12 a2 00 bc 9d 96 76 bb f3 48 3e bb fc 64 c3 bb
       -0.007851141 -0.0037626394 -0.002903518 -0.005962966
0000f0 f9 fd 18 3b 4a 4e 17 bc b6 3d 12 bb e7 41 c3 3a
       0.002334474 -0.009234974 -0.0022314615 0.001489696

value_stream.3.weight f4 [1, 64]
000000 55 fe 61 be 06 23 c2 bd 0c 2a 60 3e e8 e8 46 3e
       -0.22069676 -0.094793364 0.2189104 0.19424784
000010 9d 46 fa bd a8 81 38 be c5 cd 72 3e 15 67 e3 bc
       -0.122205 -0.1801821 0.23711307 -0.027759114
000020 a0 99 94 3c 25 65 01 bd 36 a0 5c be 70 85 92 3e
       0.01813966 -0.0315906 -0.2154549 0.2861743
000030 01 9d 80 3e ad 6e a8 bd 9f 10 85 bc b8 1a ea bc
       0.25119784 -0.08224235 -0.016243277 -0.028577194
000040 69 91 04 3d 88 1e 86 bd 58 55 23 be f1 11 34 b8
       0.032365236 -0.06548792 -0.15950525 -4.2932053e-05
000050 c5 35 8e 3c 54 2d 62 bc f8 16 ca 3e a2 e8 1c 3e
       0.017359624 -0.013804752 0.3947065 0.15323117
000060 f0 42 89 be a9 5a 66 be f8 f5 82 3e 32 c5 b5 bd
       -0.26808882 -0.22495522 0.25578284 -0.08875503
000070 67 39 51 3e 1f 20 e6 3d 6f a4 12 3e 0e 9d 38 3d
       0.20432054 0.11236595 0.14320539 0.045071654
000080 34 7e a2 be cf 23 df bb 71 bd 3f bd 96 cc 9b 3e
       -0.3173691 -0.0068096886 -0.046811525 0.30429524
000090 4c cb 79 3d a8 f9 2d 3e ac 65 14 be c1 79 ce 3d
       0.060984895 0.16989768 -0.1449191 0.100818165
0000a0 22 40 5e 3e 83 01 22 3e 40 72 b6 3d 66 8f a7 3d
       0.21704152 0.15820889 0.0890851 0.08181648
0000b0 86 7c 0e be b7 90 75 be 41 00 a8 3d 31 c5 4a 3e
       -0.1391469 -0.23980986 0.082031734 0.19801785
0000c0 e6 23 1b be 34 27 86 3e 8c c5 1f be 67 ad b4 bd
       -0.15150413 0.26201785 -0.15602702 -0.08822136
0000d0 bd 04 e6 bd dd 15 7d be 7b 3e a1 bd fc ff 90 3d
       -0.112313725 -0.24715371 -0.07873245 0.07080075
0000e0 aa 52 32 be b2 a9 e7 bd 26 86 c0 be f2 b2 09 be
       -0.17414346 -0.11311664 -0.37602347 -0.13447168
0000f0 07 44 3b bd 59 ef 08 bd 35 be 76 3e 11 5d 98 be
       -0.045719173 -0.033431385 0.24095996 -0.29758504

advantage_stream.0.weight f4 [64, 128]
000000 23 9e f0 bd 02 58 b7 bb fc 30 7d bd e2 a0 8a 3d
       -0.11748912 -0.005595208 -0.061814293 0.06768967
000010 fb 5a 3c 3e 70 38 89 ba 87 5c 7f 3d 8b 0a d8 3d
       0.18394081 -0.001046909 0.0623441 0.10548886
000020 75 9d 08 be af ca c9 bd 6b b0 3c 3d 00 45 49 be
       -0.13341315 -0.09853112 0.046066683 -0.19655228
000030 f6 63 95 bd 75 f1 17 3c 65 a0 4e 3e da 34 c4 3d
       -0.07294457 0.009273876 0.20178373 0.09580393
000040 07 8e 2d be d2 74 f0 3d 28 5c e5 bd db 14 76 3d
       -0.1694871 0.11741032 -0.11199218 0.060078483
000050 49 5f 95 3d 1c 54 23 3e 68 f3 64 3e f7 18 16 3d
       0.07293565 0.15950054 0.22358477 0.036644902
000060 09 fd a0 be 12 ce 10 3e 79 40 8a bd cb f0 a5 bb
       -0.3144305 0.1414111 -0.067505784 -0.005064105
000070 3d e1 42 3c 18 13 c8 3c 25 d9 52 3d 19 be 9c bc
       0.011894521 0.024423167 0.051476616 -0.019133614
000080 c3 f3 d3 bd 5a 84 b6 bd 38 92 15 be a6 97 20 3e
       -0.10349228 -0.08911963 -0.1460656 0.1568285
000090 1c b2 8a bd 88 10 fc 3d 45 2d db 3d 78 79 d0 3d
       -0.06772253 0.123078406 0.10701994 0.10179418
0000a0 23 ac 08 3c 01 c0 41 be 87 b7 12 be 4b 6e fe 3c
       0.008341822 -0.189209 -0.14327823 0.031058451
0000b0 47 f2 5c bd 22 2a a1 bd 6f 2e 87 bc f4 ff 44 bc
       -0.05394199 -0.07869364 -0.016501633 -0.012023915
0000c0 9b 09 a6 3e 63 1a 32 be 5c 63 b9 3d b6 f8 80 bd
       0.32429203 -0.17392878 0.090521544 -0.06297438
0000d0 fc 2c 60 bb ca dc 0b 3e 08 65 1c 3e 34 cc 13 3e
       -0.00342065 0.13658443 0.15272915 0.14433366
0000e0 f5 9f 37 3d 91 ad a5 bd cc 92 79 3e 8c 6e 98 3d
       0.04483028 -0.08089746 0.24372405 0.0744296
0000f0 1a a1 cb 3d 9f 63 52 bd 46 85 13 bc 07 ea 9f bd
       0.09942837 -0.051364537 -0.009003943 -0.07808309
000100 51 19 fd 3d 7a 23 20 3e 51 b9 87 be 88 cb a3 3d
       0.12358344 0.15638533 -0.26508573 0.07997805
000110 27 5d 81 bc ae 9a c4 bb c1 5e 89 3b 93 6a 44 3d
       -0.015791489 -0.0059998846 0.0041922037 0.0479532
000120 76 73 3e be 0e e3 94 3c bf 7b a7 3c f7 1c 39 3c
       -0.18598732 0.018174674 0.020444749 0.01129841
000130 6d 70 11 be 57 41 29 3e 66 ce d7 bd 9c b6 8c ba
       -0.14203043 0.16528831 -0.10537414 -0.0010735574
000140 1d 3d 95 bc fe a7 e0 bc 95 81 6b 3e b3 29 f7 3d
       -0.018217618 -0.027423855 0.2299865 0.120685
000150 14 f7 9a 3d 29 85 18 3e 26 11 b1 bd 6a 1b 22 3e
       0.07566658 0.14894547 -0.08645849 0.1583077
000160 d8 2f 0f 3e e1 b5 ee bd 91 56 c2 3c 9f 2a 91 bd
       0.13983095 -0.116557844 0.023722919 -0.070882075
000170 72 05 0f be 7c 5d 17 3e ab 0b dc 3d b6 d4 04 be
       -0.13966921 0.14781755 0.10744413 -0.12971768
000180 c2 52 83 3d a7 56 2a be df 22 8a bd 63 72 29 bd
       0.06412269 -0.16634618 -0.067449324 -0.041368853
000190 32 31 89 bd 8c d9 0b 3e ad ec b0 3d c1 1f 94 3b
       -0.066988364 0.13657206 0.08638892 0.004520387
0001a0 36 a2 78 3e ac c4 dd bc 2d 7b 9c bd 7f 70 f4 bd
       0.24280629 -0.02707132 -0.076406814 -0.119355194
0001b0 04 ff 9b 3e a7 fb 7e bc 99 34 06 bd c4 0d b3 bc
       0.30468 -0.015562928 -0.032765005 -0.02185715
0001c0 5e 94 ee bc 65 46 8b bd f7 fc 93 3e 54 29 3a 3d
       -0.029123481 -0.06800536 0.28903934 0.04544957
0001d0 b5 43 a1 bd f8 0a b2 bc ee 39 84 3e 36 af 45 be
       -0.07874242 -0.021733746 0.25825447 -0.19305119
0001e0 00 54 a6 3d b7 21 1a bc 2b 9e 4c 3e c0 89 53 be
       0.081214905 -0.009407452 0.19982211 -0.20658016
0001f0 71 4a 1f be 76 d4 6b 3e 1b 34 6b be 69 4d d5 bd
       -0.15555741 0.23030266 -0.22969095 -0.104151554
000200 35 61 d3 bb 28 46 38 3e 43 4c 27 be 9c ea 28 3e
       -0.006450797 0.17995512 -0.16337685 0.16495746
000210 a0 ec 90 be 0d 9c c1 3e c3 2b 59 3c 70 64 bf 3d
       -0.2830553 0.3781437 0.0132550625 0.09345329
000220 f1 3a 6b 3d e6 6c 97 bd 89 7e 7f 3e 2d 03 2a bc
       0.057429258 -0.073938176 0.24950613 -0.010376734
000230 33 fa 30 be a3 06 07 3e 04 e0 ef 3d ac 70 c3 bd
       -0.17282943 0.13186125 0.117126495 -0.09542975
000240 54 01 9e bd bb be f4 3d 69 b9 83 bd a8 2c cc bd
       -0.07715097 0.119504414 -0.064318486 -0.09969455
000250 aa 82 38 be 7e ba 81 3c d5 75 0b be 66 43 cd 3d
       -0.18018594 0.015835997 -0.13619168 0.10022621
000260 38 5e 0e 3e 12 ca 9e 3d ee cd 72 3d d0 f9 f7 3d
       0.13903129 0.077533856 0.05927842 0.12108195
000270 3f ef c6 3d cc 0b ff 3c 78 c5 8f 3d 8c 71 33 bd
       0.09713601 0.031133555 0.07020086 -0.04380946
000280 1a 2e 6c bd 0f a7 2e 3e 33 ee fb bb 5c 49 8e bd
       -0.057661153 0.17055915 -0.0076883077 -0.06947586
000290 9d d0 8e bc cc 4f 2e 3e 91 87 16 3d c6 3b 30 be
       -0.017433459 0.17022628 0.03675038 -0.17210302
0002a0 56 dd 09 3c a1 f5 5a 3d 8d a7 b8 3a 9b e0 8f 3e
       0.008414587 0.053456906 0.001408802 0.28101048
0002b0 d7 f6 95 3d 49 95 8a bd c0 db 15 be d5 2e 1b be
       0.073224716 -0.06766755 -0.14634609 -0.15154584
0002c0 1b ee 35 3d 8c 12 c9 3d 19 e9 7f bd 25 08 b5 bd
       0.04441653 0.09817991 -0.06247816 -0.08839444
0002d0 ee 8c 2f 3e c3 a2 0d bd 52 05 a1 3d 52 45 68 3e
       0.17143604 -0.03457905 0.07862343 0.22682694
0002e0 78 58 16 3e fc 35 42 bd ce fa 00 bd 81 a6 0d 3e
       0.14682186 -0.047414765 -0.031489186 0.13833047
0002f0 8d e7 3a 3e 53 39 36 be 26 46 57 3e ac aa 82 3e
       0.18252392 -0.17795305 0.21022853 0.25520837
000300 a0 e4 f7 3d 1f d6 e0 bd f9 5d 11 3e 84 d8 36 bc
       0.12104154 -0.1097834 0.14196004 -0.01116002
000310 5c 8d 60 bd 41 9b 0c 3d 2b ed 55 be 7d e6 d2 bd
       -0.05482231 0.03432775 -0.20891254 -0.102978684
000320 49 9a 3f 3d a5 51 84 3e ca 00 0c 3e cb 6e a0 bd
       0.046777997 0.2584354 0.13672176 -0.07833632
000330 53 46 ee bd 0b ab 4a 3c cc 21 66 3d 0a 25 05 be
       -0.11634507 0.012369881 0.056184575 -0.1300241
000340 b8 c1 66 3e 02 c1 8a bd 28 a4 a0 bd 9a 9a e1 3d
       0.22534835 -0.067750946 -0.0784381 0.11015816
000350 00 f1 f2 bd 9b 87 20 3e 20 04 13 bc cd 48 6d 3e
       -0.11862373 0.1567673 -0.008973151 0.23172303
000360 18 cf c4 bc b0 c3 1a 3d 50 b3 f1 3d 06 01 36 3e
       -0.024024531 0.03778428 0.11801779 0.17773828
000370 1d 5d 03 3e 60 a8 17 3d 16 b2 8c be af 37 d7 bd
       0.12828489 0.03702581 -0.2747962 -0.10508668
000380 a7 a7 77 bd 14 39 d5 3c 8b c6 96 bb a8 ce c3 bd
       -0.06046262 0.026028194 -0.004601305 -0.09560901
000390 20 58 bd bd 1a 82 63 3e 5a 00 ec 3c 8d 4d 2c be
       -0.09245324 0.22217599 0.028808761 -0.16826458
0003a0 2a 25 ec bc 23 09 82 bd 30 e7 5a 3e dc 9d 81 3c
       -0.028826315 -0.06349399 0.21377254 0.015822344
0003b0 2c d7 61 3d 44 e0 b1 3d 5a 33 76 3d 20 88 53 be
       0.055136845 0.086853534 0.060107566 -0.20657396
0003c0 f3 1c 46 bc ca 93 5e 3c 6f af 01 be cd 16 13 bd
       -0.012091863 0.01358504 -0.12664579 -0.035910416
0003d0 1f af 00 bd e2 98 30 bd 0d 7b 07 3e 92 c4 8f 3c
       -0.03141701 -0.04311455 0.13230534 0.017549787
0003e0 40 5c d8 3d 06 b3 0d be ac 7c 7e 3d 3c f2 8e 3d
       0.1056447 -0.13837823 0.062130615 0.06979796
0003f0 c9 9b 84 3d db c5 0c 3e dc 62 36 bd 9f f7 36 3e
       0.06475026 0.13747351 -0.044527873 0.17867897

advantage_stream.0.bias f4 [64]
000000 06 f0 0c 3c 61 67 7f 3c 14 46 75 3b 74 cd 95 3b
       0.008602148 0.015588612 0.0037425803 0.004571611
000010 4f eb 91 3b 84 a2 23 bc 35 21 5d ba 88 2c 05 bc
       0.0044531 -0.009987477 -0.0008435429 -0.008128293
000020 df 5a 1e 3c fc 04 41 bb 24 b5 b8 3b 7b e4 77 3b
       0.00966522 -0.0029452434 0.005636828 0.0037825394
000030 62 a2 7a 3c d2 57 23 3c ba 89 8d bc 8e e0 12 3c
       0.015297504 0.009969668 -0.017277587 0.008964671
000040 3e e6 35 3c 5d db 95 bb 05 95 c1 bb 5d 00 cf 3c
       0.011102257 -0.0045732693 -0.005907657 0.025268728
000050 44 b5 86 3a 59 7f a4 3c 11 51 ef bb bd d6 00 3a
       0.001027741 0.020080255 -0.007303365 0.0004914811
000060 e6 49 7e 3b 33 4d 83 bb df 54 80 bb ac b2 25 bb
       0.003880137 -0.0040070056 -0.0039163674 -0.0025283499
000070 2c 3f 2f bc 23 0f e2 3c fc 1d 65 bb 61 2a 3c 3c
       -0.010696214 0.027595108 -0.00349605 0.011484713
000080 60 67 1c 3c 77 64 21 bc 7f 72 c8 3b 4a 17 bd 3a
       0.009546131 -0.009850613 0.0061171646 0.0014426496
000090 ea 2b 01 bb ae af ce 3c 78 e6 25 bc e2 87 87 3b
       -0.0019710013 0.025230255 -0.010125749 0.0041360715
0000a0 64 f4 b4 3a 60 5a b6 3b a3 fe 96 3c 9e ee 05 bc
       0.0013805744 0.0055649728 0.018431967 -0.008174567
0000b0 c9 57 5c bb d5 9c 90 bb b9 73 b2 3b 4b b7 8f 3b
       -0.003362166 -0.004413227 0.005445924 0.004385864
0000c0 95 a5 46 bc 6d 63 9a bb fc b4 21 3c 8b fc 40 3c
       -0.012124439 -0.0047115595 0.00986981 0.011778961
0000d0 db 8a 1a bb 6a c0 fa bb c0 a3 ea 3c 59 98 e9 bc
       -0.00235813 -0.007652332 0.028642535 -0.028515028
0000e0 76 f8 73 3b 9f 4a 0e 3c 66 30 b9 bb d3 e7 46 3b
       0.0037226952 0.008684783 -0.0056515215 0.003035058
0000f0 0f 12 98 3b 83 6f 24 3b dd 29 fa bb 71 a4 f5 ba
       0.0046408246 0.002509088 -0.007634385 -0.0018741024

advantage_stream.1.weight f4 [64]
000000 d2 00 80 3f 99 9a 80 3f 1c eb 7e 3f 89 15 81 3f
       1.000025 1.004718 0.995775 1.0084697
000010 b0 f1 80 3f 21 ee 7d 3f 36 32 80 3f 8a d9 7f 3f
       1.0073757 0.9919148 1.0015323 0.99941313
000020 93 4e 7f 3f 76 53 7e 3f b9 c0 7f 3f 26 6a 81 3f
       0.9972927 0.993461 0.99903446 1.0110519
000030 46 bd 7e 3f 07 d0 7f 3f 33 09 83 3f d9 de 7f 3f
       0.9950756 0.999268 1.0237182 0.99949414
000040 b0 63 80 3f 3f 9c 7d 3f 7c 3a 7f 3f 75 5e 82 3f
       1.0030422 0.9906654 0.99698615 1.0185076
000050 15 eb 83 3f 95 41 80 3f 9d 24 81 3f 5c e2 80 3f
       1.0306116 1.0020014 1.0089298 1.0069079
000060 e1 de 83 3f 5f 82 7c 3f 18 33 7f 3f 44 98 81 3f
       1.0302392 0.9863643 0.9968734 1.0124593
000070 3b 90 83 3f 71 53 7c 3f 72 58 7c 3f a4 4d 7e 3f
       1.0278391 0.9856482 0.98572457 0.9933722
000080 4b 95 81 3f 7f 71 7d 3f 82 40 82 3f 1d ca 7d 3f
       1.0123686 0.99001306 1.0175936 0.99136525
000090 3c 65 7d 3f 56 b9 79 3f 01 8d 7f 3f 8d 7b 7f 3f
       0.98982596 0.97548425 0.9982453 0.997979
0000a0 59 df 80 3f c7 d2 82 3f 1c e8 85 3f 10 6d 7f 3f
       1.006816 1.0220574 1.0461459 0.9977579
0000b0 31 68 80 3f f7 18 7f 3f f9 12 82 3f fa 15 7e 3f
       1.0031797 0.9964747 1.016204 0.99252284
0000c0 df f6 7e 3f ad 79 7b 3f 7f d0 81 3f 67 e5 82 3f
       0.99595445 0.9823254 1.0141753 1.0226258
0000d0 cf 14 7c 3f c4 64 81 3f 0e 7e 80 3f b9 2c 83 3f
       0.9846925 1.0108876 1.0038469 1.0248023
0000e0 72 10 7f 3f b4 6a 80 3f 07 01 80 3f 9c b7 7e 3f
       0.9963447 1.0032563 1.0000314 0.99498916
0000f0 ab e8 81 3f 21 96 7e 3f 0e 10 7d 3f b7 ea 7f 3f
       1.014913 0.9944783 0.9885262 0.9996752

advantage_stream.1.bias f4 [64]
000000 36 e7 68 bb 0d 0e 1e 3b 53 12 21 3b e0 25 4a 3b
       -0.0035538203 0.0024117262 0.0024577572 0.003084533
000010 2a f7 92 3a 94 8c 28 bc ca a0 f7 bb fe 97 1a bc
       0.0011212577 -0.010287423 -0.0075570093 -0.009435652
000020 f3 8e 5e 3b 85 ff 84 bb 86 ed 36 3b b3 1d db 3a
       0.0033959716 -0.0040587806 0.002791257 0.0016717225
000030 07 d8 07 bc d7 1a 7e bb 34 08 c0 bb c9 ce d7 3b
       -0.008291251 -0.0038773322 -0.005860353 0.00658593
000040 57 2f 80 3b 50 ef eb bb 64 36 fe bb 88 11 be 3c
       0.0039118933 -0.007200159 -0.0077579487 0.023201719
000050 1d 2f c8 3b 91 13 91 bc 3c 02 2b bc 13 4e 54 b9
       0.006109132 -0.017709525 -0.010437544 -0.0002024698
000060 0a 57 62 bb c1 0b 1f bc 67 aa a4 bb 7b 9c 38 bb
       -0.0034536743 -0.009707392 -0.0050251964 -0.0028169442
000070 18 ed f2 bb 33 92 4a bc 34 ca 98 bb 65 07 3d ba
       -0.0074135177 -0.012363958 -0.0046627764 -0.00072108797
000080 80 20 af bc 9b 53 21 bc dd 37 e4 bb eb 23 0f 3a
       -0.021377802 -0.009846593 -0.0069646672 0.0005460369
000090 df 3b 8d bb a0 c8 09 bc 2c 0e 6e bc ae 74 e2 38
       -0.0043101157 -0.008409649 -0.014529746 0.00010798253
0000a0 37 d1 00 bb db fa 44 3b 34 6b ac bb f7 97 c8 bc
       -0.0019655952 0.0030056748 -0.005261803 -0.024486525
0000b0 ad 54 50 bb cb b9 16 bc ff 57 25 bb 06 5b 00 3b
       -0.0031788752 -0.00919957 -0.0025229452 0.0019585504
0000c0 58 e2 2d bc 32 b0 bd bb b9 52 5d 3b 49 6b 27 3c
       -0.010613047 -0.0057888264 0.003377123 0.01021845
0000d0 15 cf 93 bb d9 6a ea bb f0 11 9c 3a 54 09 b1 bc
       -0.00451077 -0.0071538505 0.0011907201 -0.021610893
0000e0 77 7f 28 3b 93 15 b5 3b 74 99 20 bc 14 ae 14 37
       0.002571074 0.0055262535 -0.009802211 8.862018e-06
0000f0 fa 88 99 b9 8c 2d 59 bb 45 85 0e bc fc 4d ff bb
       -0.0002928449 -0.003313872 -0.008698766 -0.007791279

advantage_stream.3.weight f4 [2, 64]
000000 89 53 48 be 34 e9 11 3e 29 39 45 3e c0 ef 9a 3e
       -0.19563116 0.14249116 0.19260086 0.3026104
000010 cd 8a a4 3e 63 b4 79 bd 03 81 0b be 34 fc d0 3d
       0.32137147 -0.060963046 -0.13623433 0.10204354
000020 64 f8 19 bd 12 2c a0 be b2 ea 98 3e a4 7e cb 3d
       -0.0375904 -0.31283623 0.29866558 0.09936264
000030 b9 d6 c4 3d e8 6b e3 3d 4d 6f a6 3d 6f 94 02 3e
       0.096112676 0.11104566 0.08126698 0.12751935
000040 e8 23 ac bc 5e 88 ce bc a1 05 e5 bd d1 7f 68 3d
       -0.021013215 -0.02521151 -0.11182714 0.05676252
000050 46 f0 23 bd 30 69 02 3c 7c f3 0e 3b c7 8a e4 3d
       -0.040024064 0.007959649 0.0021812608 0.11159282
000060 7f 7d 74 be 60 80 fe bd 18 0c 01 be b4 e3 f3 3e
       -0.23875998 -0.12426829 -0.1260227 0.4763466
000070 c0 5c ea 3c d6 ca 39 3e 2e 5d 46 be ef 11 be 3c
       0.02860868 0.18143782 -0.19371483 0.02320191
000080 35 7c 9f bd ab 38 07 be 57 d2 16 3d 05 b9 9c 3e
       -0.077873625 -0.13205211 0.03682169 0.3060991
000090 54 93 a3 bd 87 57 a5 3d f4 c7 f2 3d b4 fe 7e be
       -0.07987085 0.08073335 0.11854544 -0.24901849
0000a0 40 5a d8 bd 5f 2b 6a be ef d5 44 bd 05 8d c9 bc
       -0.10564089 -0.22868107 -0.048055585 -0.024603376
0000b0 c0 2d 91 3e 54 11 ad 3d b5 89 9a 3d 62 0f c1 3d
       0.28355217 0.08450571 0.07545797 0.09426762
0000c0 93 ce 76 be a3 be 04 bf 68 3b 7f 3d 80 79 8a bc
       -0.2410224 -0.5185339 0.062312514 -0.016903639
0000d0 02 67 69 3e 7e c9 bd 3d f9 df 0b bd d4 d3 4d be
       0.227932 0.09266947 -0.034149144 -0.20100337
0000e0 40 a3 46 3e 1f 53 68 3e 87 8b 19 be 3a 32 04 be
       0.19398212 0.22687958 -0.14994632 -0.12909785
0000f0 56 f1 c2 bb 5b 21 be bd 1d da da bc be db 92 be
       -0.0059491796 -0.09283706 -0.026715333 -0.28683275
000100 30 2f dc bd 61 d2 c0 3d f8 90 3a be 5a 89 50 3d
       -0.10751188 0.094151266 -0.18219364 0.05091224
000110 82 7d 06 3d e1 8d a8 3d 4d 29 b3 3d 3f 30 bd 3e
       0.032834537 0.08230186 0.08748112 0.3695087
000120 3f 19 09 be 1d 9f 2a 3e a1 17 5a 3d 7c a5 6a be
       -0.13388537 0.1666226 0.05324519 -0.2291469
000130 1f e4 0a 3e 78 a2 41 3e 0b 6e 01 3e e9 45 09 be
       0.13563584 0.18909633 0.12639634 -0.13405575
000140 2d b0 07 be 50 50 ea 3d f7 f0 74 3e f4 e2 97 3c
       -0.132508 0.114411 0.23920046 0.018540837
000150 30 de eb 3d 36 bd c1 bc e0 7c f3 3d 7a 73 a0 3e
       0.11516988 -0.023649793 0.118890524 0.31338102
000160 c6 78 30 bc b5 72 29 3c 7a 28 5c 3e d3 54 82 3d
       -0.010770982 0.01034229 0.21499816 0.06363835
000170 a6 4e 8f bd f8 48 42 3e cb e6 c8 3e 35 73 7e bb
       -0.06997423 0.18973148 0.3923858 -0.0038825993
000180 2d ca 1d bd cc 9f 5a 3e f2 76 d8 bd fb 23 9b bd
       -0.038522888 0.2135002 -0.10569562 -0.07575222
000190 c1 5d 47 3e 29 78 9d 3d c7 b0 5c 3e 63 fb e2 bd
       0.19469358 0.07688934 0.2155181 -0.110831045
0001a0 9b 4a 91 be 54 89 81 3c 4b 44 f2 bd b4 e9 fd 3b
       -0.28377232 0.015812553 -0.11829432 0.007748807
0001b0 0a d2 6f be 82 38 99 bd eb 2a 36 3e b5 7e 8f be
       -0.23419967 -0.07481481 0.1778981 -0.28026357
0001c0 2d 6b 6b bc 11 7e f7 3d 24 e1 8a 3b 47 c4 d0 3e
       -0.014368814 0.12084592 0.0042382646 0.40774748
0001d0 25 ea f2 3e f8 28 0b be 19 8e 8f bd 2e 15 55 bd
       0.47444263 -0.13589847 -0.07009525 -0.05202215
0001e0 00 f8 60 be a8 e7 1d bc 3c 85 7f 3d 10 a6 ca be
       -0.21969604 -0.009637751 0.06238292 -0.3957982
0001f0 9a b4 98 bd d8 e2 99 3d 67 9d e6 3d 77 a6 2f be
       -0.07456322 0.0751397 0.11260491 -0.17153345

advantage_stream.3.bias f4 [2]
000000 7e 40 ae 3b 7e 40 ae bb
       0.0053177467 -0.0053177467
