backend/models/rl_agents/chain_8453/dqn_checkpoint_ep1100.pkl (torch, 402791 bytes, 60 tensors)

shared.0.weight f4 [128, 48]
00000000: 7972 763d 4529 8a3d 821b 52be 1df3 0f3d
00000010: 45de 17bd d006 f43c ae70 d9ba 0dd1 823d
00000020: 6253 673e 05c4 d3bd ceb1 fc3d d760 ac3d
00000030: e518 09bd 8436 0e3c d02e 0fbe 8920 103d
00000040: 8b1b b23d bc96 89bd b70f 4bbe 82a4 663d
00000050: b0b2 1bbe 6ee5 f8bd 4aae eabc 582f 933b
00000060: 1439 1bbc 666c 6dbd 0a55 853e 1f28 153e
00000070: 9c3e a63d 50b4 2abe c624 1ebe 66ec 893d
00000080: 0600 443d e30f 743d 47f6 9ebe 91f7 4cbe
00000090: 81a2 7abe 367b c53d 3640 12be fc49 5abd
000000a0: 4246 f43b df06 0fbe 3317 c73d 3a00 613e
000000b0: 411b ba3c e43d 32bd 8729 083e b97e dcbd
000000c0: fbc4 2abe 49fe c03c 6f56 e83d e67f 3b3d
000000d0: d6e7 5bbd 1931 31be 9ea0 aa3e 0dd1 4ebe
000000e0: 1ec0 333d 75eb d13d bca0 89be 1159 de3d
000000f0: 71d1 953e b87a 70bd 8318 233e 3192 9d3d
00000100: 10bf 533a c39a 0abd 33d7 bdbc 7dec bb3d
00000110: d7f6 80bd bf01 8b3d f554 18be 04e0 333e
00000120: 96a6 bdbb 20ec 49bc 2f21 02be f402 2cbd
00000130: 4a93 05be db39 24bd 116d 29be 7ca7 4cbe
00000140: 969f 51be c131 64be b465 abba 16b6 54bd
00000150: e29b 7ebd a686 053d f8f8 e6bc 7331 693c
00000160: 1f15 253e db6c a2bb 8f0d 43bc af5e 1b3e
00000170: 8c83 233e 8c89 753c 6971 f43d 9f89 7bbe
00000180: 9107 94bd ef9f 183e 6d79 9f3d b1eb e53d
00000190: a259 ae3c 3002 553e 5358 bfbd ff83 413e
000001a0: 450e 8cbd d5d6 2abe 33a2 15be c53d 353e
000001b0: a780 4b3e ca81 35be e13c e33d 5676 fb3d
000001c0: 69e6 3cbc 1053 1fbe 7432 ea3d 6efc b73d
000001d0: 4f41 163e 6bf5 22bd 0939 06be ef8d e23d
000001e0: b3ec 42bd b1bf 4d3e 094f 003e 4e07 0dbd
000001f0: ff0e 59bc 2421 ebbd 4557 3e3d d9e8 89bd
00000200: b884 07bd ce75 303e 308a 593c 11c8 adbe
00000210: be3d 13be 10c5 16be 2dce d4bd 3388 a63c
00000220: 778a b3bc 5d0d 9abd 3091 d73d 38a4 b43b
00000230: 8973 c83b 68dd 50be 7389 f93c 2e58 013e
00000240: 7fba 143e e538 e1bc 458a 47bd fc74 95bd
00000250: 5b5b a5bc 76f1 b5bd 1da0 eabc 7beb 643d
00000260: b3cb 2e3e 1a25 aabd f84c 813d 009f 2fbb
00000270: 51d4 1e3e 91c4 22bd 886e 8a3d 69e4 203e
00000280: 1df7 533e 0a6a b9bd ce04 e43d 19c9 e63d
00000290: 7f04 d9bd 38f9 b3bd 63d7 ad3d 47e5 05bc
000002a0: 3c2c b1bc b100 eabd 5789 233e e5ed a53d
000002b0: 5cd4 ad3d d2e3 773d 9bef 843e 3fee aebd
000002c0: 55ec 523e acef 0dbe bd21 b53c f3a1 e23d
000002d0: d0be 20be 9cad 56be 559d 613d 035b c9bc
000002e0: f84e 113d 4977 2e3e 5584 52be f738 de3c
000002f0: 668b 84bd d020 803d 1b39 b83d 5c99 16bd
00000300: 64b3 8f3d 9a22 0cbb 442a 53bd 469e 793e
00000310: c2fc c0bd 009d e43d ece9 5cbd 8ed3 4fbd
00000320: 3c12 9e3d daf2 f3bb 405e ab3d 7906 26bd
00000330: 2d57 9ebc 7b48 ffbd 778f 6cbd 9a2c 09bd
00000340: edff f73c 105d cb3b efa4 eb3d 7beb 87be
00000350: 663b 86be d61b 6cbb 8956 a6bd 91cd 553e
00000360: 1254 41bd 0287 d03d c929 0fbc abb5 aa3d
00000370: 2402 cdbc ef73 5a3e fe8f 2a3e f742 293e
00000380: c3a2 cf3d 5441 dbbd 9209 a53e 749b c8bd
00000390: d4f7 fbbd 3ed9 a0bc da1d 65be a4b7 113e
000003a0: e6c0 783e 84de 743e 8591 04bd 52cd 43be
000003b0: 52ba 143e 028e 8dbb 1b2d 00bc 7746 483e
000003c0: 3588 933e 4d90 763e f4dd c4bd 65e7 153e
000003d0: 5841 c53d ed92 66be 6ac4 75bd 18eb fb3d
000003e0: 5d86 adbd 9484 6abd 4539 913d febf b13d
000003f0: 6201 bb3d e68d a73b 713b 253e a56e bd3d
0.060167763 0.06746153 -0.20518306 0.03514396 -0.037077207 0.029788405 -0.0016589367 0.063875295
0.22590402 -0.10340122 0.12338601 0.08416908 -0.033471007 0.00867999 -0.13982701 0.035187278
0.0869666 -0.067182034 -0.19830213 0.05630923 -0.15204883 -0.12153135 -0.02864756 0.004491728
-0.009474058 -0.057964705 0.26041442 0.14566086 0.081174105 -0.16670346 -0.15443715 0.067345425
0.047851585 0.059585463 -0.3104727 -0.20016314 -0.24476053 0.09642641 -0.14282307 -0.053293213
0.0074546644 -0.13967465 0.09721222 0.21972743 0.022718074 -0.043516055 0.13297091 -0.10766358
-0.16676705 0.023558753 0.11344611 0.04577627 -0.053687893 -0.17303886 0.33325666 -0.20196934
0.04388439 0.10249988 -0.26880443 0.10856832 0.29261354 -0.058710784 0.15927319 0.076938994
0.0008077482 -0.033839 -0.023173904 0.09175966 -0.06297081 0.067874424 -0.14876159 0.17565924
-0.005787681 -0.012324363 -0.12707971 -0.041995004 -0.13044468 -0.040094238 -0.16545512 -0.19985765
-0.20471033 -0.22284605 -0.0013076575 -0.051931463 -0.06216038 0.032599114 -0.02819489 0.014232981
0.16121338 -0.0049568242 -0.011905088 0.15172838 0.1596815 0.014986407 0.11935694 -0.24564217
-0.07228006 0.1490476 0.07786832 0.11226595 0.021282975 0.20801616 -0.093430184 0.18898009
-0.06838659 -0.16683514 -0.14612655 0.17699344 0.19873296 -0.17725292 0.11095596 0.1227843
-0.011529543 -0.1555903 0.114354044 0.08983694 0.14673351 -0.03978483 -0.13107695 0.11062228
-0.047589015 0.20092656 0.1253015 -0.034430794 -0.013248204 -0.114809304 0.046469945 -0.06733865
-0.033085555 0.17232439 0.013277575 -0.339417 -0.14379022 -0.14723611 -0.103908874 0.020328617
-0.021916611 -0.0752208 0.10525739 0.0055127405 0.0061172885 -0.2039696 0.030461049 0.12631294
0.14524268 -0.02749295 -0.04871585 -0.072977036 -0.020185163 -0.08883946 -0.028640801 0.055888634
0.17069893 -0.08307858 0.06313509 -0.0026797652 0.1551068 -0.03973824 0.067593634 0.15712132
0.20699735 -0.090534285 0.11133729 0.11268825 -0.10596561 -0.08787769 0.084883474 -0.00817234
-0.021627538 -0.11425913 0.1597036 0.081020154 0.0848777 0.06052 0.25964054 -0.085415356
0.20597966 -0.13860959 0.022110814 0.110660456 -0.15697789 -0.20964664 0.055081684 -0.02457953
0.0354757 0.17037691 -0.20558293 0.027126772 -0.06471901 0.062562585 0.08995267 -0.03676735
0.07016638 -0.0021382929 -0.05155398 0.24376783 -0.0942321 0.11162758 -0.053934023 -0.050738864
0.07718322 -0.0074447216 0.08367586 -0.040533517 -0.019328678 -0.124649964 -0.057754006 -0.0334898
0.030273402 0.0062061623 0.11506068 -0.26546845 -0.26217192 -0.0036027334 -0.08121974 0.20879199
-0.047199316 0.10182001 -0.00873799 0.08335432 -0.025025435 0.21333288 0.16656491 0.16529451
0.10138466 -0.1070582 0.32233864 -0.09795275 -0.12303129 -0.01963484 -0.22374669 0.1423021
0.24292335 0.23913008 -0.03236534 -0.19121292 0.145242 -0.004319907 -0.007823254 0.1955813
0.28814855 0.24078484 -0.09612647 0.14639051 0.09631604 -0.22516985 -0.06000177 0.123007
-0.084728934 -0.057255343 0.070910014 0.08679198 0.09131123 0.005113351 0.16135956 0.092496194

shared.0.bias f4 [128]
00000000: 6654 34bc 8a40 e4bc e1ca bd3a dcbd d1bb
00000010: 3456 753c b646 10bc 9fcb eabc 2497 193c
00000020: 5ff3 cf38 62b6 9bbc 00a1 59bb f455 39bc
00000030: 9f82 81bc 7a90 45bc c445 b03c 6c59 b6bb
00000040: 777d 1bbd 05fd 333c ae96 833c a041 303c
00000050: ba36 82bb 18f6 863a 6636 a9bc 05c0 0bbb
00000060: ddca 863c 5bcd ec3b 712a 403c 2d99 0b3c
00000070: 3cb6 033c 6e9f 2aba b2e2 ce39 97a0 ffbb
00000080: 069f 213c 5016 3e3c 0974 0cbc 961c 8a3c
00000090: 8899 873c d39f 103b 356f 293c ced8 f8bb
000000a0: 60f4 88bc 73c1 333c d4cc 343c b2c0 a3bc
000000b0: 30f0 a03c e34e 913b 6fce 00bc 384b 96bb
000000c0: 9744 493c a3a1 5dba 2e61 18bc 9477 653c
000000d0: 0b20 203c 639e b63b aa51 8ebc ae86 09bb
000000e0: 5c42 fabb c875 b73c 96cd 3dbc 39eb 013c
000000f0: f3c5 213c f91f 313c cfe2 87bc 7763 553c
00000100: c597 c23b a2b2 da3b ce60 be3b 5d9f 793c
00000110: 2cb5 863c 639b 333c 170e 8d3a 2b27 dc3b
00000120: bc73 253c 8a73 9d3c dedc c0bc 7694 0c3c
00000130: 431c 71bb 1909 97bb 5cc6 083c 7bc8 19bc
00000140: 18df a9bb f700 6abc ee25 67bc 2443 edba
00000150: 2c89 4bbc 80a0 f6bb c007 1e3d a531 5f3a
00000160: 6389 223c 151f fe3c 8a8f cdbc a224 5d3b
00000170: 2c29 cbbc 5715 d53c 779d 4e3c cb71 ef3a
00000180: 9ba1 d7ba f193 edbc 3b36 2ab9 3c3c 1cbc
00000190: 185d 083d 43f2 203c a4ff 4fbc 4949 203c
000001a0: 4444 09bc 75dd 8ebc 60ea 4cbd 6823 fe3b
000001b0: ae70 e8bb 4c68 61bc 6ef9 753c 06b7 7e3b
000001c0: 497f 2a3b e0b3 a2bc e1d9 9f3b f948 023b
000001d0: 6a55 8c3c fe6b 7c3b c6a4 0d3d 7b0c 833c
000001e0: 513c a4bc def9 adbb 0a64 b8bb 8af2 ae3c
000001f0: 755b 2a3c 2eba 9d3b 4199 233c 2e93 333c
-0.01100645 -0.027862806 0.0014480018 -0.006400807 0.014974166 -0.008805921 -0.028661547 0.009374414
9.9158606e-05 -0.019007865 -0.0033207536 -0.011311997 -0.015809355 -0.012058372 0.021517642 -0.005564859
-0.03796145 0.0109856175 0.01606306 0.010757834 -0.003973809 0.001029673 -0.020655822 -0.002132417
0.016454155 0.0072266287 0.011728869 0.008520407 0.0080390535 -0.0006508742 0.00039460283 -0.007801126
0.009864574 0.011601999 -0.008572587 0.016859334 0.016552702 0.002206792 0.010341455 -0.0075942045
-0.01671809 0.010971415 0.011035163 -0.019989345 0.01964578 0.004434453 -0.007861718 -0.0045866035
0.0122844195 -0.00084545667 -0.009300513 0.01400556 0.009773265 0.0055730804 -0.017372925 -0.0020984816
-0.007637305 0.02239503 -0.01158466 0.007929617 0.009873855 0.0108108455 -0.016587643 0.013024203
0.0059385025 0.0066741267 0.00580988 0.015235749 0.016443811 0.01096234 0.0010761645 0.0067185364
0.010098394 0.019220132 -0.023542818 0.008580318 -0.0036790527 -0.004609239 0.008348074 -0.009386177
-0.0051840656 -0.014282457 -0.014108164 -0.0018101675 -0.012422841 -0.0075264573 0.03858161 0.00085141725
0.009920451 0.03102068 -0.025092859 0.0033743759 -0.024799906 0.026011152 0.012610785 0.0018268166
-0.001645136 -0.029001208 -0.00016232666 -0.009535845 0.033291906 0.009823385 -0.012695227 0.009783098
-0.008378092 -0.017439583 -0.050028205 0.0077556856 -0.0070935106 -0.0137577765 0.015013082 0.0038866415
0.002601581 -0.019861162 0.004878268 0.001987992 0.017130572 0.0038516517 0.03458097 0.015997162
-0.020048292 -0.0053093275 -0.00562716 0.021355886 0.010397782 0.004813454 0.009985269 0.010960383

shared.1.weight f4 [128]
00000000: c980 863f 2483 7a3f 5209 7d3f 8382 803f
00000010: 241e 853f 711c 7e3f 5821 7a3f ad0f 833f
00000020: ae8a 803f eeb9 7d3f 2979 783f 4d09 7b3f
00000030: db99 783f 729b 803f f634 833f 83e5 803f
00000040: 81cb 7e3f 1b91 7f3f f2a4 803f 31ea 7e3f
00000050: de94 843f 6d60 813f 5fb9 7e3f ee28 823f
00000060: ea21 813f fc0a 7b3f 6e7a 803f 7e66 873f
00000070: cdaa 7a3f 0bea 7f3f a28e 823f 4cef 7e3f
00000080: 55ce 803f 27c2 803f 8448 7f3f 26dc 7d3f
00000090: 1f7a 813f 3808 7e3f 375b 803f bb28 7d3f
000000a0: eab5 803f 22d3 813f 526d 813f 249f 7f3f
000000b0: 95d7 803f 202f 843f 4188 7e3f bedc 7d3f
000000c0: 0ca5 813f 9e7a 7d3f f647 803f ad1b 833f
000000d0: e47c 823f 03de 7f3f f365 7a3f 9eff 7e3f
000000e0: 910d 863f 335b 823f 46e1 7d3f 4add 7d3f
000000f0: cdb7 813f 5d36 823f 5947 803f 961d 803f
00000100: e749 843f 541a 803f 090a 7f3f d782 803f
00000110: b53b 803f 2dc0 813f 2a80 813f 6619 7f3f
00000120: 7946 803f 5cf4 803f a0f9 803f 070f 843f
00000130: 4341 813f 054a 7b3f 0f5d 7f3f 1598 803f
00000140: 9e8c 813f 7653 813f 7ae7 7c3f 1955 773f
00000150: 06fb 7d3f 07f7 7d3f eebe 803f ac54 833f
00000160: f087 803f 4af3 813f 269c 803f e159 7e3f
00000170: a5de 7a3f ba04 823f 549e 763f 3d36 7f3f
00000180: ca22 7f3f 3b6a 7b3f b48d 803f a0bb 813f
00000190: 7efa 7f3f 9624 813f 0c3c 853f 7a95 773f
000001a0: b05c 813f 6974 7d3f 8edd 7e3f c056 7e3f
000001b0: 9304 823f 810a 883f c179 803f 6abe 783f
000001c0: 313e 843f a39a 843f c691 7e3f dae6 7c3f
000001d0: 5702 813f c68f 833f 9bef 7f3f d84a 7e3f
000001e0: d8bf 803f 0b72 7f3f 97fb 7f3f 09c7 7c3f
000001f0: a96c 803f 78dd 7e3f 9844 833f 1fa1 7b3f
1.0508052 0.97856355 0.98842347 1.0039829 1.0399823 0.9926215 0.9770713 1.0239159
1.0042322 0.9911183 0.97059876 0.98061067 0.97109765 1.0047438 1.0250537 1.0070041
0.9952927 0.9983079 1.0050337 0.995761 1.0357931 1.0107552 0.99501604 1.0168741
1.0088475 0.98063636 1.0037363 1.0578153 0.9791687 0.99966496 1.0199778 0.9958389
1.0062968 1.005925 0.99720025 0.99164045 1.0115393 0.9923129 1.0027837 0.98890275
1.0055516 1.0142558 1.0111487 0.99852204 1.006579 1.0326881 0.99426657 0.9916495
1.0128493 0.99015224 1.0021961 1.0242821 1.0194364 0.9994814 0.9781181 0.9960879
1.047289 1.0184082 0.99171865 0.99165785 1.0134217 1.017284 1.0021774 1.0009029
1.0335053 1.0008035 0.9962469 1.0039929 1.0018221 1.0136772 1.0117238 0.9964813
1.0021507 1.0074573 1.007618 1.0317086 1.0098041 0.9815982 0.9975137 1.0046412
1.0121038 1.0103595 0.98790705 0.96614224 0.99211156 0.9920506 1.0058267 1.0260215
1.0041485 1.0152371 1.0047653 0.99355894 0.9799598 1.0157692 0.9633534 0.99692136
0.9966246 0.9820897 1.0043244 1.0135384 0.99991596 1.008929 1.040895 0.9671246
1.0106411 0.9900575 0.99556816 0.9935112 1.0157646 1.0628206 1.0037156 0.9716555
1.0331479 1.0359691 0.9944118 0.9878975 1.0078839 1.0278251 0.99974984 0.9933295
1.0058546 0.9978339 0.9999327 0.98741204 1.003316 0.99556684 1.0255308 0.98292726

shared.1.bias f4 [128]
00000000: fa42 6cbc dbbf 29bd 89d7 4abc 4510 97bc
00000010: 6be2 24bc 662f 91bc 7113 1abd 1ccf b9b9
00000020: 0f1d 4fbb 852a dfbc 64b2 15bd fd9a 9fbc
00000030: bf1e 1bbd 3415 18bc 24cc 833c b7dd 09bc
00000040: da87 1bbd 8310 ddbb 80ea 51ba e903 42bb
00000050: 4913 5fbc b7cd 2c3c 5c99 e7bc 5bfc d9bb
00000060: c2b6 893c f0e3 88bc b5bb d73a 1246 fd3b
00000070: 8591 003b 7e8c e7bb f5a5 e3bb b009 a6bc
00000080: 71d2 d3bc 67e7 873a 37c6 c8bc 40fa 13b7
00000090: 5260 bf3b a6a0 d53b fd79 d43b 5292 c4bb
000000a0: d0f9 a5bc 9b14 a53c fce3 24bc 2e70 f5bc
000000b0: 2074 ae3c d001 6d3b ad4a 4dbc 86aa 67bc
000000c0: bcf7 063a 8253 913b de47 a0bc ef0e 283b
000000d0: 9abd 08bb 7f49 4bbc a049 f9bc 36d7 23b9
000000e0: 765f 4dbc 5a95 873b 6b4e ddbc 5cd9 34bc
000000f0: ec1d 20bc 26d4 52bc cca6 9abc 8026 103b
00000100: 3863 fa3a d964 f13b 4e72 8dbb aeeb 983c
00000110: 6b2d a9bb 52b3 78bb 51bb ddb8 455e a7ba
00000120: 8d1c 1fbc ad79 3f3c 282f f4bc 2e0f 28bb
00000130: 2a10 86ba 2f13 9cbc f799 09bc 161f 9bbc
00000140: 7f56 5fbc cb8f ecbc b010 88bc db19 88bc
00000150: 6f5d ecbc f2d6 04bc 7b4d 9c3c 8f33 28bc
00000160: 71c1 473c f731 c83c 8ae7 0fbd 8b99 77bc
00000170: 1162 01bd 90d1 533c 31fc ebbb da52 82bc
00000180: 38f3 3d3a a305 fabc f184 1a3b 018e c4bc
00000190: d9bf 113d 9877 a6bc f558 923c b4f5 893b
000001a0: e7dc c9bc 50c8 ebbb ceae f6bc fa3d 413c
000001b0: d48b a8bc 56b6 b4bc d332 e83b 6636 cd3a
000001c0: b7bf ddba cd62 81bc e97a e539 0a05 5cba
000001d0: 0572 2a3c b946 433c a2b9 303d 95dc c3bb
000001e0: 0655 00bd 1c87 1fbc e357 90bc 0a73 82ba
000001f0: 86ce bf3c 605e 3fba da83 b13c d999 eabc
-0.014420265 -0.041442733 -0.012380489 -0.018440375 -0.010063748 -0.017722797 -0.037616197 -0.00035440258
-0.0031603014 -0.027241955 -0.03654708 -0.019483084 -0.03787112 -0.009282399 0.016088553 -0.008414677
-0.037971355 -0.006746353 -0.00080076605 -0.0029604381 -0.013615438 0.010547093 -0.02827137 -0.0066523976
0.016810779 -0.016710252 0.0016459139 0.0077293003 0.0019617986 -0.0070663085 -0.006947274 -0.020268291
-0.025857182 0.0010368646 -0.024508579 -8.820149e-06 0.0058403397 0.006519395 0.0064842687 -0.005998888
-0.020260721 0.020151427 -0.010064121 -0.029960718 0.021295607 0.003616441 -0.012530011 -0.014139777
0.00051486096 0.0044350037 -0.019565519 0.0025643667 -0.0020864964 -0.01240766 -0.030430615 -0.00015625064
-0.012534967 0.004137677 -0.027014932 -0.011038151 -0.009772759 -0.012867963 -0.018878363 0.0021995604
0.0019103056 0.0073667583 -0.0043166047 0.018667068 -0.005162885 -0.003794868 -0.000105729916 -0.0012769183
-0.009711397 0.011686725 -0.029807642 -0.0025643813 -0.0010228206 -0.019052116 -0.0083985245 -0.018935721
-0.013631462 -0.02887716 -0.01660952 -0.016613891 -0.028853146 -0.008107888 0.019079914 -0.010266199
0.012192116 0.024437888 -0.035132922 -0.015112291 -0.031587664 0.012928382 -0.0072016944 -0.015908647
0.000724602 -0.030520266 0.0023577774 -0.023993494 0.03558335 -0.020320699 0.017864684 0.0042101983
-0.024641467 -0.00719551 -0.03011265 0.0117945615 -0.020574488 -0.0220596 0.007086137 0.0015656471
-0.0016918097 -0.015794182 0.0004376986 -0.0008393085 0.010403161 0.011918717 0.043145783 -0.005977223
-0.031331085 -0.009736802 -0.017620033 -0.0009952497 0.023413908 -0.0007300135 0.021669317 -0.028637813

value_stream.0.weight f4 [64, 128]
00000000: e83f 79bd c114 6dbd 80cb 5a3d ee81 c33c
00000010: c937 c53b 8ee9 adbd 3ec4 9abd 3522 a03e
00000020: 14ed 39be 81f9 123d bac8 273e 4fac a73e
00000030: 24ed 853e cfae 31be 3f17 3ebe d4e6 0e3e
00000040: 45b5 87bd 2f30 913d 7c05 e7bc b047 ed3d
00000050: 4e30 053e d9d0 84be 9100 f33d 32e2 403e
00000060: 1b89 4d3d 836c 023e 5c7c 34bd a414 d3bd
00000070: c09d 743d efe0 a5bd 3274 84bd bc17 0f3e
00000080: f243 d33d 43bc 7fbd 61df 523e 9264 4cbd
00000090: af43 0cbe ca9f 833d df9b fc3c a907 c93c
000000a0: 4e54 4bbe 6e3c babc 90d6 2f3c 6089 223e
000000b0: 3c63 043e 34b2 133a af4a a83c 1f3d 213e
000000c0: bf48 613d 14ab c83d ada7 19bd 5275 6dbe
000000d0: bcda 48be 5e28 94bd 8dcc 98b8 742b a63d
000000e0: defd 97be 7733 9a3d 4600 6b3d 8a18 83bd
000000f0: 8bf1 703d ee3f a2bd 73eb d9bd 483e 9a3e
00000100: 7ce1 4abe a0f1 7dbd 7815 593e 88db c4bd
00000110: b31a 00bd fd94 4d3e da59 77bc cff0 853d
00000120: 666e dd3d a342 00bd 24be 353d fef5 77bd
00000130: 7573 0e3c 9cbd e3ba 84fc 3c3e 83e3 adbc
00000140: ae69 e7bd 4e59 91bd a856 373d 747d 393e
00000150: dc39 98bd 2faa d43c be8c 523e f01f 713e
00000160: 91ca 1e3e 0247 92bc b3fa 1a3d f042 9a3d
00000170: f101 273d ee3d 2f3d fa36 16be 664d 6a3b
00000180: 5af4 f23a 9050 a3bd c5da f13d e9ba 24be
00000190: 31cc ff3d f034 823d 2e9e 79be dbea 6d3d
000001a0: 8ee3 e5bd 01a5 5fbc 7b0a 193e 5095 1dbe
000001b0: 0c0a bc3d 3f53 263d facb cbbc 2840 2f3d
000001c0: 8018 a33d f2cc 493e e6b6 703d c631 14be
000001d0: 3912 593d f7f4 6dbc 0353 81be 171c 02be
000001e0: 9d71 aa3c 4391 d03d 3f02 8bbe 2256 8ebd
000001f0: 47b7 acbd ea30 f4bc d349 8bbc b493 113c
00000200: 3c33 533d 5f0d 793e b161 a43d 941b 6d3d
00000210: d841 2e3e a8dc 9d3d 7809 2a3d 6e95 eabd
00000220: f3df 153e e2b3 1cbe 6f33 10be 5472 8d3d
00000230: dd07 8dbc 6680 c43d 1ba3 84be 6580 0abd
00000240: d151 253b e735 c53d 0ebb 12be bf1a 76bb
00000250: 1eba 183e 5686 9fbc 13d2 4fbe f845 463d
00000260: df64 5c3e 0d51 18bd 61f8 72bd 4ac6 c83d
00000270: 45ae de3d 7f64 08bc f3bb 943a 95cf 7dbd
00000280: 1eb4 033e db61 813e 6e59 7c3e 9b95 b93c
00000290: daee 1f3e c0e1 a53d 537c 8d3d c41c 78bd
000002a0: 90c3 95bd 72f6 0abe 8831 e7bd 894f 063d
000002b0: 8948 91bb 2bbd b5be b0f1 273e 144e fb3c
000002c0: bc15 a93c ad3b 31bd a621 443e 7cb8 28bc
000002d0: c4cd 133d ac9b 7e3d f255 5dbb 3b92 bdbc
000002e0: 29b6 b83c 9cfa 293d 0418 89bd 7c98 00be
000002f0: f767 d13c 3a9f b7bc 1756 a0bc 26ce 11bc
00000300: 7593 2d3c b3d4 fcbd 236c 2ebd c738 64be
00000310: c2ac 39be eb8d b6bc 9b3a 273e 3ba5 35be
00000320: f478 cd3d fb84 233e 70fe b2bd 1d6d 9abd
00000330: 1e58 be3d 4e21 2abe 2748 1c3e c48c e43c
00000340: 9015 9b3d 5284 64be 2b38 9ebd 339b 08bc
00000350: bfa9 003d a9a0 26bc 5d87 073e 0ba8 c0bd
00000360: 3c6e ab3d a20f e13c 984d 303d d710 ba3c
00000370: 3f9a b83d a389 5e3e 1f57 3bbe 0bc5 55bd
00000380: 7076 9bbd e7c2 963d 2d6d fbbd 1f13 8ebe
00000390: 38cd 82be 7a0e d73d bad8 1bbe ea58 9e3b
000003a0: d7f0 1d3e bdaf f03d 4bcd e5bd 191c b3bd
000003b0: e5a2 963d b8ca 34be f389 8d3d af02 80bc
000003c0: 9e75 ecbd 0f82 90bd edea 14be 7ad9 1ebe
000003d0: 03b2 69be 5bf8 0f3e 157d 353e e2af 0bbd
000003e0: 2ba8 9abd 56fe 1bbd a3ca a93d 86cc e0bc
000003f0: 0cb1 9d3e 5ecc 5cbe 8af4 dc3d 8cfe a83d
-0.06085196 -0.05788112 0.05341673 0.023865666 0.006018613 -0.08491813 -0.075569615 0.31276098
-0.18156844 0.035882477 0.16385165 0.3274865 0.26157486 -0.1735184 -0.18563555 0.13955241
-0.06626371 0.070892684 -0.028200857 0.11585939 0.13006708 -0.25940588 0.118653424 0.18836287
0.050179582 0.12736706 -0.04406391 -0.10306671 0.059720755 -0.08099543 -0.06467475 0.13973898
0.10315694 -0.0624354 0.20593025 -0.0499006 -0.13697694 0.06426962 0.030836044 0.024539785
-0.19856378 -0.022733893 0.010732308 0.15872717 0.1292848 0.00056341593 0.020543424 0.15745972
0.055001017 0.097982556 -0.037513424 -0.23189285 -0.1961469 -0.07234262 -7.286025e-05 0.08113757
-0.29685873 0.075293474 0.057373308 -0.06401165 0.058824103 -0.0792235 -0.106406115 0.30125642
-0.19812578 -0.06199801 0.21199596 -0.09612185 -0.031275462 0.20076366 -0.015097106 0.06540071
0.108120725 -0.03131355 0.044370785 -0.06053733 0.008694519 -0.0017375234 0.18455702 -0.02122665
-0.11299454 -0.07097112 0.044760376 0.18114263 -0.07432911 0.025960056 0.20561501 0.2354734
0.1550696 -0.017856125 0.03783674 0.075322986 0.040773336 0.04278367 -0.1466941 0.00357517
0.0018535957 -0.079743505 0.11809305 -0.16086926 0.12490118 0.06357753 -0.24376747 0.058085304
-0.11225043 -0.01365018 0.14945404 -0.1538899 0.09181604 0.040606733 -0.024877537 0.042785794
0.079636574 0.19707087 0.058768176 -0.14472112 0.052995894 -0.014523736 -0.25258645 -0.12706028
0.020806128 0.101839565 -0.2715015 -0.06950022 -0.08433395 -0.02980848 -0.017002976 0.008885313
0.051562533 0.24321507 0.08026446 0.05788763 0.17017305 0.077081025 0.041512936 -0.11454283
0.14636211 -0.15302995 -0.1408212 0.06906572 -0.017215664 0.095948026 -0.2590569 -0.033813853
0.0025225768 0.09629422 -0.14329168 -0.0037552563 0.14914748 -0.019473236 -0.2029498 0.04840657
0.21522854 -0.03718667 -0.059318904 0.09803446 0.10873083 -0.008324741 0.0011347517 -0.061965544
0.12861678 0.2526997 0.2464349 0.022654345 0.15618458 0.08099699 0.069084786 -0.060574308
-0.07312691 -0.13570574 -0.11288744 0.032790694 -0.0044336957 -0.35495886 0.1640079 0.030676879
0.020640247 -0.043269802 0.19153461 -0.010297891 0.036084905 0.06216018 -0.0033773151 -0.023141017
0.022547798 0.041498765 -0.06694034 -0.12558168 0.02556227 -0.022414792 -0.0195723 -0.008899247
0.0105942385 -0.12345257 -0.042583596 -0.22287284 -0.18132308 -0.022284469 0.1633095 -0.17738812
0.100328356 0.15968697 -0.08739936 -0.07540343 0.09294151 -0.16614267 0.15261899 0.027899154
0.07572472 -0.22316101 -0.07725557 -0.008337784 0.031411882 -0.01017014 0.1323523 -0.09407052
0.08370635 0.027473275 0.04304275 0.022713108 0.09013795 0.21732192 -0.18294953 -0.052189868
-0.075909495 0.073613934 -0.12276683 -0.27748963 -0.25547194 0.10500808 -0.15219393 0.0048323767
0.15423904 0.117522694 -0.11220797 -0.087455936 0.073552884 -0.17655456 0.06911077 -0.01562628
-0.11545871 -0.07056057 -0.14542742 -0.15512648 -0.22821812 0.14059584 0.17723496 -0.03410328
-0.07551607 -0.03808435 0.08290603 -0.027441274 0.3079914 -0.21562335 0.107888296 0.08251676

value_stream.0.bias f4 [64]
00000000: dce5 b4bb 55af b83b 60d2 3f3c 4e32 133a
00000010: 8001 0c3c a076 a1ba 5192 413b 58f5 783c
00000020: 73a6 debb c3fc e7bb 5744 7dbb b460 d63a
00000030: ff69 843c cc1e 293c a18f 463c 86b9 eabb
00000040: b552 7e3b a887 ecbb 9a9f 313c 1d15 2eba
00000050: a43c b4bb 7e31 d9bb 5e7f 4f3b a3e7 d7bb
00000060: e929 b13b 7e62 163a 28dd 1bb7 a56e 3dbc
00000070: cf33 b83b cebf 3cbc 6743 1a3b 8e06 81ba
00000080: 98c0 0dbb 4a4a 2e3b 0e4b c6bc 4286 f33b
00000090: 132e 943c 8d3b ad3b 8f56 563b cf58 163b
000000a0: 4615 05ba 1b27 09bb d6d2 82bb 1c64 49b8
000000b0: 7526 aabb 5a96 25ba 63f5 96bb b92d 853b
000000c0: 3ecd 5b3b d700 213b b0cb 903c 6089 28bc
000000d0: 1c08 e5b9 91f9 6a3c 8676 153c 6c46 393b
000000e0: cb7d 273c 2c58 34bb bb7f b9bc c159 6c3b
000000f0: 18cb 833c d8ab e2bb cb08 033b 9045 8bbc
-0.0055205654 0.0056361356 0.011707872 0.0005615101 0.0085452795 -0.0012318678 0.0029536674 0.015195213
-0.0067947446 -0.007079692 -0.003864547 0.0016355724 0.016163824 0.010322284 0.012119205 -0.0071632294
0.0038806621 -0.00721832 0.010841275 -0.00066407194 -0.005500393 -0.0066282144 0.003166161 -0.0065888925
0.0054066074 0.00057367224 -9.290212e-06 -0.011562024 0.0056214104 -0.011520339 0.002353871 -0.0009843872
-0.0021629687 0.0026594573 -0.02420571 0.0074317763 0.018088376 0.00528664 0.0032705402 0.0022941118
-0.00050767174 -0.002092785 -0.0039924188 -4.801537e-05 -0.0051925727 -0.00063166546 -0.004606889 0.0040642885
0.0033539082 0.002456715 0.01767525 -0.010286659 -0.00043684326 0.014341728 0.0091224965 0.0028270734
0.0102228625 -0.0027518375 -0.022643914 0.003606424 0.016088054 -0.006917458 0.0019994255 -0.017000943

value_stream.1.weight f4 [64]
00000000: 1db7 803f 3de4 843f e3c2 843f 5b76 823f
00000010: 6809 843f c440 823f f56a 8a3f 3655 823f
00000020: 2f58 813f 00bb 833f b63b 833f 89e3 803f
00000030: 8f4f 913f 162a 803f baa8 803f c9ab 813f
00000040: 8091 803f 022b 823f 4843 813f f260 7e3f
00000050: 8689 803f 8250 823f 1b24 843f 96f8 7e3f
00000060: b411 843f 52dc 873f ecc4 7f3f 1bdb 803f
00000070: c6fc 823f d028 803f c46a 823f ee84 7d3f
00000080: 272c 803f 298c 7c3f 95bc 803f 8fee 823f
00000090: 626b 8b3f 030c 823f 50ba 883f 0497 853f
000000a0: 63ff 803f 57f1 7e3f fee8 7c3f 2fd0 823f
000000b0: 2235 813f 4594 813f bf12 813f d887 803f
000000c0: 195d 773f 1154 833f 17bd 833f 0e94 803f
000000d0: 2d31 813f 0601 843f d0a2 813f 1847 803f
000000e0: c7ab 823f fd61 7e3f 5301 7c3f 320a 813f
000000f0: 26cd 853f 56ee 803f 3ac4 7f3f 6283 7f3f
1.0055882 1.0382153 1.0371975 1.0192369 1.031537 1.0176015 1.0813891 1.0182254
1.0105036 1.0291443 1.0252597 1.0069438 1.1352404 1.0012844 1.0051491 1.013055
1.0044403 1.0169375 1.0098658 0.99366677 1.0041969 1.0180819 1.0323519 0.9959806
1.0317903 1.0614111 0.99909854 1.0066866 1.023339 1.0012455 1.0188832 0.9903096
1.0013474 0.9865137 1.0057551 1.0229052 1.0892146 1.0159916 1.0681858 1.0436711
1.0077938 0.99587005 0.9879302 1.0219783 1.009434 1.0123373 1.0083846 1.0041456
0.9662643 1.026003 1.0292081 1.0045183 1.0093132 1.0312812 1.0127811 1.0021696
1.0208672 0.9936827 0.9843952 1.0081236 1.0453231 1.0072734 0.9990879 0.9980985

value_stream.1.bias f4 [64]
00000000: d8a5 f03b 6a95 6bbc 3204 ec3b 4fd8 3dbb
00000010: f08f 003c c1dc c4bb 0f5b 9d3c 999b c239
00000020: 281a 993b 63ca 28bc 2004 65bb ceb8 6bb9
00000030: 74c4 94ba 9bb9 613c c8f4 32ba dad0 21bc
00000040: 77f0 1b3a 34ac d2ba f9e3 fa3b fc0a 7abb
00000050: 4a78 e5bb 1bd8 90bb e7fb 1dbc fe1f 1a3c
00000060: 7f5b bcbb a6ee babb 4127 8cbb 527c c5bb
00000070: 06e5 adbb 321c e9ba 9fe0 26bc a7f0 423a
00000080: e42f 573a b886 163c c3c0 99bc 4636 8e3b
00000090: fb3a 113c 75a4 cc3a 093e 5dbc 0af9 8bbb
000000a0: 9793 053c 8ad4 813c 0862 cc3a 7b90 563b
000000b0: 274a 043b 67dd 5fbb aeaa 6cbb 7ab2 683a
000000c0: 4879 f1bc 1990 2b3c 7e75 19bd 98f9 71bc
000000d0: dcac cabb daa2 343c f392 193c 2052 c43a
000000e0: cbea 493c 99f9 59bc b4e4 c63b 3a1b 16bc
000000f0: 30b3 6fbc 3f70 ce3b be3c ab3a d4d8 283c
0.007343989 -0.014378885 0.0072026486 -0.0028968041 0.007846817 -0.006007761 0.01920846 0.00037118493
0.0046723075 -0.010302159 -0.0034945086 -0.00022480192 -0.0011350051 0.013777162 -0.00068266364 -0.009876454
0.0005948613 -0.0016073049 0.007656571 -0.003815352 -0.007002865 -0.004420293 -0.009642578 0.009407042
-0.005748212 -0.0057047186 -0.0042771404 -0.006026783 -0.0053068427 -0.0017784892 -0.01018539 0.00074363727
0.00082087354 0.009187393 -0.018768674 0.004339966 0.00886416 0.0015612977 -0.01350356 -0.004271631
0.008152864 0.015848417 0.001559318 0.0032739926 0.00201858 -0.0034159066 -0.0036112475 0.0008876693
-0.029476777 0.010471367 -0.037465565 -0.01476898 -0.006185157 0.011025155 0.009373414 0.0014978088
0.012324045 -0.013304138 0.006069744 -0.009161765 -0.014630124 0.006300002 0.0013064367 0.010305602

value_stream.3.weight f4 [1, 64]
00000000: f46e 853e 5d80 c6bd be97 9c3e 29d5 0a3e
00000010: 28f6 69be 1124 b23e 1128 173e 409b 64bd
00000020: 5718 c73d a9c7 1cbe 1fa4 343d 225e 4abe
00000030: c5ab 1cbe b843 183e 227c babd 10c8 963d
00000040: 46db 55be eebf a73e d342 9abe c37d daba
00000050: 0740 a23e 163b 1fbe 030e 433e 4d2d e03c
00000060: 01cc e0bd 2b21 babd 12a2 8fbe 72c7 e13d
00000070: 7d8e 2dbe 02c2 043e 32fa 57be 331e b33e
00000080: 3b5b 043e ec39 1cbd 53c2 923e 07a4 213e
00000090: bb31 23be d91d 6fbe a07e 973e 3856 6d3e
000000a0: fb99 1fbd e67c 073e dfe5 b03e b795 9b3e
000000b0: 2faa 27bc 9b1d 8dbe a24c 513d 8704 23bd
000000c0: b804 dfbc 38e7 f1bd 810c 35bd f815 4dbe
000000d0: a0d7 85be a31b 3cbe f82f a83e adae dcbc
000000e0: de64 7a3e 6223 42be d4c7 0fbd 9e28 0bbe
000000f0: fc58 2dbd 9a0b e73c 2d7c 26be 2c4b 583c
0.26061213 -0.09692452 0.3058452 0.13557877 -0.22847807 0.3479314 0.14761378 -0.05581212
0.09721439 -0.1531054 0.04410183 -0.19762471 -0.152999 0.14869583 -0.09105708 0.07362378
-0.20884427 0.32763618 -0.30129108 -0.001666956 0.31689474 -0.15549883 0.19048314 0.027365351
-0.10976411 -0.090883575 -0.28053337 0.11024369 -0.16948886 0.12964633 -0.21091536 0.34983978
0.12925427 -0.038141176 0.28663883 0.15785228 -0.1593694 -0.2335123 0.29588795 0.23177421
-0.038965207 0.13231239 0.34550378 0.3038766 -0.010233446 -0.2756165 0.051098473 -0.03979924
-0.02722393 -0.118116796 -0.044201378 -0.20027912 -0.2614107 -0.18369918 0.32849097 -0.02693876
0.2445254 -0.1895881 -0.03510268 -0.13589713 -0.04232119 0.028203774 -0.16258307 0.013201516

advantage_stream.0.weight f4 [64, 128]
00000000: 65b8 31bd 2931 043d 00db aebd 726b b33c
00000010: 20bc dc3d 2158 123e 59cd d1bd d0dc 113e
00000020: 57e7 d33d a021 703d f546 e8bd 9294 863e
00000030: d8d6 8a3d 48dc bd3c a5f5 9c3d 2d81 a23b
00000040: 7bda e3bd 7efb 013d 640c 503d f729 803e
00000050: 0d56 8abe b656 0a3d c980 87bd 9933 633d
00000060: b2bc 3a3e 7436 3ebe 54c8 c1bc b5c0 efbd
00000070: f9da eabd 3e28 213c 1f19 9dbc 6dc1 fd3d
00000080: af3e 4d3d 62b7 f9bd 09ec fdbd 4fc9 873c
00000090: c522 8abe 2dc6 593d b9bf 62bd 8043 99bd
000000a0: 6d18 003c 3ecc ac3b 0250 07bd d0c3 4d3d
000000b0: 1ae9 2abe cce3 883c 1c5d a53e a66e f73c
000000c0: aec0 443e ad47 91be ccf4 f8bd f2bf 9abc
000000d0: 9367 153d a72a 083e cc63 32be b119 dcbd
000000e0: d1bc 403e 5be9 093d c958 ffbc 04d6 aabd
000000f0: c530 4a3d 1937 19be 36fc 513d e532 21bd
00000100: bd47 0f3e 462f 6b3e b71c b53d f64e 3f3d
00000110: 0a6b eb3d 7bad 233c 7cf7 0d3d 2ce2 563d
00000120: 3a54 99bc 04a7 df3d 20cd 643d ea3b 8f3b
00000130: 5a12 5c3e 5083 dabc acb3 b23c fdcd 20be
00000140: 68ba 993d fa6f 91bd b2fe 5a3e 7a0f 813d
00000150: 933b 13be a42b 4b3e b5d9 e3bd 72b7 ef3c
00000160: ab48 323c a3ca e63c 81ca fabc 3dd2 a7be
00000170: 4ab8 a33d b1ed b5bb ecfb ee3d 4094 e63d
00000180: 8c93 5f3d c9cc 2bbc 5eef 593d 5818 edbd
00000190: 980b 2cbe 5cda 28bd a022 6a3d 6a8e a6be
000001a0: 89e0 1bbe edab d9bc 2da2 f1bd 0e8e 0a3e
000001b0: 6586 ac3c 2856 d63d e539 80be 29ea 403e
000001c0: e73b 99be 7b8e 243d 2522 db39 6a05 bc3d
000001d0: 629b 9a3b 4f32 a83c 8f15 873d 1f8e 6e3e
000001e0: fac4 4bbe 28df f7bc 0993 d43d 1a7a 5e3d
000001f0: a09e 873e 2e6c 423d 90f0 a73d c24b 11be
00000200: 7d9e 163e 4e69 1bbc 8601 29bd dd16 d0bb
00000210: ef51 e93b 9bea 973c 9b1e 523b fd78 07bd
00000220: 32ef ccbd c1ad 9bbe 80b2 8e3e 0441 023e
00000230: 9625 35bc d0ff 353d 2dad 29bc a143 ccbd
00000240: d017 263e ce44 843c de1c cebd de31 013d
00000250: d494 e3bd dcca ff3d f812 3cbc d987 99bd
00000260: dc28 5ebe 0094 0cbd 9568 693e 016c 39be
00000270: c54d 563e 26dc 18bc 3f03 07bd cdfe 473e
00000280: 0196 cdbc ec44 fc3c 65a7 6ebd d185 b63d
00000290: 2825 013e c8a0 13be 3bc4 cfbd 825d 38be
000002a0: 01d5 553d 4624 31be bbdf bc3d a5f8 0b3e
000002b0: 61e0 bbbd 65e2 f63c c952 58bc 8f5f 913c
000002c0: 9224 c13d 3d2a 81bd 99f9 60bc 7f83 82ba
000002d0: 49e5 38bd b824 073e 72bb 453e 64c8 8f3e
000002e0: 4cc2 a8bd 3521 90bd e5c0 c63d bb93 c2bd
000002f0: 12b2 ee3d 1516 1abe d478 e03c 0928 88bd
00000300: 5dc7 07be 66f9 8abd 4422 683e d376 0a3e
00000310: 4825 b7bd 3c6b 343d aded 1cbd e205 b9bd
00000320: 3404 2f3d a9ff 4c3e d184 493e 4139 4cbe
00000330: cf6d 8dbd 76ce 813d 393e 1a3d bd62 c9bc
00000340: 3d44 983d ca0a 99bd aa5c 79be 2e6d d9bd
00000350: a08c 23be bf94 353c c68d 52be d49a 483e
00000360: c7f6 2ebc 32a0 913d 1d0a bebe 502f 5b3d
00000370: 3890 583c 0ea3 903c 095a a83d 344b 9e3d
00000380: db24 7d3c 3c53 ba3e bc99 74bc d249 193e
00000390: 8129 36bd 96f1 073e f4a5 4b3d 521a 67bd
000003a0: fe55 063e f3db aebd 70c8 893d de7f 3dbd
000003b0: 234b 27bd e4a4 153e a4ed 023e 21ba 81bd
000003c0: 17a1 7cbe fb3b d3bd c00e b13c 8cab 2f3e
000003d0: 1d5f 39be 9407 94bd 5e72 06bd 6224 dabd
000003e0: f0b4 00bd 25a5 21be 0316 02bd bfc3 d63d
000003f0: 81e1 8c3d a0fc f0bd 0933 273d b2c0 353e
-0.043388743 0.032273445 -0.08537865 0.02190182 0.107780695 0.14291431 -0.10244245 0.1424439
0.10346859 0.058625817 -0.11341659 0.26285225 0.067792594 0.023176327 0.076640405 0.0049592466
-0.11125656 0.031733982 0.050793067 0.25032017 -0.27018777 0.0337741 -0.06616361 0.05546913
0.18236044 -0.1857546 -0.023655094 -0.11706678 -0.11467547 0.009836255 -0.019177018 0.12390409
0.050108608 -0.121931806 -0.12398536 0.016575484 -0.26979652 0.05316751 -0.055358622 -0.07483578
0.007818324 0.005273371 -0.033035286 0.05023557 -0.16690484 0.016710185 0.322976 0.030204128
0.19214126 -0.28374997 -0.12156066 -0.018890355 0.03647573 0.1329752 -0.17420882 -0.10747088
0.18822028 0.03366981 -0.031170266 -0.083416015 0.049362916 -0.14962424 0.051265918 -0.039355177
0.1399221 0.22967252 0.088433675 0.046706162 0.114950255 0.009990091 0.034659848 0.052461788
-0.01871692 0.109205276 0.055859685 0.004371156 0.21491376 -0.026673943 0.02181419 -0.15703578
0.07506257 -0.07101436 0.21386221 0.0630178 -0.14378195 0.19840866 -0.11125509 0.029262278
0.010881583 0.028172797 -0.03061414 -0.32777587 0.07994135 -0.0055520167 0.11669144 0.11258745
0.05458407 -0.010485836 0.053206794 -0.11576909 -0.16801298 -0.04122387 0.057161927 -0.32530528
-0.15222372 -0.026571238 -0.11798511 0.13530752 0.021060178 0.10465652 -0.2504417 0.18839325
-0.29928514 0.040174942 0.00041796375 0.0918072 0.00471823 0.020531802 0.06595909 0.23296402
-0.1989936 -0.030257776 0.10379607 0.054315664 0.2648821 0.04746645 0.082001805 -0.14189056
0.14708896 -0.009485556 -0.04126122 -0.0063503818 0.007120363 0.018544486 0.00320617 -0.033074368
-0.100065604 -0.30406 0.2787056 0.12720114 -0.0110563245 0.044433415 -0.01035623 -0.09973837
0.16220021 0.01614609 -0.100641 0.031541698 -0.11112371 0.12489864 -0.011479132 -0.07496614
-0.21695274 -0.03432083 0.22793801 -0.18107606 0.20928104 -0.009329831 -0.03296208 0.19530793
-0.025095941 0.030794583 -0.05826511 0.08912242 0.1261183 -0.14416802 -0.1014485 -0.1800442
0.05220509 -0.17298993 0.09222361 0.13669069 -0.09173656 0.03013725 -0.013203331 0.017745761
0.09430803 -0.063068844 -0.013731384 -0.0009957402 -0.04514054 0.13197601 0.19309786 0.28082573
-0.08240184 -0.07037584 0.097047605 -0.095008336 0.11655058 -0.15047486 0.027401365 -0.06648261
-0.13259645 -0.0678585 0.22669321 0.1352189 -0.08942658 0.04404758 -0.038312603 -0.09034325
0.042728618 0.20019402 0.19679572 -0.19943716 -0.0690571 0.063382074 0.037656996 -0.024583215
0.074348904 -0.07472761 -0.24351755 -0.106165275 -0.15971613 0.011082827 -0.20561895 0.19590312
-0.0106789535 0.07110633 -0.3711709 0.053511918 0.013217978 0.017655876 0.08220298 0.077291876
0.015450682 0.36391628 -0.014929231 0.14969566 -0.044473175 0.13275751 0.049718812 -0.056421585
0.13118741 -0.08538046 0.067276835 -0.04626452 -0.04084314 0.14613682 0.12785965 -0.063343294
-0.24670826 -0.10314175 0.021613479 0.17155284 -0.18102689 -0.07228008 -0.032823913 -0.10651471
-0.031422555 -0.15785654 -0.031759273 0.10486554 0.06878949 -0.117669344 0.040820155 0.17749289

advantage_stream.0.bias f4 [64]
00000000: b6b4 0538 f91e d33b 6a92 963b 16cd d9bb
00000010: 4dc2 debb 6f4c c43b 99b8 16bd e18b d6ba
00000020: 9a3d 3e3a 6600 9c3c 3d1b 443c 3005 823b
00000030: 129f a03c 7402 63bc b166 c63c dddb 4b3c
00000040: d78c 2bbb 6684 943c aa44 84bb ae30 ddb9
00000050: 8a9b 79bc edf9 903b 570a e43b 33a8 21bc
00000060: a83f 83bb 0027 9bbc d21f 283c d3e6 0e3b
00000070: 3ff9 913c b93a d13b ed7b cf3c 8354 603c
00000080: e0b0 0a3c e2e7 efbb 9ef5 8aba 9c1d a2bb
00000090: 7411 013c 9d21 833b 3654 433a 1276 cdbb
000000a0: b4b6 eeba 9315 8b3b 048f 04bc c050 143b
000000b0: 5942 223b 5f94 f93a 0de5 6fbc 6e00 2d3c
000000c0: 9eed e23a 0cb3 5a3c 51d9 843b a739 d7ba
000000d0: 5722 c7b8 b684 6b3b 9162 bc3b 3d23 bebb
000000e0: 15eb 7f3c 8141 60bc f58e f9b9 6f6c 1dbc
000000f0: dca2 f7bb 91d9 883b 4275 583c 0b64 64ba
3.187797e-05 0.006442901 0.0045950906 -0.0066467626 -0.006798065 0.005990557 -0.03679714 -0.0016368591
0.0007257104 0.019043159 0.011969385 0.0039679036 0.0196071 -0.013855565 0.024218889 0.012442556
-0.0026176476 0.018129539 -0.0040365057 -0.00042188674 -0.015234837 0.0044243247 0.0069592404 -0.009866762
-0.004005391 -0.018939495 0.010261493 0.0021805062 0.017819045 0.006385174 0.025327647 0.013692024
0.008465022 -0.0073213438 -0.0010601764 -0.0049473774 0.007877696 0.0040018097 0.0007451208 -0.0062701786
-0.0018212409 0.004244515 -0.008090738 0.0022631139 0.0024758785 0.001904141 -0.014642012 0.0105591845
0.0017313247 0.013348352 0.0040542264 -0.001642038 -9.495456e-05 0.0035937256 0.0057490547 -0.0058025406
0.015620013 -0.013687492 -0.00047599492 -0.009608372 -0.007557256 0.0041763266 0.01321155 -0.00087124173

advantage_stream.1.weight f4 [64]
00000000: 2f35 833f 4cec 813f cf70 853f 4c62 823f
00000010: 92a3 833f daf6 7e3f b3a3 823f ddda 813f
00000020: 973e 833f aeb9 843f dad9 7c3f 2a0d 813f
00000030: a51c 8c3f f4d2 803f 1d56 893f 7615 843f
00000040: ba50 853f c17c 873f e9f4 7e3f 6443 823f
00000050: 4439 823f 7164 853f 3fe6 833f a48b 813f
00000060: 2344 813f 188c 803f 21fa 8e3f c8a0 833f
00000070: 1b8f 843f 2ff1 843f ae85 8f3f 2482 863f
00000080: b5da 813f 7598 7f3f 382d 813f d00e 7f3f
00000090: 1739 973f 3e3b 883f 8f4e 7f3f af1e 823f
000000a0: ebfd 833f b3c4 813f 6a55 833f 24b1 823f
000000b0: 850a 833f 9ba6 813f 72b8 7b3f 2525 803f
000000c0: d8eb 803f b5a6 803f 1343 803f 12f9 803f
000000d0: 2a7d 883f c276 7f3f 857d 853f e4fa 7e3f
000000e0: 9625 853f 2f36 823f 6f26 7e3f ffd5 7c3f
000000f0: 0366 813f 87df 813f bc88 833f 3d47 803f
1.0250605 1.0150237 1.0425051 1.0186248 1.0284293 0.99595416 1.0206207 1.0144917
1.0253476 1.0369165 0.98769915 1.0082142 1.0946242 1.0064378 1.0729405 1.0319049
1.0415261 1.0584947 0.99592453 1.0176816 1.0173726 1.0421277 1.030464 1.012074
1.0098919 1.0042753 1.1170083 1.0283442 1.0356172 1.0386103 1.1212671 1.0508466
1.0144869 0.99842006 1.0091925 0.9963198 1.1814297 1.0643079 0.99729246 1.0165614
1.0311865 1.0138153 1.0260441 1.0210309 1.0237585 1.0128969 0.98328316 1.0011336
1.0071974 1.0050875 1.002047 1.007601 1.0663197 0.99790585 1.042893 0.9960158
1.0402095 1.0172786 0.99277395 0.9876403 1.0109257 1.014634 1.0276103 1.002174

advantage_stream.1.bias f4 [64]
00000000: bea3 8e3b 20d9 e6ba ceb0 8aba 0363 68bb
00000010: ef40 27bc cd6b 4b3b d0a2 303d 1ae6 2d3b
00000020: 04e9 99ba 7cbe cebc 7c8d 83bc 509c f63b
00000030: 323b 67bb 0e24 7abc 08a3 183d ae74 3c3c
00000040: 3338 f43a aab6 5a3b 5368 ccbb 2455 183c
00000050: 7bf4 033c 92d2 653c 3a6b dd3b f528 1c3c
00000060: d029 973c 46d3 b8bc 61ab 0a3d 7800 10bb
00000070: b847 b4bc da91 7e3b 1716 833b c41a 4a3a
00000080: 9aa8 5b3b 08fc 4c38 3a41 f1b9 6adc 20bc
00000090: 68d9 553b 5c70 92bb ee5f 9f39 9c2c 9cbc
000000a0: c850 113d f3c9 85ba 204c 223c ece6 8b3b
000000b0: e94b 3dbb e3e8 b03a fdc4 a8bb 7b14 bcbc
000000c0: c4e8 b1bb d6db f53b 1bc8 563c 7b01 acbb
000000d0: 2ac9 eabb dd94 82bb df45 4e3c 0331 f3bb
000000e0: 8adc e9bc f537 033d e99b a2bc 6f5a 27bc
000000f0: 3ea7 83bc 7375 5c3c 423c 4f3c 7e44 633a
0.0043530157 -0.0017612316 -0.0010581256 -0.0035459406 -0.0102083525 0.0031039596 0.04312402 0.0026534856
-0.0011742418 -0.025237314 -0.016058676 0.007525958 -0.0035283086 -0.015267385 0.037264854 0.011502428
0.0018632471 0.0033373036 -0.0062380224 0.009297643 0.008053894 0.014027255 0.006757167 0.009531249
0.018452555 -0.02256168 0.033854846 -0.0021972936 -0.022006854 0.0038844259 0.004000436 0.0007709677
0.0033517242 4.8872113e-05 -0.000460157 -0.009818176 0.0032630805 -0.0044689607 0.00030398316 -0.01906424
0.03547743 -0.001020728 0.009905845 0.0042694714 -0.0028884357 0.001349714 -0.005150436 -0.022958985
-0.005429359 0.007503013 0.013109232 -0.0052492 -0.007165094 -0.003985031 0.012589901 -0.007421614
-0.028547544 0.032035787 -0.019849734 -0.010214432 -0.016070958 0.013455736 0.012648644 0.0008669569

advantage_stream.3.weight f4 [2, 64]
00000000: 5d43 ba3e 2c63 7a3d 5865 8bbe c40a cbbe
00000010: 2ea7 723e 4af8 b4bd f4d9 60be fe7e f4bc
00000020: 0008 803e 0313 54bc e732 bd3d 937f d73e
00000030: 39fe 38bb 4c20 c5bd 9150 46bd adb3 5e3e
00000040: b252 ab3e 6cfc ce3e c1b3 06be 8ae4 44bd
00000050: 4924 8cbd ef15 113c 7523 a5be fbe5 83bb
00000060: 7a30 24bc e940 2dbd 43ce 333d c6ce 053e
00000070: a005 0c3d 3d6e 483e cfb5 2dbe fa40 423e
00000080: ab7f c63e b713 91be 0ebf d1bd 57ff 9fbe
00000090: c3f4 603e 60f7 82bd 6e9c 3d3d f1e4 07be
000000a0: 5774 b2bd 472f 2dbe 5e08 243e bd66 803d
000000b0: 2fa7 00be b84e 2b3d ba7f ea3d fa96 86be
000000c0: 2e4f 39bd 7ecf 383e 645a 4fbe a5be 0c3e
000000d0: 98ac 74bd 66ce 80bd 017f ed3d a40a b9be
000000e0: cf3d 5bbd 3757 b0bc 1550 abbd 7eaa 9fbe
000000f0: 6c80 37bc bfc2 503e 7a3b 413e 71ea 2cbd
00000100: 14c1 abbc 827f aebd d524 e4bc 9976 d83c
00000110: 3a16 5cbe f698 613e ec3d 85be 292e 34be
00000120: 7222 1ebe 0751 dabd 2712 cc3d b736 41be
00000130: ebfb a73e 2016 933e 246d 923d d209 593d
00000140: ac54 8cbd b789 69be 4632 803e 43c2 d7bd
00000150: b8a0 37be ac87 fcbd b431 93bd 12bb a3bd
00000160: 8756 383e edab a1ba 2241 25be 2ec4 41be
00000170: 77d9 d2bc 9c29 adbe 1f65 553e 157a dfbd
00000180: 8d05 463c e85e 79be f233 d0be 128d b2bd
00000190: 78b6 49be cc29 583e 4ef4 99bd 0e7c e13e
000001a0: a6f3 44be 189c 353e 3c0d a03d a767 a8be
000001b0: afda 8e3e c834 a1bd b1ca 373e 1988 70be
000001c0: 1576 7c3e edd6 1b3c b6d8 d4be e998 8cbe
000001d0: ce27 6b3e a149 00be 136d 1cbe 7bfb 963d
000001e0: b504 0e3e ba43 e0bd 2f43 f03c afd0 36be
000001f0: f719 673e 1c2c 47be d719 a13c 4131 4dbe
0.3637952 0.061129734 -0.27225757 -0.3965665 0.23696586 -0.0883642 -0.21958143 -0.02984571
0.25006104 -0.012943986 0.092382245 0.4208952 -0.00282277 -0.09625301 -0.048416678 0.21748228
0.3346153 0.40426958 -0.13154508 -0.048069514 -0.06842858 0.008855327 -0.32253614 -0.0040252185
-0.010021323 -0.04229823 0.04389788 0.13067159 0.034185052 0.19573303 -0.16963886 0.18970099
0.38769278 -0.28335354 -0.10241519 -0.31249496 0.21968369 -0.06394839 0.04629176 -0.13270928
-0.08713596 -0.16912566 0.16018817 0.06269596 -0.12563775 0.04182312 0.11450143 -0.2628706
-0.045241527 0.18047902 -0.20249325 0.137446 -0.05973491 -0.062893674 0.1159649 -0.3614093
-0.053525742 -0.021525962 -0.08364884 -0.31184763 -0.011200052 0.2038679 0.18870345 -0.04221577
-0.02096609 -0.08520414 -0.027849594 0.02642374 -0.21492854 0.22031006 -0.26023805 -0.17595734
-0.15442827 -0.10659986 0.099644 -0.18868528 0.32809386 0.28727818 0.07149723 0.05298788
-0.068520874 -0.2280644 0.25038356 -0.10535099 -0.17932403 -0.12330565 -0.071872145 -0.07994665
0.18001758 -0.0012334563 -0.16138127 -0.18922493 -0.025738461 -0.33820808 0.20839356 -0.10911957
0.012086284 -0.2435261 -0.4066463 -0.08718313 -0.19698513 0.21109694 -0.075173005 0.4403996
-0.1923357 0.17735326 0.07815024 -0.3289158 0.27901217 -0.07871395 0.17948414 -0.23489417
0.2465442 0.0095116915 -0.41571587 -0.2746041 0.22964403 -0.12528087 -0.15275984 0.07372185
0.13868983 -0.10950418 0.02932891 -0.17853044 0.22568499 -0.1945042 0.019665642 -0.2003832

advantage_stream.3.bias f4 [2]
00000000: ffc0 da3b ffc0 dabb
0.006675839 -0.006675839

shared.0.weight f4 [128, 48]
00000000: 2feb 743d ad65 893d 1d7e 52be 766b 0e3d
00000010: d166 19bd 73f7 f03c cd39 05bb 850d 823d
00000020: 17f2 663e c388 d4bd 88ee fb3d 5b9d ab3d
00000030: 67a1 0abd b716 083c 2a91 0fbe ef98 0e3d
00000040: 1458 b13d 325b 8abd 5b72 4bbe 0e1d 653d
00000050: c211 1dbe 008c f2bd 869b f5bc e3fe 3dbb
00000060: 5c7f 86bc 8ef1 65bd 92bc 7c3e 87ab 153e
00000070: 6829 a53d 4a6d 31be 82bf 11be 38a7 7c3d
00000080: 6254 3f3d e2bb 483d 9b2f 91be 91f7 4cbe
00000090: f0a2 7abe 367b c53d e443 0fbe 037d 56bd
000000a0: 4246 f43b 183d 1ebe 7417 c73d 47bd 5a3e
000000b0: 3fa4 6d3c a5d2 3cbd 5ed4 003e 12d5 c6bd
000000c0: 3e7d 29be b640 cb3c 94e7 ea3d 77a1 403d
000000d0: 8ec7 56bd 6ee9 2fbe 4a45 ab3e 6289 4dbe
000000e0: 92e1 383d 857c d43d edfc 88be 25ea e03d
000000f0: 1976 963e 7c5a 6bbd 3c61 243e 1a23 a03d
00000100: bdfe 063b 3f7a 05bd f295 b3bc 757d be3d
00000110: 157d 78bd ce8a 8e3d 8e88 1bbe bbd5 243e
00000120: 646e 1cbc 4b35 74bc c254 fabd 46bb 52bd
00000130: 7ed6 fabd 9d9a 4fbd f923 32be fbc8 4abe
00000140: 143e 4bbe 2f92 6cbe 461a 5b3b 16b6 54bd
00000150: e29b 7ebd a686 053d 9787 80bc 00fb 5d3c
00000160: 1f15 253e 8433 403c 8f0d 43bc 4f15 243e
00000170: d878 1c3e 9262 933c 82bb f13d bd2a 73be
00000180: 8053 93bd b0fa 183e 6b2e a03d f6a0 e63d
00000190: 562c b13c 185d 553e 5aa4 bebd eade 413e
000001a0: 3a5a 8bbd 2a7d 2abe 7548 15be 8698 353e
000001b0: 86db 4b3e 2428 35be 1af2 e33d 9b2b fc3d
000001c0: c742 37bc 5ef9 1ebe ace7 ea3d 9cb1 b83d
000001d0: 0709 1a3e 72dc 0abd 360f 05be ff94 f53d
000001e0: fd8f 7cbd 25a6 4d3e 1c5f 033e be56 13bd
000001f0: 28cd 1bbc c1d1 cabd bd03 283d 1f26 6ebd
00000200: 5607 0bbd de54 373e 3018 973c 11c8 adbe
00000210: d93d 13be 10c5 16be 1573 c5bd eead 473a
00000220: 778a b3bc 6edd a5bd 3091 d73d 6d09 493c
00000230: 1cfb 1b3c d5bd 50be f859 ec3c 3bf4 f43d
00000240: c763 163e 78f3 d3bc d2e7 40bd fc23 92bd
00000250: b915 98bc 94a0 b2bd bc5a ddbc 4c8f 6b3d
00000260: ea74 303e 1bd4 a6bd e09e 843d efdc 8aba
00000270: 9b7d 203e ff21 1cbd 6fc0 8d3d a38d 223e
00000280: 76a0 553e 0c19 b6bd 0f57 e73d 5a1b ea3d
00000290: 9692 c7bd 86eb b2bd 98c3 ba3d ed87 fabb
000002a0: 5d64 b9bc 655a eebd 27a6 233e d515 a23d
000002b0: 93a4 b13d 6c94 8f3d 3327 833e 4a70 b1bd
000002c0: 9297 503e d9bf 0bbe fcf5 8e3c 54a2 e23d
000002d0: ecbe 20be 9cad 56be 1184 473d 13b5 fdbb
000002e0: f84e 113d 4677 2b3e 5584 52be e04a ef3c
000002f0: 35f1 7fbd 2d49 703d ead4 a53d d65a 1fbd
00000300: a864 953d d3db 273a 47c9 47bd 6977 7c3e
00000310: 9c4c bbbd 774e ea3d fd88 51bd 8572 44bd
00000320: 7cc3 a33d c1e6 98bb 990f b13d 60a5 1abd
00000330: 6494 87bc 8198 f9bd 832e 61bd d196 fbbc
00000340: e161 073d 6435 133c 6d56 f13d b57f 86be
00000350: 7427 91be d137 833b 2d80 a7bd 6ac7 4f3e
00000360: ac1a 09bd d2fb d13d 6836 9abc d8c0 b73d
00000370: 2fd2 00bd 7789 4d3e 7cb6 1e3e c1bb 263e
00000380: 5638 cb3d 1a44 cfbd f900 a23e 749b c8bd
00000390: d4f7 fbbd 3ed9 a0bc 6589 58be 917a 103e
000003a0: e6c0 783e 8ce3 713e 8591 04bd 18b2 48be
000003b0: d5e2 1a3e 493a 48bc 5043 5fbc 0d48 423e
000003c0: c123 923e 4dc7 733e 2c72 cabd 261e 133e
000003d0: 6aae bf3d 5c5d 69be 1076 80bd 6458 f63d
000003e0: 781a b3bd 3eac 75bd 31a6 8b3d fe2c ac3d
000003f0: 6a6e b53d c3ac 1c3b 3172 223e b1db b73d
0.0597946 0.06708846 -0.20555921 0.03477045 -0.03745157 0.029414868 -0.0020328641 0.06350235
0.22553287 -0.10377648 0.123013556 0.083796225 -0.03384533 0.008306197 -0.1402022 0.034813818
0.08659378 -0.067556754 -0.19867842 0.05593591 -0.15338805 -0.11843109 -0.029981386 -0.0028991036
-0.016418152 -0.056138568 0.24681309 0.14616214 0.08064538 -0.17326847 -0.1423321 0.06168291
0.046711333 0.049007304 -0.28356633 -0.20016314 -0.24476218 0.09642641 -0.13990742 -0.052365314
0.0074546644 -0.15452993 0.0972127 0.21361266 0.014504491 -0.046099324 0.12581012 -0.09708609
-0.16551682 0.02481113 0.11469951 0.047028985 -0.052436404 -0.1717889 0.334513 -0.20071939
0.045136996 0.10375313 -0.26755467 0.109821595 0.29386976 -0.05745934 0.16052717 0.07819195
0.0020598613 -0.032587286 -0.021922085 0.09301273 -0.060666163 0.06960069 -0.1518881 0.16097157
-0.009547804 -0.014905284 -0.122231975 -0.05144813 -0.122479424 -0.05068456 -0.17396535 -0.1980323
-0.198479 -0.2310264 0.0033432408 -0.051931463 -0.06216038 0.032599114 -0.015689654 0.013548613
0.16121338 0.011731032 -0.011905088 0.16023754 0.15280473 0.017991338 0.118033424 -0.23746772
-0.07193661 0.1493938 0.078213535 0.112611696 0.021627586 0.20836294 -0.09308691 0.18932691
-0.06804319 -0.16649309 -0.14578421 0.17733964 0.1990796 -0.17691094 0.111301616 0.123130046
-0.011185355 -0.15524814 0.11469969 0.09018251 0.15042506 -0.03390164 -0.12994084 0.119913094
-0.061660755 0.2008291 0.1282925 -0.035971396 -0.009509362 -0.09903289 0.04101919 -0.058141824
-0.033942543 0.17903468 0.01844415 -0.339417 -0.14379062 -0.14723611 -0.09641091 0.0007617165
-0.021916611 -0.08098875 0.10525739 0.012270314 0.009520318 -0.20384915 0.028851494 0.11960646
0.146865 -0.02587293 -0.04709608 -0.0713577 -0.018565046 -0.08722034 -0.027020805 0.057509705
0.17232099 -0.08145925 0.064756155 -0.0010594408 0.15672915 -0.03811836 0.069214694 0.15874343
0.20861992 -0.08891496 0.11295902 0.11430998 -0.09744756 -0.08736329 0.09119338 -0.007645598
-0.022630865 -0.11638335 0.15981351 0.079143204 0.08673968 0.07010731 0.25615844 -0.086639956
0.2037032 -0.13647403 0.017451279 0.11066118 -0.15697831 -0.20964664 0.048709933 -0.007742533
0.0354757 0.16744718 -0.20558293 0.029210508 -0.062485892 0.058663536 0.08097251 -0.038904987
0.07294589 0.0006403301 -0.048775937 0.24654926 -0.091454715 0.11440747 -0.051156033 -0.047960777
0.0799627 -0.00466618 0.08645553 -0.03775537 -0.01655025 -0.12187291 -0.054975998 -0.030711563
0.03305233 0.008984897 0.117840625 -0.26269308 -0.28350413 0.0040044566 -0.081787445 0.20290914
-0.033472702 0.10253109 -0.018824771 0.08972329 -0.031450447 0.2007197 0.154993 0.1628256
0.099228546 -0.10120411 0.31641367 -0.09795275 -0.12303129 -0.01963484 -0.21146162 0.14109255
0.24292335 0.23621958 -0.03236534 -0.19599187 0.15125592 -0.0122209275 -0.013626888 0.18972798
0.28542903 0.23806496 -0.09885058 0.1436697 0.09359439 -0.2278952 -0.06272519 0.12028578
-0.08745283 -0.059978716 0.06818808 0.08407019 0.088589504 0.0023906685 0.15863873 0.0897745
