backend/models/rl_agents/dqn_best.pt (torch, 299241 bytes, 30 tensors)

features.0.weight f4 [128, 15]
0.13890591 0.13827841 0.099124014 0.14907984 0.1848743 -0.024694066 0.2171795 0.13722609
0.2550959 0.09088456 -0.18472469 -0.18002939 0.13082151 -0.25314093 0.039428063 0.03305762
0.17200592 -0.12546812 0.15844762 -0.086458966 -0.20305605 -0.00085669156 -0.046206743 0.14055051
-0.20668702 -0.20508993 -0.20980658 -0.16431665 0.21082692 0.16627683 0.1644512 0.19139828
-0.04466 -0.1645617 -0.23298997 -0.10175457 -0.0742156 -0.16768312 -0.010872346 -0.035850417
-0.0033632678 -0.072105214 -0.18947805 0.21590422 -0.0334697 -0.064662926 -0.16803993 -0.17034696
-0.07280589 -0.002566104 0.24583936 0.15966658 -0.12119882 0.22352521 -0.25577867 0.117859155
-0.033305336 -0.15890193 -0.0011624572 0.2547915 -0.18560258 0.22888288 -0.24478069 0.1340875
0.04904343 -0.11806753 0.039450504 0.21339893 -0.14263026 -0.075421825 -0.1180595 -0.09239554
0.18228538 0.11360839 -0.095398344 0.14840879 0.03268451 0.1389235 -0.006959661 0.02357473
-0.10274195 0.095011935 -0.2335252 0.19024478 0.22979209 0.24022967 -0.07568779 0.2581494
0.047441375 -0.19083488 -0.19090857 0.048630826 0.13437317 0.22958256 -0.22465196 -0.24503419
0.2038215 -0.24470223 0.18062258 0.020338522 -0.1379114 0.03054101 -0.056901798 0.06533762
0.24721383 -0.04964191 0.2526103 0.14532721 -0.103414364 -0.18207581 0.13336453 -0.058722414
-0.013461197 0.16234446 0.13591419 -0.027285656 -0.043674465 0.044208676 -0.11874971 -0.1558402
-0.013635964 0.12849751 0.14812444 0.2144589 -0.17014228 0.24141401 -0.14067677 0.15764211
-0.25172585 -0.2322677 -0.0046582622 -0.1661246 -0.24197161 0.24111076 -0.005812563 0.0031967803
-0.16796778 -0.24126144 -0.100296624 0.1466578 -0.086812034 0.017646836 -0.23612882 -0.10519639
0.04600615 0.06800025 0.20928547 0.18920344 -0.23726903 0.24403441 -0.089331575 0.10754688
0.19708735 -0.18910544 -0.2520291 -0.18777002 -0.17056389 -0.19169518 -0.0023113405 -0.16566315
0.06649903 0.2133245 0.12950638 -0.22206432 -0.15731089 0.23317373 -0.13004752 -0.22586283
-0.031919573 -0.054505903 0.020355634 -0.11779501 -0.013165403 -0.17484507 -0.22268234 -0.19963308
-0.24968526 0.17160381 0.24609742 -0.2132073 -0.056847595 0.1275088 0.042024303 0.09961014
0.10867837 -0.08871727 0.11740869 0.107347086 -0.14005452 0.15503575 -0.17872547 0.2223253
-0.17433354 -0.24717145 -0.040000413 0.07863606 -0.2290451 -0.2507635 -0.25596812 -0.103458345
-0.0458995 -0.15453231 -0.116686724 0.2514975 -0.03832609 -0.22287948 -0.20864266 0.16416757
0.19795002 0.10140171 -0.14054245 -0.0053512673 -0.123346254 -0.11865823 0.09452324 0.0923662
0.02749742 0.02325616 0.14375705 0.24192736 -0.20660314 -0.10245687 -0.23272803 0.19399725
-0.16070159 0.033983104 0.059342504 0.10211084 0.23888466 -0.16920598 -0.24069637 -0.10622489
0.06426165 0.15166475 0.02453552 -0.020503161 0.06944163 -0.11865804 -0.026100729 -0.08945691
0.09235611 -0.092010915 -0.2092935 -0.21023087 0.044245243 -0.065288745 0.017450154 0.038282167
-0.14042404 0.06037227 -0.21757624 0.015810212 -0.22494425 0.19610973 -0.038061015 -0.027825624
00000000: 5a3d 0e3e db98 0d3e 8801 cb3d 63a8 183e
00000010: b04f 3d3e 364b cabc 4e64 5e3e ff84 0c3e
00000020: ee9b 823e af21 ba3d 7828 3dbe a059 38be
00000030: 13f6 053e b09b 81be 527f 213d 6d67 073d
00000040: 5222 303e b77a 00be 1840 223e 6611 b1bd
00000050: eded 4fbe 9993 60ba 4843 3dbd 79ec 0f3e
00000060: c3a5 53be 1803 52be 89d7 56be a042 28be
00000070: 03e3 573e 7944 2a3e e565 283e e9fd 433e
00000080: 67ed 36bd dd82 28be ec94 6ebe b364 d0bd
00000090: 59fe 97bd 20b5 2bbe ed21 32bc e3d7 12bd
000000a0: 456a 5cbb e6ab 93bd 8906 42be ff15 5d3e
000000b0: 8617 09bd ff6d 84bd a912 2cbe 6f6f 2ebe
000000c0: 411b 95bd 152c 28bb 50bd 7b3e a37f 233e
000000d0: 1637 f8bd cbe3 643e 6cf5 82be 2460 f13d
000000e0: 2d6b 08bd 30b7 22be 975d 98ba 0874 823e
000000f0: 9a0e 3ebe 4660 6a3e caa7 7abe 3c4e 093e
00000100: c3e1 483d 64cd f1bd da96 213d 4085 5a3e
00000110: ab0d 12be c276 9abd 2ec9 f1bd df39 bdbd
00000120: 05a9 3a3e 84ab e83d 3560 c3bd 79f8 173e
00000130: 31e0 053d f641 0e3e de0d e4bb cb1f c13c
00000140: 5f6a d2bd 9e95 c23d 3b21 6fbe 87cf 423e
00000150: 9e4e 6b3e c4fe 753e 3302 9bbd 282c 843e
00000160: e351 423d 386a 43be 897d 43be 1e31 473d
00000170: 1f99 093e b117 6b3e 2a0b 66be 3eea 7abe
00000180: 95b6 503e 3993 7abe 20f5 383e f99c a63c
00000190: a538 0dbe 2431 fa3c dc11 69bd bbcf 853d
000001a0: 9f25 7d3e 5155 4bbd 2356 813e a8d0 143e
000001b0: e9ca d3bd 1572 3abe b690 083e ea86 70bd
000001c0: 5a8c 5cbc a03d 263e 172d 0b3e 2b86 dfbc
000001d0: ffe3 32bd 2814 353d 0c33 f3bd 9394 1fbe
000001e0: 6169 5fbc da94 033e efad 173e 1d9b 5b3e
000001f0: c739 2ebe 3c35 773e 920d 10be ef6c 213e
00000200: 36e2 80be 95d7 6dbe 56a4 98bb 911c 2abe
00000210: 68c7 77be bde5 763e 5077 bebb 1381 513b
00000220: bfff 2bbe 3d0d 77be 5168 cdbd 762d 163e
00000230: 82ca b1bd 1990 903c c1cb 71be 3471 d7bd
00000240: f270 3c3d b743 8b3d ee4e 563e 8cbe 413e
00000250: a7f6 72be 28e4 793e 79f3 b6bd 8a41 dc3d
00000260: 44d1 493e dba4 41be f509 81be c946 40be
00000270: 4da8 2ebe be4b 44be dc79 17bb 9aa3 29be
00000280: a530 883d bd71 5a3e 529d 043e d464 63be
00000290: 1b16 21be 18c5 6e3e 2d2b 05be 9648 67be
000002a0: 19be 02bd 9541 5fbd dcc0 a63c 833e f1bd
000002b0: b4b3 57bc 960a 33be d706 64be 9d6c 4cbe
000002c0: 7ead 7fbe e9b8 2f3e f600 7c3e 0453 5abe
000002d0: 06d9 68bd ab91 023e ad21 2c3d 6700 cc3d
000002e0: c492 de3d 66b1 b5bd f873 f03d cad8 db3d
000002f0: 746a 0fbe b1c1 1e3e cf03 37be 3ea9 633e
00000300: 7e84 32be 831a 7dbe 79d7 23bd f10b a13d
00000310: cc8a 6abe 1364 80be 410e 83be f8e1 d3bd
00000320: 1d01 3cbd b83d 1ebe 73f9 eebd 48c4 803e
00000330: d1fb 1cbd 853a 64be 6ca6 55be 8b1b 283e
00000340: 69b3 4a3e b3ab cf3d 5cea 0fbe af59 afbb
00000350: f69c fcbd 1603 f3bd 6795 c13d 7e2a bd3d
00000360: 4542 e13c b483 be3c 0c35 133e cebb 773e
00000370: c68f 53be e8d4 d1bd 4250 6ebe 37a7 463e
00000380: f58e 24be de31 0b3d 2011 733d 7d1f d13d
00000390: 2e9e 743e 5544 2dbe 1c79 76be 6f8c d9bd
000003a0: 9d9b 833d 014e 1b3e b7fe c83c 3ff6 a7bc
000003b0: 6a37 8e3d fd02 f3bd 32d1 d5bc 2f35 b7bd
000003c0: 3325 bd3d 3870 bcbd 0951 56be c346 57be
000003d0: 803a 353d 1bb6 85bd a0f3 8e3c c3cd 1c3d
000003e0: 52cb 0fbe ea48 773d 4ecc 5ebe 6b84 813c
000003f0: c957 66be fdd0 483e dee5 1bbd 90f2 e3bc

features.0.bias f4 [128]
-0.012112153 -0.1281328 0.012094208 -0.036741797 0.103020415 -0.09937003 -0.07702172 -0.02518214
0.08361624 0.17933103 0.102811635 0.23443307 -0.068119556 -0.107565805 0.21433187 -0.23071033
0.061661817 -0.18727285 0.25412068 -0.23836505 -0.054498333 -0.19737336 -0.06710348 0.20974436
0.18732496 -0.14409864 -0.21446644 -0.22751728 -0.08250232 -0.11044691 -0.04734491 -0.22929431
0.09370235 0.00059155514 -0.07038805 0.23637423 -0.25259608 0.03154055 0.22607952 0.22798689
-0.11620173 0.04461383 0.115492165 0.14900726 0.22275285 -0.096615314 -0.09238772 -0.02806786
0.1585279 0.013061091 -0.09226337 -0.079825416 -0.08385004 0.08845358 -0.070949286 0.16121483
-0.02580315 -0.16594753 0.09874647 -0.14554273 0.25039113 -0.0010993279 0.19749801 0.12561724
-0.18037607 -0.17732659 0.21929187 0.11243405 0.14496727 0.19694795 -0.12786339 -0.1639638
-0.021891635 0.005401438 -0.09605549 -0.20115745 -0.079236686 -0.13814166 -0.07959136 0.059332807
0.25165957 -0.1943302 0.22198792 -0.055568017 -0.18180008 -0.010066041 0.055332802 -0.16209209
0.2512446 0.16324195 0.20909315 -0.19374631 0.027992666 0.03380095 -0.13893741 0.20210706
0.16465478 -0.01560882 0.2431057 -0.014985408 -0.03722485 -0.23725936 0.037808284 -0.06567266
0.08513756 -0.052350864 0.14811017 0.18297836 0.06779664 -0.14457145 0.10287166 0.0365308
0.011340814 -0.068798184 -0.047843635 -0.18496488 0.09449924 0.14458065 0.08233353 0.096042655
0.079124525 -0.056062125 -0.08367783 0.22047651 0.20359267 -0.1247897 -0.10474519 -0.004819671
00000000: 0d72 46bc 3f35 03be c926 463c 917e 16bd
00000010: 5efc d23d 8482 cbbd 90bd 9dbd c64a cebc
00000020: fe3e ab3d 8ea2 373e e88e d23d 390f 703e
00000030: 4482 8bbd 764b dcbd d079 5b3e 543f 6cbe
00000040: 1a91 7c3d 74c4 3fbe 1b1c 823e f815 74be
00000050: a539 5fbd 3e1c 4abe 8d6d 89bd 3ac7 563e
00000060: 1dd2 3f3e 988e 13be 179d 5bbe 4afa 68be
00000070: faf6 a8bd fd31 e2bd bdec 41bd 21cc 6abe
00000080: 05e7 bf3d 9812 1b3a 9c27 90bd 160c 723e
00000090: 4654 81be aa30 013d 6481 673e 6575 693e
000000a0: 2cfb edbd febc 363d 2887 ec3d 5c95 183e
000000b0: 5319 643e 40de c5bd c635 bdbd 92ee e5bc
000000c0: 2355 223e 30fe 553c 94f4 bcbd 827b a3bd
000000d0: 92b9 abbd 2727 b53d dc4d 91bd 8015 253e
000000e0: 2161 d3bc 26ee 29be 973b ca3d 2709 15be
000000f0: 4433 803e 5317 90ba eb3c 4a3e cea1 003e
00000100: 81b4 38be 1a95 35be 0c8e 603e d343 e63d
00000110: 4d72 143e b9ac 493e 9fee 02be 20e6 27be
00000120: 1656 b3bc 8cfe b03b beb8 c4bd 38fc 4dbe
00000130: d846 a2bd 0275 0dbe cc00 a3bd f506 733d
00000140: 86d9 803e 7ffe 46be cd50 633e 4a9b 63bd
00000150: cd29 3abe 09ec 24bc a6a4 623d 78fb 25be
00000160: 22a3 803e e628 273e 841c 563e 6f65 46be
00000170: e050 e53c dd72 0a3d 9c45 0ebe 27f5 4e3e
00000180: 439b 283e 23bc 7fbc b3f0 783e 5b85 75bc
00000190: 1679 18bd 1ef4 72be dcdc 1a3d 637f 86bd
000001a0: 9a5c ae3d dc6d 56bd 31aa 173e ae5e 3b3e
000001b0: f7d8 8a3d 8a0a 14be 60ae d23d 52a1 153d
000001c0: d2ce 393c 10e6 8cbd b0f7 43bd 6f67 3dbe
000001d0: d188 c13d f30c 143e 7b9e a83d 03b2 c43d
000001e0: 0a0c a23d 66a1 65bd 485f abbd 98c4 613e
000001f0: 997a 503e be91 ffbd a584 d6bd 55ee 9dbb

features.2.weight f4 [128]
1.0 1.0 1.0 1.0 1.0 1.0 1.0 1.0
1.0 1.0 1.0 1.0 1.0 1.0 1.0 1.0
1.0 1.0 1.0 1.0 1.0 1.0 1.0 1.0
1.0 1.0 1.0 1.0 1.0 1.0 1.0 1.0
1.0 1.0 1.0 1.0 1.0 1.0 1.0 1.0
1.0 1.0 1.0 1.0 1.0 1.0 1.0 1.0
1.0 1.0 1.0 1.0 1.0 1.0 1.0 1.0
1.0 1.0 1.0 1.0 1.0 1.0 1.0 1.0
1.0 1.0 1.0 1.0 1.0 1.0 1.0 1.0
1.0 1.0 1.0 1.0 1.0 1.0 1.0 1.0
1.0 1.0 1.0 1.0 1.0 1.0 1.0 1.0
1.0 1.0 1.0 1.0 1.0 1.0 1.0 1.0
1.0 1.0 1.0 1.0 1.0 1.0 1.0 1.0
1.0 1.0 1.0 1.0 1.0 1.0 1.0 1.0
1.0 1.0 1.0 1.0 1.0 1.0 1.0 1.0
1.0 1.0 1.0 1.0 1.0 1.0 1.0 1.0
00000000: 0000 803f 0000 803f 0000 803f 0000 803f
00000010: 0000 803f 0000 803f 0000 803f 0000 803f
00000020: 0000 803f 0000 803f 0000 803f 0000 803f
00000030: 0000 803f 0000 803f 0000 803f 0000 803f
00000040: 0000 803f 0000 803f 0000 803f 0000 803f
00000050: 0000 803f 0000 803f 0000 803f 0000 803f
00000060: 0000 803f 0000 803f 0000 803f 0000 803f
00000070: 0000 803f 0000 803f 0000 803f 0000 803f
00000080: 0000 803f 0000 803f 0000 803f 0000 803f
00000090: 0000 803f 0000 803f 0000 803f 0000 803f
000000a0: 0000 803f 0000 803f 0000 803f 0000 803f
000000b0: 0000 803f 0000 803f 0000 803f 0000 803f
000000c0: 0000 803f 0000 803f 0000 803f 0000 803f
000000d0: 0000 803f 0000 803f 0000 803f 0000 803f
000000e0: 0000 803f 0000 803f 0000 803f 0000 803f
000000f0: 0000 803f 0000 803f 0000 803f 0000 803f
00000100: 0000 803f 0000 803f 0000 803f 0000 803f
00000110: 0000 803f 0000 803f 0000 803f 0000 803f
00000120: 0000 803f 0000 803f 0000 803f 0000 803f
00000130: 0000 803f 0000 803f 0000 803f 0000 803f
00000140: 0000 803f 0000 803f 0000 803f 0000 803f
00000150: 0000 803f 0000 803f 0000 803f 0000 803f
00000160: 0000 803f 0000 803f 0000 803f 0000 803f
00000170: 0000 803f 0000 803f 0000 803f 0000 803f
00000180: 0000 803f 0000 803f 0000 803f 0000 803f
00000190: 0000 803f 0000 803f 0000 803f 0000 803f
000001a0: 0000 803f 0000 803f 0000 803f 0000 803f
000001b0: 0000 803f 0000 803f 0000 803f 0000 803f
000001c0: 0000 803f 0000 803f 0000 803f 0000 803f
000001d0: 0000 803f 0000 803f 0000 803f 0000 803f
000001e0: 0000 803f 0000 803f 0000 803f 0000 803f
000001f0: 0000 803f 0000 803f 0000 803f 0000 803f

features.2.bias f4 [128]
0.0 0.0 0.0 0.0 0.0 0.0 0.0 0.0
0.0 0.0 0.0 0.0 0.0 0.0 0.0 0.0
0.0 0.0 0.0 0.0 0.0 0.0 0.0 0.0
0.0 0.0 0.0 0.0 0.0 0.0 0.0 0.0
0.0 0.0 0.0 0.0 0.0 0.0 0.0 0.0
0.0 0.0 0.0 0.0 0.0 0.0 0.0 0.0
0.0 0.0 0.0 0.0 0.0 0.0 0.0 0.0
0.0 0.0 0.0 0.0 0.0 0.0 0.0 0.0
0.0 0.0 0.0 0.0 0.0 0.0 0.0 0.0
0.0 0.0 0.0 0.0 0.0 0.0 0.0 0.0
0.0 0.0 0.0 0.0 0.0 0.0 0.0 0.0
0.0 0.0 0.0 0.0 0.0 0.0 0.0 0.0
0.0 0.0 0.0 0.0 0.0 0.0 0.0 0.0
0.0 0.0 0.0 0.0 0.0 0.0 0.0 0.0
0.0 0.0 0.0 0.0 0.0 0.0 0.0 0.0
0.0 0.0 0.0 0.0 0.0 0.0 0.0 0.0
00000000: 0000 0000 0000 0000 0000 0000 0000 0000
00000010: 0000 0000 0000 0000 0000 0000 0000 0000
00000020: 0000 0000 0000 0000 0000 0000 0000 0000
00000030: 0000 0000 0000 0000 0000 0000 0000 0000
00000040: 0000 0000 0000 0000 0000 0000 0000 0000
00000050: 0000 0000 0000 0000 0000 0000 0000 0000
00000060: 0000 0000 0000 0000 0000 0000 0000 0000
00000070: 0000 0000 0000 0000 0000 0000 0000 0000
00000080: 0000 0000 0000 0000 0000 0000 0000 0000
00000090: 0000 0000 0000 0000 0000 0000 0000 0000
000000a0: 0000 0000 0000 0000 0000 0000 0000 0000
000000b0: 0000 0000 0000 0000 0000 0000 0000 0000
000000c0: 0000 0000 0000 0000 0000 0000 0000 0000
000000d0: 0000 0000 0000 0000 0000 0000 0000 0000
000000e0: 0000 0000 0000 0000 0000 0000 0000 0000
000000f0: 0000 0000 0000 0000 0000 0000 0000 0000
00000100: 0000 0000 0000 0000 0000 0000 0000 0000
00000110: 0000 0000 0000 0000 0000 0000 0000 0000
00000120: 0000 0000 0000 0000 0000 0000 0000 0000
00000130: 0000 0000 0000 0000 0000 0000 0000 0000
00000140: 0000 0000 0000 0000 0000 0000 0000 0000
00000150: 0000 0000 0000 0000 0000 0000 0000 0000
00000160: 0000 0000 0000 0000 0000 0000 0000 0000
00000170: 0000 0000 0000 0000 0000 0000 0000 0000
00000180: 0000 0000 0000 0000 0000 0000 0000 0000
00000190: 0000 0000 0000 0000 0000 0000 0000 0000
000001a0: 0000 0000 0000 0000 0000 0000 0000 0000
000001b0: 0000 0000 0000 0000 0000 0000 0000 0000
000001c0: 0000 0000 0000 0000 0000 0000 0000 0000
000001d0: 0000 0000 0000 0000 0000 0000 0000 0000
000001e0: 0000 0000 0000 0000 0000 0000 0000 0000
000001f0: 0000 0000 0000 0000 0000 0000 0000 0000

features.3.weight f4 [128, 128]
0.07569949 0.084413216 0.0041960557 -0.019669892 0.0574007 -0.018643659 0.049781475 -0.005153063
0.029801182 0.015552755 0.057236746 -0.06690733 -0.032671057 -0.051349983 0.04262434 0.070363455
0.0009076113 0.07773414 0.06943955 0.033723358 0.0369572 0.08229967 -0.0344838 -0.031298574
-0.011018819 0.08061283 0.045759737 -0.015177301 -0.070761986 0.02426982 -0.03300428 -0.009615825
-0.020064808 -0.08027336 -0.07479018 0.043032397 -0.024767384 -0.04517588 0.06880016 0.035176087
-0.080489375 0.047176514 -0.060628936 0.0549552 0.044500697 -0.024919344 0.05191374 -0.06997222
0.020701382 -0.005656128 0.02145894 -0.054110747 0.08118033 0.026810106 0.07580335 0.028216103
-0.044676732 -0.08391655 -0.031699106 -0.042458355 0.057369098 -7.233453e-05 0.018382812 0.027656687
0.018078374 -0.064398445 -0.0060059787 0.06540062 0.054977085 0.009263414 -0.057732236 0.008365243
0.069099516 -0.014153417 0.07406058 0.08197986 0.03858505 -0.0013348644 0.0036677872 0.07223079
-0.0031920758 -0.024635265 -0.05636573 0.029202413 -0.04757123 0.04711669 0.06755283 -0.01798679
0.03668545 0.0628646 0.026171211 -0.06905385 -0.054639753 -0.06517988 -0.07759593 -0.012396389
-0.0799985 -0.045494888 0.084114075 -0.079641834 -0.06425314 -0.042148113 -0.08459943 -0.03831469
0.055504784 0.064326756 0.079517476 -0.08661452 0.048517387 -0.025362877 0.02806015 -0.07707151
0.02360764 -0.07922257 -0.07059428 0.029713212 -0.06706642 -0.04303403 0.0843585 -0.0028229326
0.069134064 0.024790322 -0.01618753 -0.080091216 0.06447436 0.026282521 -0.0018863033 0.025813416
-0.04406397 -0.0017954557 0.08788897 0.041454226 -0.0052303923 -0.057032842 -0.045652803 0.08444968
-0.012652083 0.019564766 -0.02363179 -0.084800646 0.017037727 0.012219888 0.03307986 0.07790333
-0.081069 0.035093457 0.04996488 -0.027198203 0.062531285 0.0550981 -0.057081297 -0.030187184
0.05098835 0.0035061752 -0.021632407 -0.056855 -0.03771324 -0.025711726 -0.03263912 -0.034115143
0.04713951 -0.07431652 -0.07256799 0.036773376 -0.03561454 -0.007962646 0.02563798 0.015901204
-0.048527416 0.06986212 0.07556802 -0.037021697 0.080367155 0.034975003 0.02385245 0.03477
0.069046095 -0.08668501 -0.010388671 0.079481326 -0.024859022 0.042239632 -0.037000455 0.050407123
-0.05387388 0.033657618 -0.012914237 0.017690096 0.033962004 0.048096657 0.008784678 0.024650374
-0.028154494 0.021039907 -0.03334157 0.0346015 -0.077547505 0.07047812 0.032212835 0.024612505
0.07681511 0.04157851 0.036175303 -0.07877619 0.06570601 0.030575061 -0.05412588 -0.05457176
-0.008669174 0.054565396 0.086174816 0.06502318 0.029964048 -0.0693802 0.00036865848 -0.048779678
-0.03625082 -0.047653545 -0.01441633 0.02136546 -0.04454162 0.085084274 0.04690077 -0.08306952
-0.037854783 -0.07188776 0.021744002 0.07000384 -0.03663167 0.0032325473 -0.018100744 -0.04443952
-0.03841227 -0.01432231 -0.041259255 -0.05433615 0.014215457 0.070554405 0.012480124 -0.043106783
0.012229267 0.06263011 -0.050398484 0.06415262 -0.018959664 -0.07844877 -0.07885443 0.02817031
-0.0449798 -0.04288701 0.025840169 0.025551906 0.009815927 -0.037195235 -0.017920513 -0.02864991
00000000: 5608 9b3d d6e0 ac3d 117f 893b c122 a1bc
00000010: ff1c 6b3d 96ba 98bc a9e7 4b3d 07db a8bb
00000020: 9c21 f43c fcd0 7e3c 1471 6a3d b606 89bd
00000030: 16d2 05bd 5c54 52bd dc96 2e3d b71a 903d
00000040: c3ec 6d3a 1433 9f3d 5336 8e3d 8121 0a3d
00000050: 6f60 173d bb8c a83d e33e 0dbd ef32 00bd
00000060: 4788 34bc 5718 a53d 906e 3b3d 37aa 78bc
00000070: a9eb 90bd 80d1 c63c 7f2f 07bd b18b 1dbc
00000080: f45e a4bc 5c66 a4bd 982b 99bd bd42 303d
00000090: f8e4 cabc 580a 39bd 19e7 8c3d cd14 103d
000000a0: 9dd7 a4bd 293c 413d 0c56 78bd b418 613d
000000b0: 5d46 363d a723 ccbc 80a3 543d 984d 8fbd
000000c0: f295 a93c 0a57 b9bb a9ca af3c 3ba3 5dbd
000000d0: df41 a63d dea0 db3c c93e 9b3d 7525 e73c
000000e0: f3fe 36bd 71dc abbd ecd6 01bd d0e8 2dbd
000000f0: dcfb 6a3d 4eb2 97b8 8d97 963c 4790 e23c
00000100: 1919 943c 55e3 83bd cdcd c4bb c3f0 853d
00000110: a72f 613d 93c5 173c a378 6cbd 5f0e 093c
00000120: 0c84 8d3d bce3 67bc 13ad 973d 0fe5 a73d
00000130: 5b0b 1e3d 9ef6 aeba 425f 703b bded 933d
00000140: 2532 51bb e5cf c9bc c0df 66bd e639 ef3c
00000150: 0dda 42bd 6efd 403d 2359 8a3d 0859 93bc
00000160: 7b43 163d 28bf 803d 0265 d63c 1b6c 8dbd
00000170: efcd 5fbd 077d 85bd 9dea 9ebd 391a 4bbc
00000180: 41d6 a3bd d958 3abd 0044 ac3d 421b a3bd
00000190: 2697 83bd 80a3 2cbd 7742 adbd ddef 1cbd
000001a0: fc58 633d bfbd 833d 0fda a23d f462 b1bd
000001b0: 2bba 463d cfc5 cfbc 66de e53c abd7 9dbd
000001c0: cf64 c13c 713f a2bd bc93 90bd 1f69 f33c
000001d0: 1f5a 89bd 7344 30bd 26c4 ac3d f300 39bb
000001e0: 2996 8d3d 1315 cb3c b69b 84bc dd06 a4bd
000001f0: 220b 843d 714e d73c d63d f7ba a876 d33c
00000200: 6c7c 34bd 7f55 ebba 22ff b33d e8cb 293d
00000210: b663 abbb 459b 69bd 6ffe 3abd f4f3 ac3d
00000220: af4a 4fbc 4a46 a03c 7597 c1bc f6ab adbd
00000230: b492 8b3c ed35 483c bf7e 073d c88b 9f3d
00000240: 8107 a6bd 28be 0f3d f9a7 4c3d c4ce debc
00000250: 6710 803d 8cae 613d 14ce 69bd 1d4b f7bc
00000260: 29d9 503d dcc7 653b 7236 b1bc cae0 68bd
00000270: 3379 1abd 66a1 d2bc 99b0 05bd 52bc 0bbd
00000280: 5c15 413d 4233 98bd 879e 94bd ae9f 163d
00000290: 8de0 11bd c275 02bc be06 d23c 3e43 823c
000002a0: afc4 46bd df13 8f3d 68c3 9a3d 10a4 17bd
000002b0: 8997 a43d f341 0f3d 3766 c33c fd6a 0e3d
000002c0: 0a68 8d3d e987 b1bd 3f35 2abc 1bc7 a23d
000002d0: 26a5 cbbc 7703 2d3d ca8d 17bd b377 4e3d
000002e0: dcaa 5cbd 92dc 093d 3c96 53bc d2ea 903c
000002f0: be1b 0b3d 0001 453d 9ced 0f3c 95ef c93c
00000300: 41a4 e6bc e25b ac3c 2c91 08bd 4dba 0d3d
00000310: 3ad1 9ebd d556 903d 9bf1 033d 2aa0 c93c
00000320: 3e51 9d3d 3a4e 2a3d 8e2c 143d 6955 a1bd
00000330: df90 863d 8d78 fa3c 19b3 5dbd a386 5fbd
00000340: 2709 0ebc f77f 5f3d 6c7c b03d df2a 853d
00000350: 2a77 f53c 3517 8ebd 8148 c139 33cd 47bd
00000360: bd7b 14bd 5d30 43bd 7832 6cbc 9e06 af3c
00000370: 4671 36bd aa40 ae3d 061b 403d 5a20 aabd
00000380: 9e0d 1bbd e439 93bd 7a20 b23c 2c5e 8f3d
00000390: 170b 16bd 25d9 533b 0348 94bc 3706 36bd
000003a0: 2f56 1dbd 1fa8 6abc 77ff 28bd 958f 5ebd
000003b0: f3e7 683c d47e 903d 6f79 4c3c bd90 30bd
000003c0: 435d 483c 3744 803d a46e 4ebd 7362 833d
000003d0: 4c51 9bbc c0a9 a0bd 6e7e a1bd 6cc5 e63c
000003e0: bd3c 38bd 4aaa 2fbd c3ae d33c 3b52 d13c
000003f0: fbd2 203c 085a 18bd 0ace 92bc 37b3 eabc

features.3.bias f4 [128]
-0.035333283 0.086738504 0.045380007 0.053544387 -0.055214785 -0.059728943 0.0543134 0.08714354
0.049038984 0.016234891 -0.011310823 0.021666473 0.060344867 0.02428061 0.035172325 -0.062025905
0.02004995 0.04948451 -0.06724144 0.060190186 -0.024539191 0.029089985 0.037279837 0.07785068
0.08511793 -0.0750497 0.04871378 0.08219613 0.018337376 -0.027529985 -0.0739998 0.031115627
0.05335045 -0.07330992 0.07968828 -0.01815211 -0.057066567 0.07906582 -0.08032255 0.04737051
-0.00073866564 0.074297115 0.028676063 0.01319446 -0.010379715 0.08296211 -0.076941274 0.012097115
0.07422177 0.021510055 -0.08308651 0.061468974 0.05892616 -0.0074540493 -0.04635579 0.039881498
-0.06609006 -0.088234626 0.0017502533 -0.08683276 0.013511973 0.028443053 0.051300112 -0.001772433
-0.08773764 -0.02761451 0.05054899 -0.07782244 0.07427661 0.05218805 -0.08332067 0.04311183
-0.034273826 -0.04451533 -0.05492715 -0.08666958 0.023378456 -0.047002997 0.040325787 0.06267971
0.06823338 0.020833377 0.0171878 -0.057821304 -0.03812014 0.061558917 -0.072051354 0.07983482
0.04600554 0.02471468 0.007853644 0.08268568 -0.08538159 0.0558657 -0.009490132 0.041028112
0.024603708 0.05759023 -0.040160816 -0.0018347998 0.062906496 -0.06500656 0.014907972 -0.03133103
0.064331375 0.0722932 -0.021916244 -0.04978076 0.0161567 -0.07633013 0.03995423 0.01223818
0.050293867 -0.06924921 -0.03558885 -0.030807408 0.020975137 0.03627555 -0.0041385572 -0.018765662
0.08342374 0.021671118 -0.06580128 0.04750643 -0.07206217 0.0061188163 -0.011013255 0.024278987
00000000: a2b9 10bd f5a3 b13d 63e0 393d 5c51 5b3d
00000010: e628 62bd 56a6 74bd ba77 5e3d 5078 b23d
00000020: 1add 483d 09ff 843c 0851 39bc e37d b13c
00000030: 2e2c 773d 21e8 c63c db10 103d e00e 7ebd
00000040: cb3f a43c 45b0 4a3d e1b5 89bd fc89 763d
00000050: 6a06 c9bc 1f4e ee3c beb2 183d 2d70 9f3d
00000060: 4f52 ae3d a8b3 99bd 1a88 473d 7256 a83d
00000070: 4438 963c 9086 e1bc 358d 97bd 33e6 fe3c
00000080: 0086 5a3d 8323 96bd 9c33 a33d bcb3 94bc
00000090: a2be 69bd 43ed a13d 2680 a4bd 9407 423d
000000a0: 03a3 41ba 1629 983d 10ea ea3c 942d 583c
000000b0: ae0f 2abc 0ae8 a93d 6393 9dbd fa32 463c
000000c0: 9501 983d db35 b03c 4329 aabd e4c6 7b3d
000000d0: 8f5c 713d 1941 f4bb 92df 3dbd c85a 233d
000000e0: 3a5a 87bd 5bb4 b4bd c168 e53a 60d5 b1bd
000000f0: 5361 5d3c 6801 e93c 1120 523d fc50 e8ba
00000100: cbaf b3bd d337 e2bc 750c 4f3d 5f61 9fbd
00000110: 561e 983d 23c3 553d 07a4 aabd 0896 303d
00000120: b662 0cbd b555 36bd 4bfb 60bd d27f b1bd
00000130: 2d84 bf3c 3786 40bd a72c 253d 385e 803d
00000140: f1bd 8b3d c2aa aa3c 6ecd 8c3c 08d6 6cbd
00000150: dd23 1cbd 3425 7c3d a98f 93bd 7080 a33d
00000160: 4e70 3c3d 7176 ca3c 92ac 003c 1c57 a93d
00000170: 8bdc aebd 6fd3 643d 807c 1bbc 180d 283d
00000180: b78d c93c bce3 6b3d ab7f 24bd aa7d f0ba
00000190: 1fd5 803d 2922 85bd 9140 743c f754 00bd
000001a0: 2bc0 833d 750e 943d b289 b3bc e9e6 4bbd
000001b0: 0e5b 843c f952 9cbd 0ca7 233d a682 483c
000001c0: f100 4e3d 88d2 8dbd 9dc5 11bd d15f fcbc
000001d0: 0dd4 ab3c ac95 143d bc9c 87bb 72ba 99bc
000001e0: 11da aa3d a187 b13c d2c2 86bd 1a96 423d
000001f0: 5595 93bd 5a80 c83b f170 34bc bae4 c63c

features.5.weight f4 [128]
1.0 1.0 1.0 1.0 1.0 1.0 1.0 1.0
1.0 1.0 1.0 1.0 1.0 1.0 1.0 1.0
1.0 1.0 1.0 1.0 1.0 1.0 1.0 1.0
1.0 1.0 1.0 1.0 1.0 1.0 1.0 1.0
1.0 1.0 1.0 1.0 1.0 1.0 1.0 1.0
1.0 1.0 1.0 1.0 1.0 1.0 1.0 1.0
1.0 1.0 1.0 1.0 1.0 1.0 1.0 1.0
1.0 1.0 1.0 1.0 1.0 1.0 1.0 1.0
1.0 1.0 1.0 1.0 1.0 1.0 1.0 1.0
1.0 1.0 1.0 1.0 1.0 1.0 1.0 1.0
1.0 1.0 1.0 1.0 1.0 1.0 1.0 1.0
1.0 1.0 1.0 1.0 1.0 1.0 1.0 1.0
1.0 1.0 1.0 1.0 1.0 1.0 1.0 1.0
1.0 1.0 1.0 1.0 1.0 1.0 1.0 1.0
1.0 1.0 1.0 1.0 1.0 1.0 1.0 1.0
1.0 1.0 1.0 1.0 1.0 1.0 1.0 1.0
00000000: 0000 803f 0000 803f 0000 803f 0000 803f
00000010: 0000 803f 0000 803f 0000 803f 0000 803f
00000020: 0000 803f 0000 803f 0000 803f 0000 803f
00000030: 0000 803f 0000 803f 0000 803f 0000 803f
00000040: 0000 803f 0000 803f 0000 803f 0000 803f
00000050: 0000 803f 0000 803f 0000 803f 0000 803f
00000060: 0000 803f 0000 803f 0000 803f 0000 803f
00000070: 0000 803f 0000 803f 0000 803f 0000 803f
00000080: 0000 803f 0000 803f 0000 803f 0000 803f
00000090: 0000 803f 0000 803f 0000 803f 0000 803f
000000a0: 0000 803f 0000 803f 0000 803f 0000 803f
000000b0: 0000 803f 0000 803f 0000 803f 0000 803f
000000c0: 0000 803f 0000 803f 0000 803f 0000 803f
000000d0: 0000 803f 0000 803f 0000 803f 0000 803f
000000e0: 0000 803f 0000 803f 0000 803f 0000 803f
000000f0: 0000 803f 0000 803f 0000 803f 0000 803f
00000100: 0000 803f 0000 803f 0000 803f 0000 803f
00000110: 0000 803f 0000 803f 0000 803f 0000 803f
00000120: 0000 803f 0000 803f 0000 803f 0000 803f
00000130: 0000 803f 0000 803f 0000 803f 0000 803f
00000140: 0000 803f 0000 803f 0000 803f 0000 803f
00000150: 0000 803f 0000 803f 0000 803f 0000 803f
00000160: 0000 803f 0000 803f 0000 803f 0000 803f
00000170: 0000 803f 0000 803f 0000 803f 0000 803f
00000180: 0000 803f 0000 803f 0000 803f 0000 803f
00000190: 0000 803f 0000 803f 0000 803f 0000 803f
000001a0: 0000 803f 0000 803f 0000 803f 0000 803f
000001b0: 0000 803f 0000 803f 0000 803f 0000 803f
000001c0: 0000 803f 0000 803f 0000 803f 0000 803f
000001d0: 0000 803f 0000 803f 0000 803f 0000 803f
000001e0: 0000 803f 0000 803f 0000 803f 0000 803f
000001f0: 0000 803f 0000 803f 0000 803f 0000 803f

features.5.bias f4 [128]
0.0 0.0 0.0 0.0 0.0 0.0 0.0 0.0
0.0 0.0 0.0 0.0 0.0 0.0 0.0 0.0
0.0 0.0 0.0 0.0 0.0 0.0 0.0 0.0
0.0 0.0 0.0 0.0 0.0 0.0 0.0 0.0
0.0 0.0 0.0 0.0 0.0 0.0 0.0 0.0
0.0 0.0 0.0 0.0 0.0 0.0 0.0 0.0
0.0 0.0 0.0 0.0 0.0 0.0 0.0 0.0
0.0 0.0 0.0 0.0 0.0 0.0 0.0 0.0
0.0 0.0 0.0 0.0 0.0 0.0 0.0 0.0
0.0 0.0 0.0 0.0 0.0 0.0 0.0 0.0
0.0 0.0 0.0 0.0 0.0 0.0 0.0 0.0
0.0 0.0 0.0 0.0 0.0 0.0 0.0 0.0
0.0 0.0 0.0 0.0 0.0 0.0 0.0 0.0
0.0 0.0 0.0 0.0 0.0 0.0 0.0 0.0
0.0 0.0 0.0 0.0 0.0 0.0 0.0 0.0
0.0 0.0 0.0 0.0 0.0 0.0 0.0 0.0
00000000: 0000 0000 0000 0000 0000 0000 0000 0000
00000010: 0000 0000 0000 0000 0000 0000 0000 0000
00000020: 0000 0000 0000 0000 0000 0000 0000 0000
00000030: 0000 0000 0000 0000 0000 0000 0000 0000
00000040: 0000 0000 0000 0000 0000 0000 0000 0000
00000050: 0000 0000 0000 0000 0000 0000 0000 0000
00000060: 0000 0000 0000 0000 0000 0000 0000 0000
00000070: 0000 0000 0000 0000 0000 0000 0000 0000
00000080: 0000 0000 0000 0000 0000 0000 0000 0000
00000090: 0000 0000 0000 0000 0000 0000 0000 0000
000000a0: 0000 0000 0000 0000 0000 0000 0000 0000
000000b0: 0000 0000 0000 0000 0000 0000 0000 0000
000000c0: 0000 0000 0000 0000 0000 0000 0000 0000
000000d0: 0000 0000 0000 0000 0000 0000 0000 0000
000000e0: 0000 0000 0000 0000 0000 0000 0000 0000
000000f0: 0000 0000 0000 0000 0000 0000 0000 0000
00000100: 0000 0000 0000 0000 0000 0000 0000 0000
00000110: 0000 0000 0000 0000 0000 0000 0000 0000
00000120: 0000 0000 0000 0000 0000 0000 0000 0000
00000130: 0000 0000 0000 0000 0000 0000 0000 0000
00000140: 0000 0000 0000 0000 0000 0000 0000 0000
00000150: 0000 0000 0000 0000 0000 0000 0000 0000
00000160: 0000 0000 0000 0000 0000 0000 0000 0000
00000170: 0000 0000 0000 0000 0000 0000 0000 0000
00000180: 0000 0000 0000 0000 0000 0000 0000 0000
00000190: 0000 0000 0000 0000 0000 0000 0000 0000
000001a0: 0000 0000 0000 0000 0000 0000 0000 0000
000001b0: 0000 0000 0000 0000 0000 0000 0000 0000
000001c0: 0000 0000 0000 0000 0000 0000 0000 0000
000001d0: 0000 0000 0000 0000 0000 0000 0000 0000
000001e0: 0000 0000 0000 0000 0000 0000 0000 0000
000001f0: 0000 0000 0000 0000 0000 0000 0000 0000

value_stream.0.weight f4 [64, 128]
-0.083502725 -0.08584022 0.04707667 0.028196009 0.00419633 0.07976494 0.050066177 -0.077298194
-0.0484766 -0.053922646 -0.051224887 -0.061078865 0.035119515 0.07029622 -0.07189117 0.056561995
0.002808708 -0.05469012 0.042417694 0.021547649 -0.028146371 -0.06377094 -0.018294366 -0.006787971
-0.0037433356 -0.056556214 0.024500564 0.04760539 -0.006116298 -0.06438445 -0.01853217 -0.077815324
0.079149954 0.061486077 -0.038265754 -0.02256872 0.08486733 0.021663543 -0.024439745 0.046413932
0.01841166 0.04491713 -0.041746665 -0.00068926957 0.04520697 -0.055448107 -0.04192347 -0.07297337
-0.049774963 -0.00940979 0.033996817 -0.036503155 -0.009385355 0.03405789 0.07418518 0.03174467
0.036543507 -0.06634269 -0.050271317 0.08610757 -0.0064565283 0.08526669 0.08125369 -0.060490325
-0.0036714224 0.013934833 -0.008254333 -0.03811058 -0.07388604 0.07348677 -0.02139158 0.026445355
0.04234835 -0.08386849 -0.056110635 -0.011001233 0.014206901 0.018200748 0.067063555 -0.018535605
0.047964294 0.013135129 0.034520503 -0.08161351 0.057639353 0.015042505 -0.01993566 -0.010105055
0.036024313 0.027123215 0.080789976 0.047854837 0.08215391 -0.06149732 -0.04069653 0.082283884
0.049150907 -0.059521582 -0.033128645 -0.03975137 -0.03714213 -0.014791805 -0.05863459 0.0064503537
-0.03480626 0.072663315 -0.060948346 -0.06719165 0.08806617 -0.050297238 -0.07435807 0.070378385
-0.037886098 0.0466534 0.060920794 0.07947596 -0.08198696 -0.025054384 -0.07701625 -0.060456894
0.054138605 -0.07757023 -0.084179565 0.053890128 0.004928958 0.02000339 0.005842048 -0.079287186
-0.07786489 -0.056150127 0.036233824 -0.031530246 -0.03270038 -0.0702107 0.0074235243 -0.056392495
0.031935267 -0.042868327 -0.05103288 0.013150564 0.027499333 -0.031105733 0.07724434 -0.06518931
0.043823335 0.026634268 -0.086802505 -0.0027806594 0.052990157 0.08835616 0.01723081 0.047018632
-0.07176927 0.049592234 0.013438533 -0.025249986 -0.045710742 -0.08688403 0.068915136 -0.015844064
-0.07293081 0.054752644 0.065552466 0.013571485 -0.012741234 0.017401338 -0.06888147 0.05929271
-0.069054425 0.07042661 0.030214012 0.018441048 -0.07394193 -0.026112301 0.048533317 0.016695157
0.017135633 0.08265393 0.06924093 0.016283698 0.03827725 -0.009942663 0.026495194 0.08517242
0.008994317 -0.039609376 0.07856576 -0.08804424 0.050696492 -0.037435398 -0.024472283 0.047164388
0.040413663 0.033502 0.034073062 0.0650351 0.006950047 0.025061706 0.019689174 0.029108152
0.06979715 0.06912857 -0.032255374 -0.021888787 0.0039419946 -0.006743274 0.008683473 -0.032838516
-0.0037782963 -0.028611798 0.03524218 -0.03203528 -0.03454617 0.04737979 -0.06903561 0.052309602
0.024403932 -0.011440836 0.083622284 0.0398407 0.014727995 0.04623643 0.08340072 0.07816708
-0.02747337 -0.056956198 -0.061147414 -0.051992994 -0.038844537 0.0091756005 -0.014938844 0.0048372676
0.056715876 -0.019070711 0.0018400998 -0.019198563 0.034049015 -0.07313459 0.046001576 0.041150674
0.04820199 0.00989118 0.045962118 -0.046357527 -0.07929204 0.0074691065 0.066846915 -0.08197289
-0.01587046 -0.053894248 0.0541734 -0.06389853 -0.025279531 0.015136735 0.050477583 0.061642706
00000000: 7a03 abbd ffcc afbd 77d3 403d 51fb e63c
00000010: 5e81 893b cd5b a33d 3112 4d3d 844e 9ebd
00000020: 668f 46bd fedd 5cbd 30d1 51bd d52d 7abd
00000030: 7bd9 0f3d 77f7 8f3d ae3b 93bd 8dad 673d
00000040: 4d12 383b bf02 60bd 2dbe 2d3d b284 b03c
00000050: 3893 e6bc 579a 82bd 11de 95bc a16d debb
00000060: c052 75bb 7da7 67bd 68b5 c83c dffd 423d
00000070: 3a6b c8bb ffdb 83bd c7d0 97bc a45d 9fbd
00000080: 5f19 a23d d3d8 7b3d 8dbc 1cbd 09e2 b8bc
00000090: ecce ad3d be77 b13c dc35 c8bc 891c 3e3d
000000a0: 0dd4 963c 06fb 373d 8dfe 2abd 19b0 34ba
000000b0: f22a 393d 8e1d 63bd f2b7 2bbd 1073 95bd
000000c0: d5e0 4bbd 852b 1abc 3f40 0b3d 5584 15bd
000000d0: 08c5 19bc 4980 0b3d 66ee 973d b306 023d
000000e0: a5ae 153d adde 87bd 4ce9 4dbd 2a59 b03d
000000f0: 4991 d3bb 4da0 ae3d 5668 a63d b4c4 77bd
00000100: 3f9c 70bb ed4e 643c 2f3d 07bc d719 1cbd
00000110: 9051 97bd 3b80 963d 653d afbc eea3 d83c
00000120: 7775 2d3d 3ec3 abbd 44d4 65bd 843e 34bc
00000130: 10c4 683c bc19 953c 9e58 893d fbd7 97bc
00000140: 3576 443d b934 573c 5f65 0d3d fc24 a7bd
00000150: 3e17 6c3d d774 763c 1c50 a3bc ac8f 25bc
00000160: 3b8e 133d 8131 de3c 3775 a53d 6f03 443d
00000170: 4f40 a83d 9de4 7bbd 68b1 26bd 7484 a83d
00000180: 7652 493d e7cc 73bd e7b1 07bd 55d2 22bd
00000190: 5922 18bd 5459 72bc d32a 70bd 7d5d d33b
000001a0: 0291 0ebd 81d0 943d f9a4 79bd c79b 89bd
000001b0: 095c b43d 7a04 4ebd 0b49 98bd 8b22 903d
000001c0: 742e 1bbd a317 3f3d 1588 793d 4bc4 a23d
000001d0: c7e8 a7bd da3e cdbc b2ba 9dbd a6a1 77bd
000001e0: 71c0 5d3d 24dd 9ebd 5666 acbd e5bb 5c3d
000001f0: 1983 a13b 26de a33c a76e bf3b 5261 a2bd
00000200: a177 9fbd adfd 65bd eb69 143d dc25 01bd
00000210: d5f0 05bd a1ca 8fbd 0941 f33b d1fb 66bd
00000220: 8ece 023d b396 2fbd da07 51bd 7775 573c
00000230: 4846 e13c 73d1 febc 4832 9e3d f981 85bd
00000240: 1980 333d 1c30 da3c 83c5 b1bd b93b 36bb
00000250: 350c 593d 13f4 b43d a127 8d3c 9c96 403d
00000260: c4fb 92bd 3a21 4b3d 4b2d 5c3c 0fd9 cebc
00000270: 303b 3bbd 41f0 b1bd 6123 8d3d 69cb 81bc
00000280: c05c 95bd 4f44 603d 5f40 863d ef5a 5e3c
00000290: 9cc0 50bc 408d 8e3c ba11 8dbd eadc 723d
000002a0: 686c 8dbd d43b 903d 6083 f73c ae11 973c
000002b0: de6e 97bd 77e9 d5bc dfca 463d 48c4 883c
000002c0: 0760 8c3c 7746 a93d 30ce 8d3d 6465 853c
000002d0: 9bc8 1c3d 8de6 22bc 730c d93c e16e ae3d
000002e0: e65c 133c 713d 22bd 16e7 a03d 8a50 b4bd
000002f0: 20a7 4f3d dc55 19bd 197a c8bc 722f 413d
00000300: cc88 253d 6539 093d 3290 0b3d 1f31 853d
00000310: 38bd e33b 354e cd3c 314b a13c 3874 ee3c
00000320: cff1 8e3d 4893 8d3d 361e 04bd 1d50 b3bc
00000330: d92b 813b aff6 dcbb 2045 0e3c ae81 06bd
00000340: 4b9d 77bb 4a63 eabc 1b5a 103d 6d37 03bd
00000350: 4980 0dbd 5011 423d 8b62 8dbd 9842 563d
00000360: c1ea c73c 5872 3bbc 2942 ab3d 0030 233d
00000370: b04d 713c 6962 3d3d ffcd aa3d 1016 a03d
00000380: d50f e1bc e74a 69bd b675 7abd 9bf6 54bd
00000390: 731b 1fbd 4255 163c 0ec2 74bc f181 9e3b
000003a0: e84e 683d 2e3a 9cbc 812f f13a 4e46 9dbc
000003b0: fb76 0b3d 97c7 95bd 266c 3c3d 9c8d 283d
000003c0: 736f 453d 9e0e 223c c642 3c3d 64e1 3dbd
000003d0: dd63 a2bd 68bf f43b 09e7 883d 67e1 a7bd
000003e0: c402 82bc 37c0 5cbd ede4 5d3d 3cdd 82bd
000003f0: 0517 cfbc 1100 783c 95c1 4e3d 107d 7c3d

value_stream.0.bias f4 [64]
-0.06656316 0.079818584 -0.076507814 -0.022231545 0.071055606 -0.037809063 -0.063749775 -0.014487063
0.071967766 0.08735832 0.010011994 0.082264334 -0.017855238 0.057345137 0.04669244 0.06664006
-0.026331423 -0.07011647 0.04344577 -0.08649256 0.03856644 0.05672188 0.087366425 -0.08248919
0.02573456 0.01143482 -0.04275298 -0.073343694 -0.009422244 -0.049828805 -0.01043793 0.075363666
-0.073579006 0.08000095 -0.04974763 0.057511788 0.07704204 -0.00851694 -0.03267882 -0.040441047
0.023512168 0.08035425 0.027137913 -0.06516184 -0.0015932141 0.007995289 0.030829692 -0.00058852806
0.059699126 -0.015781783 0.05502778 -0.05961989 -0.070920005 -0.056060176 0.06995143 0.058317266
0.013572887 -0.054841783 -0.007848965 0.003763134 0.012343389 -0.019343011 -0.07409089 -0.008732637
00000000: 4452 88bd ed77 a33d 21b0 9cbd ee1e b6bc
00000010: 9a85 913d addd 1abd 3e8f 82bd 255b 6dbc
00000020: d663 933d ebe8 b23d 5909 243c 347a a83d
00000030: 2645 92bc bce2 6a3d 9240 3f3d 957a 883d
00000040: ffb4 d7bc 3999 8fbd 31f4 313d 0323 b1bd
00000050: d8f7 1d3d 3455 683d 2bed b23d 18f0 a8bd
00000060: 49d1 d23c 1c59 3b3c c01d 2fbd 3835 96bd
00000070: c15f 1abc 4a19 4cbd da03 2bbc 4458 9a3d
00000080: 97b0 96bd 8ad7 a33d 2cc4 4bbd 7b91 6b3d
00000090: 38c8 9d3d a38a 0bbc 3ada 05bd 83a5 25bd
000000a0: 979c c03c c590 a43d 5450 de3c 9273 85bd
000000b0: 65d3 d0ba acfe 023c 8d8e fc3c 7347 1aba
000000c0: 1287 743d cc48 81bc cf64 613d fc33 74bd
000000d0: 823e 91bd 5b9f 65bd b242 8f3d 16de 6e3d
000000e0: d060 5e3c c7a1 60bd f298 00bc e99e 763b
000000f0: ed3b 4a3c 3c75 9ebc f7bc 97bd 5613 0fbc

value_stream.2.weight f4 [1, 64]
0.1242059 -0.05012989 0.100323215 -0.06071411 -0.037616625 -0.0829353 0.06046334 -0.08722019
0.0670169 -0.091466144 0.054313287 -0.056705862 -0.023638338 -0.07885447 -0.09742749 0.1132005
0.055360153 -0.121151134 -0.030676574 0.090318546 -0.09720793 0.032914788 0.03070335 -0.012659609
0.0057106465 0.075488195 0.08097565 0.093024746 -0.014462009 -0.07090688 0.10086872 -0.010792941
-0.120353684 0.040989548 -0.119745865 -0.001676619 -0.04505396 -0.10472965 0.0033994466 0.101445094
0.04632695 -0.10778825 0.011230588 0.09514806 -0.059397474 0.10355081 -0.0049833953 0.0058263093
-0.074455455 -0.03816253 -0.0400977 0.024862617 -0.009259492 -0.027294055 -0.056332648 0.025439426
0.03815733 -0.024541378 0.04645744 -0.008469686 0.024885342 -0.05980435 0.037631184 0.04126042
00000000: aa5f fe3d 0055 4dbd 4276 cd3d 5caf 78bd
00000010: e413 1abd fcd9 a9bd 68a8 773d 80a0 b2bd
00000020: 2840 893d 9a52 bbbd 9c77 5e3d 6844 68bd
00000030: 30a5 c1bc 747e a1bd 1088 c7bd aad5 e73d
00000040: 54c1 623d 161e f8bd 704d fbbc eef8 b83d
00000050: f414 c7bd a8d1 063d 9885 fb3c 406a 4fbc
00000060: 6020 bb3b 8e99 9a3d 90d6 a53d c283 be3d
00000070: 10f2 6cbc a037 91bd 4294 ce3d e0d4 30bc
00000080: fe7b f6bd a8e4 273d 523d f5bd 00c2 dbba
00000090: 808a 38bd 807c d6bd 40c9 5e3b 72c2 cf3d
000000a0: 54c1 3d3d 16c0 dcbd 8000 383c fcdc c23d
000000b0: c44a 73bd 7212 d43d c04b a3bb a0ea be3b
000000c0: 1a7c 98bd 5050 1cbd 7c3d 24bd b0ac cb3c
000000d0: 20b5 17bc c897 dfbc 10bd 66bd 5866 d03c
000000e0: dc4a 1c3d 000b c9bc 284a 3e3d 70c4 0abc
000000f0: 58dc cb3c 68f5 74bd 2823 1a3d b000 293d

advantage_stream.0.weight f4 [64, 128]
0.051834226 0.03930144 -0.079403885 -0.021754306 0.013745352 -0.08469945 0.000579045 -0.07985717
-0.08289633 0.08383074 0.016031649 0.07805246 -0.040374234 0.05698333 0.08084179 0.030929275
0.044773187 -0.04093462 0.06276062 0.031193977 -0.07457645 0.010262252 0.013600535 -0.053648353
0.07361481 -0.07875699 -0.06403644 0.07478507 -0.07743383 -0.0047199833 0.06598625 -0.04998732
0.031575195 -0.049261015 0.061594184 -0.059063055 -0.06360539 0.053253923 -0.01953792 0.01818074
0.07217331 -0.05982352 -0.08269173 0.05142201 0.032763284 0.05555629 -0.054487318 -0.021053614
0.081571065 0.027400497 -0.040569343 -0.07773138 -0.04910761 -0.06385139 0.048161246 0.03912971
-0.08482234 0.08465679 0.07811169 0.04864034 0.087451324 0.054854807 0.07456152 0.03522329
-0.027076263 0.08564495 -0.06624528 -0.003624176 0.049862448 -0.07673017 -0.08402046 -0.08624639
0.066683106 0.02683418 0.08439246 -0.036857724 0.042414807 -0.021250451 0.044777654 -0.07687191
0.03181163 0.07194614 0.07915287 -0.0470272 -0.015342864 -0.0065748766 -0.037258856 0.0021025166
-0.032709062 0.05980569 -0.07505183 0.081101954 0.03842958 -0.010110017 -0.069978684 0.050203364
0.052244864 0.06869071 -0.0477277 -0.00089887634 0.004171126 0.00016796573 -0.07581163 0.01718663
0.08676842 -0.0018691495 0.07819826 -0.01896038 -0.035894237 0.08430486 -0.021454126 0.04544284
-0.06353956 -0.026403587 0.052164722 -0.01828952 0.062086016 0.08144044 -0.003393875 -0.012665002
0.069999434 -0.037514403 -0.03792973 -0.072755545 -0.04181845 0.06334713 -0.08348313 -0.07889106
0.039207 0.0029326514 -0.06792231 0.010083592 0.016596923 -0.00021016525 -0.053441003 0.07966319
0.012077411 0.02920154 -0.07728789 -0.028929291 -0.059838302 -0.05407447 0.03105874 -0.058836546
-0.055067986 0.08608146 -0.012220984 0.044461004 0.004615849 -0.048129234 0.055772755 -0.086027175
0.026815437 0.019571584 0.042909347 0.02667434 0.0055559133 0.05706268 0.031066474 0.015902985
0.03656806 -0.03256871 -0.03463831 0.049876757 -0.015034919 -0.013968941 0.0547512 0.0015777989
-0.009273813 -0.022288991 0.02461868 0.058072425 0.04729284 -0.008949124 0.056160264 0.03234894
-0.04586407 -0.020684166 -0.039080013 0.017292451 0.012870225 -0.001333579 -0.013295771 0.07741045
-0.025686122 0.027216991 0.08801373 0.0028509286 -0.045610845 0.046526276 0.07356339 -0.020674989
0.011950075 0.03147104 -0.02473608 0.050494324 -0.012126544 -0.04141148 -0.05127891 -0.012914532
0.034215305 0.036891505 0.02491768 -0.03499499 0.04317212 -0.0058293515 -0.043347295 -0.010563201
0.016164687 -0.014966862 0.034596104 0.042006224 0.037323635 0.047221065 -0.06938531 -0.052554253
-0.07867274 0.04507305 0.0062539075 0.030815668 0.07045702 -0.019781254 0.051372234 0.0021149605
0.0137138255 0.006529084 -0.027965182 0.07663061 -0.081589125 0.03415727 0.010701074 0.04624962
0.028723804 0.05934214 -0.04022155 0.013459564 0.078398034 -0.07233671 0.0048616705 0.035722118
-0.06925372 -0.0012362513 0.02923985 -0.03457639 -0.08267378 -0.07016401 -0.059430342 -0.08807045
0.07748692 -0.07670025 0.02381298 0.04749266 0.03265559 0.028348539 0.030739024 -0.047990855
00000000: 2050 543d 8cfa 203d 819e a2bd 1636 b2bc
00000010: 2f34 613c e876 adbd 0dcb 173a 288c a3bd
00000020: 8dc5 a9bd 73af ab3d ce54 833c f8d9 9f3d
00000030: 745f 25bd 5a67 693d 6190 a53d 645f fd3c
00000040: 1764 373d 0fab 27bd a488 803d 838a ff3c
00000050: 8abb 98bd 0123 283c c7d4 5e3c 60be 5bbd
00000060: 5dc3 963d 584b a1bd 8925 83bd ea28 993d
00000070: a195 9ebd 17aa 9abb cd23 873d 81bf 4cbd
00000080: fe54 013d ebc5 49bd 2f4a 7c3d 1aec 71bd
00000090: 8b43 82bd c920 5a3d fd0d a0bc c6ef 943c
000000a0: 9acf 933d 8209 75bd 485a a9bd e39f 523d
000000b0: cb32 063d fe8e 633d 182e 5fbd a178 acbc
000000c0: bb0e a73d 0277 e03c 0a2c 26bd a131 9fbd
000000d0: 1025 49bd 84c4 82bd ba44 453d 7a46 203d
000000e0: 56b7 adbd 8a60 ad3d 06f9 9f3d 183b 473d
000000f0: ae19 b33d 6faf 603d b6b3 983d 4c46 103d
00000100: 0acf ddbc 9f66 af3d 9bab 87bd 9583 6dbb
00000110: 913c 4c3d b524 9dbd eb12 acbd f3a1 b0bd
00000120: 2791 883d 5bd3 db3c f4d5 ac3d 20f8 16bd
00000130: 26bb 2d3d 6d15 aebc c668 373d 056f 9dbd
00000140: e94c 023d 7f58 933d e61a a23d 989f 40bd
00000150: a360 7bbc 1072 d7bb be9c 18bd 60ca 093b
00000160: f0f9 05bd d0f6 743d c6b4 99bd c818 a63d
00000170: 5668 1d3d 7ca4 25bc fc50 8fbd 0ba2 4d3d
00000180: b6fe 553d b7ad 8c3d 1f7e 43bd 92a2 6bba
00000190: f1ad 883b f51f 3039 2143 9bbd faca 8c3c
000001a0: a4b3 b13d 40fe f4ba 6926 a03d cd52 9bbc
000001b0: d605 13bd 07a8 ac3d 90c0 afbc 4522 3a3d
000001c0: 0721 82bd 564c d8bc adaa 553d e7d3 95bc
000001d0: e84d 7e3d 3fca a63d c66b 5ebb de80 4fbc
000001e0: dd5b 8f3d b4a8 19bd 345c 1bbd dc00 95bd
000001f0: d349 2bbd 24bc 813d 34f9 aabd a391 a1bd
00000200: 8597 203d ba31 403b da1a 8bbd a635 253c
00000210: 45f6 873c ce5f 5cb9 f4e4 5abd 7426 a33d
00000220: 55e0 453c 1138 ef3c 1d49 9ebd 1ffd ecbc
00000230: 0219 75bd 317d 5dbd e66e fe3c 97fe 70bd
00000240: f88e 61bd 7a4b b03d 863a 48bc be1c 363d
00000250: 8c40 973b 2923 45bd f971 643d 042f b0bd
00000260: 0cac db3c 9654 a03c b6c1 2f3d 2584 da3c
00000270: 610e b63b 8fba 693d 1e7f fe3c fa46 823c
00000280: 64c8 153d c566 05bd e7e0 0dbd 924b 4c3d
00000290: 0555 76bc fcdd 64bc cb42 603d 25ce ce3a
000002a0: 31f1 17bc 6797 b6bc 1dad c93c 5add 6d3d
000002b0: 23b6 413d 599f 12bc 4e08 663d 5280 043d
000002c0: f7db 3bbd d771 a9bc 5d12 20bd e6a8 8d3c
000002d0: a3dd 523c 7ccb aeba 81d6 59bc 5f89 9e3d
000002e0: b46b d2bc 2bf6 de3c 8b40 b43d a5d6 3a3b
000002f0: 70d2 3abd 5692 3e3d 67a8 963d 985e a9bc
00000300: 3fca 433c c7e7 003d 52a3 cabc 23d3 4e3d
00000310: 69ae 46bc 169f 29bd d609 52bd 7997 53bc
00000320: 5925 0c3d 8c1b 173d 2a20 cc3c e856 0fbd
00000330: 40d5 303d 2504 bfbb ef8c 31bd 4711 2dbc
00000340: ce6b 843c 9237 75bc a5b4 0d3d b80e 2c3d
00000350: abe0 183d e06a 413d e319 8ebd 2143 57bd
00000360: 2c1f a1bd 859e 383d 94ed cc3b 2471 fc3c
00000370: c54b 903d 4c0c a2bc b16b 523d 269b 0a3b
00000380: f4af 603c edf1 d53b 3d17 e5bc 82f0 9c3d
00000390: 3318 a7bd 7ee8 0b3d 8f53 2f3c 3e70 3d3d
000003a0: 2f4e eb3c be10 733d 5abf 24bd 8185 5c3c
000003b0: 268f a03d 4525 94bd a64e 9f3b 5b51 123d
000003c0: e5d4 8dbd b609 a2ba 6988 ef3c f99f 0dbd
000003d0: df50 a9bd 26b2 8fbd 3b6d 73bd 485e b4bd
000003e0: 76b1 9e3d 0515 9dbd 7013 c33c aa87 423d
000003f0: dec1 053d 323b e83c 68d0 fb3c 0f92 44bd

advantage_stream.0.bias f4 [64]
0.061632622 -0.0054192417 0.06578598 -0.029378608 0.0052530565 0.012665539 0.0076953084 0.076251835
-0.038829744 -0.009039867 -0.0026179093 0.04842009 0.080996886 0.033083737 0.027858224 -0.00020897461
0.032754224 0.05965017 -0.022907138 -0.067051366 0.04174821 0.008893681 -0.0043644854 -0.0019214221
0.06716672 0.06872022 -0.012023737 0.016580865 0.05190926 0.0072147604 0.036952186 -0.03050594
-0.0021665797 0.025993489 0.033011813 0.062674336 -0.071919985 0.042662356 -0.033100236 -0.0029888963
0.0015589065 0.020818088 0.006117952 -0.06922609 0.019106252 -0.021308076 0.06894419 0.047624588
0.024072362 -0.0711436 0.011205614 -0.060908612 -0.014546099 0.032026757 0.031158933 0.08486675
0.07360299 0.07828287 -0.055006504 -0.031899314 0.019034253 -0.00039483167 -0.051814124 -0.023883881
00000000: 7d72 7c3d e593 b1bb cdba 863d 68ab f0bc
00000010: d521 ac3b 1f83 4f3c ed28 fc3b ec29 9c3d
00000020: f00b 1fbd f31b 14bc 3b91 2bbb 2554 463d
00000030: b2e1 a53d d082 073d ee36 e43c 3220 5bb9
00000040: 4b29 063d bd53 743d c0a7 bbbc 3a52 89bd
00000050: 2c00 2b3d cdb6 113c f503 8fbb 3ad8 fbba
00000060: b58e 893d 30bd 8c3d 35ff 44bc 98d4 873c
00000070: ce9e 543d cc69 ec3b 2d5b 173d 98e7 f9bc
00000080: 2dfd 0dbb 4cf0 d43c 6537 073d 675b 803d
00000090: c94a 93bd b9be 2e3d 1d94 07bd 5ce1 43bb
000000a0: 3954 cc3a b28a aa3c 1a79 c83b 69c6 8dbd
000000b0: b784 9c3c 468e aebc 9d32 8d3d 0012 433d
000000c0: 6733 c53c bcb3 91bd c097 373c 4f7b 79bd
000000d0: c352 6ebc 7d2e 033d 0541 ff3c 9ece ad3d
000000e0: 2abd 963d c552 a03d 804e 61bd dba8 02bd
000000f0: b9ed 9b3c 6901 cfb9 0c3b 54bd 21a8 c3bc
